code/models/lstm_5.pt (torch, 357326 bytes, 8 tensors)

lstm.weight_ih_l0 f4 [512, 34]
0	0x3d6a07e6	0.05713644
1	0xbb4b97e5	-0.0031065878
2	0x3d039610	0.032125533
3	0x3dba6642	0.091015354
4	0x3dd05acb	0.101735674
5	0x3cceaa8a	0.025227804
6	0xbcf89d2d	-0.030348385
7	0x3df1e8c8	0.118119776
8	0xbcbfd532	-0.02341709
9	0x3e05450e	0.13014624
10	0x3dba565f	0.09098505
11	0xbd263da0	-0.040586114
12	0xbd0ded2b	-0.03465001
13	0x3e07f362	0.13276437
14	0x3d393426	0.04521575
15	0xbd076bfd	-0.03306197
16	0x3bd08abb	0.006364194
17	0x3d0debcf	0.034648713
18	0x3dae21e5	0.085025586
19	0x3dd9c1ec	0.10632691
20	0xbbff8da8	-0.007798869
21	0x3d648eae	0.055800132
22	0x3d9d2d52	0.0767466
23	0xbd27bb82	-0.040950306
24	0x3d19729b	0.037462812
25	0x3e0315d4	0.12801296
26	0x3d9d74b6	0.076882765
27	0x3c3ec8eb	0.011644582
28	0x3dbbf1ca	0.09176977
29	0xbd3b0637	-0.045660224
30	0x3de390f9	0.11111636
31	0x3b9bce38	0.004754808
32	0x3de0eed3	0.10983052
33	0x3dc69273	0.09695902
34	0x3daeb650	0.08530867
35	0x3c6303e4	0.013855908
36	0xbc975834	-0.018474676
37	0x3d4b5175	0.04963823
38	0x3e04b0db	0.1295809
39	0x3d5183f5	0.051151235
40	0x3de0e6ee	0.10981546
41	0x3c067882	0.008207442
42	0x3d96e0de	0.07367109
43	0x3d63a085	0.055573005
44	0x3d9337fa	0.07188411
45	0x3cbac1c7	0.022797478
46	0x3d108903	0.035286915
47	0xbd332b5d	-0.043742526
48	0xbcc34467	-0.023836328
49	0xbc83ec06	-0.016103756
50	0x3d7a270f	0.061072405
51	0x3b229a44	0.0024811188
52	0x3df1b4ad	0.11802039
53	0x3c797bc1	0.015227259
54	0xbce59793	-0.028026378
55	0xbc34a71c	-0.01102617
56	0xbb9ca3f7	-0.0047802883
57	0x3bca3617	0.006170999
58	0x3d49b197	0.04924163
59	0x3dca4bbc	0.098777264
60	0x3c1aebbb	0.009455617
61	0x3cb2690d	0.021778608
62	0x3c17192a	0.009222308
63	0x3c3442ad	0.011002225
64	0xbc429c36	-0.011878064
65	0x3d8e38f8	0.0694446
66	0xbdc433dc	-0.09580204
67	0xbab445af	-0.0013753677
68	0xbd932fa3	-0.0718682
69	0xbd043fac	-0.032287285
70	0xbb382a1f	-0.0028101278
71	0xbd316d06	-0.043316863
72	0x3cd858f7	0.02640961
73	0xbd04b8a8	-0.032402664
74	0x3d2116e3	0.039328467
75	0xbd924680	-0.07142353
76	0x3d301bd0	0.042995274
77	0x3cbac577	0.022799237
78	0xbd1a4201	-0.037660602
79	0x3d012da4	0.031537667
80	0x3aa34070	0.0012455117
81	0x3c462c27	0.012095488
82	0x3d05d607	0.032674816
83	0xbd867ddf	-0.06566977
84	0xbd02d16a	-0.031937994
85	0xbc5aa5df	-0.013345211
86	0xbc8dc48b	-0.017305633
87	0xbd18ff50	-0.03735286
88	0xbd815064	-0.063141614
89	0x3da64c70	0.08120048
90	0xbd5e3d96	-0.05425795
91	0xbd5b837f	-0.0535922
92	0x3a77c546	0.0009451698
93	0x3cec1330	0.028817743
94	0x3d085668	0.03328553
95	0xbd534eaa	-0.05158869
96	0xbcec569c	-0.028849892
97	0x3d25f4a4	0.04051651
98	0xbd83545f	-0.06412577
99	0xbd6fa25f	-0.05850446
100	0x3b83cee3	0.0040224656
101	0xbc923b8a	-0.017850656
102	0x3db32946	0.08748107
103	0x3e3537c0	0.17697048
104	0x3da038a5	0.07823304
105	0x3dea7618	0.11448306
106	0x3d656fa8	0.056014687
107	0x3cdb81f1	0.02679536
108	0x3d176a4e	0.036966614
109	0x3c939fb7	0.018020494
110	0x3d984855	0.07435671
111	0x3d8b9384	0.06815246
112	0x3df1fa05	0.118152656
113	0x3d3be98f	0.045877036
114	0x3df617f1	0.12016285
115	0x3d72fe4e	0.059324555
116	0xbc9295a6	-0.017893624
117	0xbb943e1b	-0.004524005
118	0x3cd533c7	0.026025666
119	0x3da6c134	0.08142319
120	0x3d6d7578	0.057973355
121	0x3d153cd6	0.03643497
122	0x3e243440	0.16035557
123	0xbb9a1d02	-0.004703165
124	0x3df4376e	0.11924635
125	0x3e0a15dd	0.13484903
126	0x3dfdce6a	0.12392886
127	0xbcee2747	-0.029071463
128	0x3d88d0d1	0.066804536
129	0xbcf15011	-0.029457124
130	0x3e15db10	0.14634347
131	0xbc8348c1	-0.016025903
132	0x3e1276a5	0.14303072
133	0xbd457ab5	-0.048212726
134	0x3d9ac7b8	0.075576246
135	0x3cad2379	0.021135079
136	0xbdd6d959	-0.104906745
137	0x3dcf3c4e	0.10118924
138	0xbdc985cb	-0.09839972
139	0xbcffcc20	-0.031225264
140	0x3d035ddf	0.032071944
141	0xbd7af359	-0.06126723
142	0x3d3f85e6	0.046758555
143	0x3ccc409c	0.024933152
144	0xbc489957	-0.01224359
145	0xbcbc8bd4	-0.023015894
146	0xbd55565f	-0.052084323
147	0x3d97f017	0.074188404
148	0xbc6df6ee	-0.014524205
149	0x3d585c45	0.05282237
150	0xbdbce094	-0.092225224
151	0x3d6bab28	0.057536274
152	0x3cc60526	0.024172377
153	0xbd5fb622	-0.054617055
154	0x3d3c62b6	0.045992576
155	0x3b9b183a	0.0047331126
156	0x3caaf442	0.020868424
157	0xbd9fea11	-0.078083165
158	0xbda2d675	-0.07951061
159	0xbc848e0c	-0.016181014
160	0x3d0675fe	0.03282737
161	0x3d8c4a9e	0.068501696
162	0x3c997bc0	0.018735766
163	0xbd99818b	-0.074954115
164	0x3c03a482	0.008034827
165	0x3d1a4fd2	0.03767378
166	0xbd09c7cf	-0.033637818
167	0xbd99a791	-0.07502664
168	0xbb4b78c3	-0.0031047321
169	0xbd918117	-0.071047
170	0x3ce205fd	0.027590746
171	0xbd6d4f78	-0.057937115
172	0xbce2ca2c	-0.027684294
173	0xbc81921a	-0.015816737
174	0xbdbc1f08	-0.09185606
175	0xbb266d22	-0.0025394638
176	0x3d281efd	0.041045178
177	0x3d985ae3	0.0743921
178	0xbd71634e	-0.058932595
179	0x3d6fa414	0.058506086
180	0xbdb455c5	-0.08805422
181	0xbd83a28b	-0.06427487
182	0x3cf7fb40	0.030271173
183	0xbd7a5a23	-0.061121117
184	0xbd96bd6c	-0.07360348
185	0xbdca3986	-0.09874253
186	0xbc597be8	-0.01327417
187	0x3d8929e9	0.06697447
188	0x3d50423c	0.050844416
189	0xbd41acc1	-0.04728389
190	0xbd9bc2b3	-0.07605495
191	0x3d7885f7	0.060674634
192	0xbdc16ea5	-0.09444932
193	0xbd22afa1	-0.039718274
194	0x3d2bac09	0.041912112
195	0x3d595f75	0.05306955
196	0xbc97a5cb	-0.018511673
197	0x3d8f6cfe	0.070032105
198	0xb91fa9ed	-0.00015226724
199	0xbb4e1273	-0.0031444102
200	0x3d5b7894	0.05358179
201	0xbbd25b6b	-0.0064195893
202	0xbd01789e	-0.03160917
203	0xbbbc7130	-0.0057507977
204	0xbcd0cfa6	-0.02548964
205	0x3dd71994	0.105029255
206	0xbc253ea1	-0.010085733
207	0x3d550739	0.05200884
208	0xbd4a2293	-0.04934938
209	0x3d2692dc	0.0406674
210	0xbaa67232	-0.0012698828
211	0x3d0b02d0	0.03393823
212	0x3cb250db	0.02176707
213	0x3d00ad62	0.03141535
214	0xbc9edfed	-0.019393886
215	0x3dee4c3c	0.11635634
216	0x3d915f54	0.070982605
217	0x3c3b6797	0.011438272
218	0x3cee209e	0.029068287
219	0x3cfcd9db	0.0308656
220	0xbc9cd65a	-0.01914518
221	0x3c1c8275	0.009552588
222	0x3df932e1	0.121679075
223	0x3e06f324	0.13178688
224	0x3d693a6a	0.056940474
225	0x3da0cbd0	0.07851374
226	0x3c278367	0.0102242
227	0x3de0bba5	0.1097329
228	0x3d4c227a	0.049837567
229	0x3d7b3e3a	0.06133864
230	0x3dbf9e4f	0.09356367
231	0x3cadcc68	0.021215633
232	0x3b622549	0.0034507087
233	0x3de5f0d0	0.11227572
234	0x3ca84495	0.020540515
235	0x3d9e339a	0.07724686
236	0x3d7ca571	0.061681215
237	0x3d94ddb7	0.07268851
238	0x3d17e2da	0.037081577
239	0x3da0e4fc	0.07856175
240	0xbc6e6077	-0.014549366
241	0xbc9366d1	-0.017993363
242	0x3d1ad03c	0.037796244
243	0xbd1a0340	-0.037600756
244	0x3c1f48ed	0.009721977
245	0x3d55ebaa	0.0522267
246	0x3cac66e8	0.021045163
247	0x3da3bbed	0.079948284
248	0x3d8cf184	0.06882003
249	0x3d8b7dc6	0.06811099
250	0x3d2ef0f1	0.04271025
251	0x3d84a436	0.06476633
252	0x3d9726b3	0.07380428
253	0x3cfd3009	0.030906694
254	0xbd37cf5a	-0.04487548
255	0x3dbe281f	0.09284996

lstm.weight_hh_l0 f4 [512, 128]
0	0xbde49247	-0.11160713
1	0x3dae3e7f	0.08508014
2	0x3d2dae7f	0.04240274
3	0x3c82ea71	0.015980931
4	0x3d378989	0.044808898
5	0xbd3bd9e6	-0.0458621
6	0x3d80ae28	0.06283218
7	0xbd1bcce9	-0.038037214
8	0x3de032cd	0.109471895
9	0xbc5edd48	-0.013602562
10	0xbd4feca7	-0.0507628
11	0xbcf385ce	-0.029726889
12	0xbd82ab5d	-0.06380341
13	0xbcad00ea	-0.0211186
14	0xbdc0e6d5	-0.09419028
15	0x3bf5f6f8	0.0075062476
16	0x3d3c22b9	0.04593155
17	0xbbba5137	-0.005685951
18	0x3c4a737c	0.012356635
19	0xbc8c2382	-0.017106775
20	0xbd8ec583	-0.06971266
21	0x3dc0b280	0.09409046
22	0x3d804c5d	0.06264565
23	0xbd866c6c	-0.065636486
24	0xbd8e093d	-0.06935356
25	0xbd9fba8e	-0.07799254
26	0xbd80e3c8	-0.06293446
27	0x3c96e185	0.018418083
28	0xbd096f1a	-0.03355322
29	0xbc5a186f	-0.0133114895
30	0x3da189d3	0.07887616
31	0xbafb1b3a	-0.0019157894
32	0xbdbb1448	-0.09134728
33	0xbd7946c7	-0.060858514
34	0x3c593929	0.013258257
35	0x3da48313	0.08032813
36	0xbcbf6818	-0.023365065
37	0x3ccfaf18	0.025352046
38	0x3d557fe3	0.052123915
39	0x3d1a22c9	0.03763083
40	0x3da96a6d	0.08272252
41	0x3d64cde4	0.055860415
42	0xbce6454e	-0.028109219
43	0x3c25a729	0.010110655
44	0x3d88472e	0.066542014
45	0x3d6af1b2	0.057359405
46	0x3d6b286c	0.057411596
47	0x3d1e3efb	0.03863428
48	0xbc679d7f	-0.014136671
49	0x3c9455c3	0.0181073
50	0xbda159e1	-0.07878471
51	0x3d8b37fe	0.06797789
52	0xbdb1a96a	-0.08674891
53	0xbd69cc74	-0.057079747
54	0xbbe266d2	-0.00690923
55	0xbd8bb930	-0.06822431
56	0xbdc9c948	-0.098528445
57	0xbd94a27e	-0.072575554
58	0x3d62b179	0.055345032
59	0xbd0f0a32	-0.034921832
60	0xbcd8c655	-0.02646176
61	0x3bd10b66	0.0063795326
62	0x3c3aad76	0.011393895
63	0xbc29d09b	-0.010364677
64	0x3d128b6b	0.03577749
65	0x3db276fb	0.087141
66	0x3dc5373e	0.09629677
67	0xbbdeb95d	-0.0067969994
68	0xbd34280b	-0.0439835
69	0x3d4898df	0.048973914
70	0xbcbcffe2	-0.023071233
71	0x3c56b79b	0.013105298
72	0x3c9b4fe2	0.01895899
73	0x3d8af6a1	0.06785322
74	0xbd6b169f	-0.05739462
75	0x3c0d64cc	0.008629989
76	0xbd63e3b7	-0.055637088
77	0xbd14065a	-0.03613887
78	0x3d8368b0	0.06416452
79	0xbd0737b1	-0.033012096
80	0xbc6611f4	-0.014042366
81	0xbd655482	-0.055988796
82	0x3d47e5cd	0.04880314
83	0xbd39841c	-0.045292005
84	0xbd5724c1	-0.052525286
85	0x3cb5b4da	0.022180963
86	0x3ce8a5e8	0.028399423
87	0xbb0ef43a	-0.002181305
88	0x3bab910b	0.0052357963
89	0x3c481138	0.0122111365
90	0x3d8dc11f	0.069216006
91	0xbbc4b656	-0.0060031815
92	0xbd982a1e	-0.07429908
93	0xbca35321	-0.0199371
94	0xbd490c7c	-0.04908417
95	0x3d220706	0.03955748
96	0xbd76647c	-0.060154423
97	0x3c94654b	0.018114707
98	0x3cc3275c	0.023822479
99	0xbdf9a090	-0.12188828
100	0xbdb3f756	-0.0878741
101	0xbda55cb7	-0.080743246
102	0x3d4186a8	0.04724756
103	0xbd906b53	-0.070517205
104	0xbce4a3ee	-0.027910199
105	0xbd646899	-0.055763815
106	0x3d2c6e7b	0.04209755
107	0x3d8bd5ed	0.068279125
108	0xbcd3c8c5	-0.02585257
109	0xbc204264	-0.009781454
110	0x3ba2e2bb	0.004970876
111	0x3dac4152	0.08410896
112	0x3b3f2f67	0.002917254
113	0xbbf8b46d	-0.007589868
114	0xbd1dc33c	-0.038516268
115	0xbdbfa8e0	-0.09358382
116	0xbd6a4534	-0.057194903
117	0xbd9757e8	-0.07389814
118	0x3dc1ebdb	0.09468814
119	0x3cd8fc7c	0.026487581
120	0xbd9b6ea9	-0.07589466
121	0x3d325a74	0.043543294
122	0x3caa20e3	0.020767635
123	0x3cdea765	0.02717943
124	0xbd3fef11	-0.04685885
125	0xbd07b786	-0.033134006
126	0xbda0012a	-0.07812722
127	0xbd374711	-0.04474551
128	0xbd9b07de	-0.0756986
129	0x3d9f7dfd	0.07787702
130	0x3cc28cba	0.023748744
131	0x3ba6d876	0.005091722
132	0xbd075104	-0.033036247
133	0x3c3162c9	0.010826775
134	0x3ce6388f	0.028103141
135	0x3d1c4aa3	0.038157117
136	0x3d74c819	0.05976114
137	0x3d9958f8	0.074876726
138	0xbd01b0be	-0.031662695
139	0x3d3a667c	0.045507893
140	0x3d5b35b0	0.053517997
141	0x3ddffa2f	0.109363906
142	0xbde53f7d	-0.1119375
143	0x3d20746a	0.03917352
144	0xbdc5b4c6	-0.096536204
145	0x3d493847	0.049125936
146	0xbd6b15ee	-0.05739396
147	0xbdb57d54	-0.08861795
148	0xbd193768	-0.037406355
149	0xbd041aa5	-0.032251973
150	0xbbaf3855	-0.0053472915
151	0x3cecd1e5	0.02890868
152	0xbc7605ff	-0.015016078
153	0xbd93b34a	-0.07211931
154	0x3cf23fcf	0.029571442
155	0x3db3c30b	0.08777436
156	0xbd0c8572	-0.03430695
157	0x3dca5323	0.09879138
158	0xbc7c95e1	-0.015416593
159	0x3d81d15e	0.06338762
160	0x3c87d83b	0.016582599
161	0x3cae2e8b	0.021262428
162	0x3bed99a5	0.007250982
163	0x3db1081f	0.08644127
164	0xbd3d6cd2	-0.046246357
165	0x3db6f929	0.08934242
166	0xbd16fa7e	-0.03685998
167	0x3b0c1af5	0.0021378372
168	0x3bc11fec	0.005893698
169	0xbd4d1ef4	-0.050078347
170	0xbcc16b5b	-0.023610761
171	0xbb380fc5	-0.0028085571
172	0x3cfcca70	0.030858248
173	0x3c19bc49	0.00938327
174	0x3dc468b8	0.09590286
175	0xbd44206a	-0.047882475
176	0x3c35d881	0.011098982
177	0x3c9b6096	0.018966954
178	0x3d3c00e7	0.045899298
179	0x3c4dcabe	0.012560545
180	0x3cd3ddf6	0.025862675
181	0x3d59f364	0.05321063
182	0x3dcbf656	0.09959094
183	0x3d84d1d7	0.06485336
184	0x3c1a6376	0.009423127
185	0x3a033257	0.00050047546
186	0xbd22c55d	-0.039739
187	0x3d81922b	0.063267075
188	0x3d0c2bd8	0.0342215
189	0xbdbaa47f	-0.091134064
190	0xbdb7ff39	-0.08984227
191	0xbd8f03f9	-0.069831796
192	0xbcbb6978	-0.02287744
193	0xb966be4a	-0.00022005397
194	0x3d9d50e2	0.07681443
195	0xbdbab24d	-0.091160394
196	0xbcee6e73	-0.0291054
197	0x3b7964b8	0.0038054418
198	0x3bf94329	0.007606883
199	0x3c3f5104	0.0116770305
200	0x3ca584e4	0.020204969
201	0x3cb61e64	0.022231288
202	0x3de754f5	0.11295501
203	0x3dbc3f87	0.091918044
204	0x3ca48993	0.020085132
205	0x3e0d4759	0.13796748
206	0xbdcd46c6	-0.100232646
207	0x3c1a5f14	0.009422082
208	0xbcc6c614	-0.024264373
209	0xbd0da9b0	-0.034585655
210	0xbdd6ac96	-0.10482137
211	0x3c8b7fe3	0.017028755
212	0xbd4ae04a	-0.049530305
213	0xbdcc3dd0	-0.09972727
214	0x3ca672ee	0.020318475
215	0x3d32403e	0.043518297
216	0xbc4686e1	-0.012117119
217	0xbd22890b	-0.039681476
218	0xbcec185a	-0.028820205
219	0xbd73e515	-0.05954464
220	0x3b2610f9	0.0025339706
221	0xbd4eb75c	-0.050467834
222	0xbdd5b200	-0.104343414
223	0xbd243313	-0.04008777
224	0xbcf96aed	-0.030446494
225	0x3ca6fecf	0.020385174
226	0xbd4e014d	-0.05029421
227	0x3df38599	0.11890716
228	0x3d36872a	0.044562496
229	0xbca2f403	-0.019891744
230	0x3cb91279	0.022591816
231	0x3cce8c8b	0.0252135
232	0xbd1f3293	-0.03886659
233	0xbcf9a8f7	-0.030476077
234	0xbb954ae2	-0.004556046
235	0xbd7f3ec1	-0.062315706
236	0x3de3a92a	0.1111625
237	0xbd41ec0c	-0.047344252
238	0xbd2372fb	-0.039904576
239	0xbd971402	-0.07376863
240	0xbdb1ae0b	-0.08675774
241	0x3d8ef087	0.06979471
242	0xbd122ff1	-0.03569025
243	0xbdb2cbd8	-0.08730286
244	0xbc4994f9	-0.012303584
245	0x3c9f5739	0.01945077
246	0x3cedf830	0.02904901
247	0xbd571dbc	-0.05251859
248	0xbd1c30c2	-0.038132437
249	0x3e07a164	0.1324516
250	0xbd8b364a	-0.06797464
251	0xbc8daaeb	-0.017293414
252	0xbc0324c1	-0.008004368
253	0xba3a2156	-0.00071003044
254	0xbdaf84ac	-0.08570227
255	0x3d2c78bc	0.04210733

lstm.bias_ih_l0 f4 [512]
0	0x3da7f50b	0.08201035
1	0x3d734ec5	0.059401292
2	0xbd7b62ca	-0.06137351
3	0x3de135bc	0.10996577
4	0xbd53308b	-0.051559966
5	0x3d7b17cc	0.06130199
6	0xbc34cd23	-0.0110352365
7	0x3d9804f3	0.07422819
8	0xbd82b0e4	-0.063813955
9	0xbcdfbdf1	-0.02731225
10	0x3df7650b	0.12079819
11	0xbd1c8653	-0.03821404
12	0xbdab84c5	-0.08374933
13	0x3de38c8d	0.11110792
14	0x3ba33a2d	0.0049813003
15	0x3d435a00	0.047693253
16	0x3c6d697f	0.014490484
17	0xbb866361	-0.0041012024
18	0x3d2c9122	0.042130597
19	0xbca38945	-0.019962916
20	0x3c4d3ef6	0.012527218
21	0x3dd7b514	0.10532585
22	0x3d96370d	0.07334719
23	0x3d324753	0.04352505
24	0x3b191a0c	0.0023361472
25	0xbdc37060	-0.09542918
26	0x3d5bb8e8	0.053643137
27	0x3d81ded5	0.0634133
28	0x3db05246	0.086094424
29	0xbb430205	-0.0029755842
30	0x3dcf50bb	0.1012282
31	0x3d74965a	0.0597137
32	0x3cbf6cf9	0.023367392
33	0xbd9d20dc	-0.07672283
34	0xbd2ef23b	-0.042711478
35	0x3d1b40dc	0.03790365
36	0xbcb3ac61	-0.021932783
37	0x3d3b00fe	0.045655243
38	0x3bd3f782	0.006468714
39	0xbd2b539d	-0.041827787
40	0xbd51f876	-0.05126234
41	0x3a17517c	0.0005772335
42	0xbb08c248	-0.0020867754
43	0x3d9cca27	0.07655745
44	0xbd97daeb	-0.07414802
45	0x3bd7a623	0.0065810843
46	0x3d85cbf8	0.065330446
47	0x3da5996c	0.080859035
48	0xbd8ba060	-0.068176985
49	0x3d54410d	0.05181985
50	0x3dd8d084	0.10586646
51	0xbc0a4205	-0.008438592
52	0x3df9691c	0.12178251
53	0x3dbbce79	0.09170241
54	0x3d43e91d	0.047829736
55	0x3cb12440	0.02162373
56	0xbc23daec	-0.0100009255
57	0xbd6222c3	-0.055208933
58	0x3d44d8bc	0.048058257
59	0xbc82f57f	-0.015986202
60	0xbd8101d3	-0.06299176
61	0x3d7b476b	0.061347406
62	0x3dcd1fc9	0.10015828
63	0xbcfc3aec	-0.030789815
64	0xbd425a56	-0.047449432
65	0xbd46d1e1	-0.04854
66	0x3c9a736f	0.018853871
67	0x3d1e4025	0.03863539
68	0x3d22d943	0.03975798
69	0x3d9f7dea	0.07787688
70	0xbd04bd88	-0.032407314
71	0x3dbf528e	0.09341918
72	0x3d37a70a	0.044837035
73	0x3ce9f7a0	0.02856046
74	0x3db39fe1	0.08770729
75	0xbc74c056	-0.014938435
76	0x3e03c7e0	0.12869215
77	0xbc606449	-0.013695785
78	0x3dbe8e67	0.09304505
79	0xbd00bf25	-0.03143229
80	0x3e1330c2	0.14374068
81	0xbd7df293	-0.061998915
82	0xbc8528f3	-0.016254878
83	0x3cdf7dd2	0.027281675
84	0x3dca5b2a	0.098806694
85	0x3df5238b	0.1196967
86	0xbc924b85	-0.017858276
87	0x3ce51ee2	0.027968828
88	0x3ca7f9b5	0.020504812
89	0xbd4cf2bf	-0.05003619
90	0xbcba45f5	-0.022738436
91	0xbc332955	-0.010935147
92	0x3da88c0b	0.08229836
93	0x3d578c03	0.05262376
94	0xbb66cd02	-0.003521741
95	0x3d32aa1d	0.043619264
96	0xbc459527	-0.0120594865
97	0x3db143ca	0.08655508
98	0xbb4090dc	-0.0029383218
99	0xbd5c3b7d	-0.05376767
100	0x3cf40d47	0.029791487
101	0xbd567913	-0.05236156
102	0xbd17cfae	-0.037063293
103	0xbce7ec2c	-0.028310858
104	0x3d2849f0	0.041086137
105	0xbd5fec4d	-0.054668713
106	0x3dde332c	0.10849604
107	0x3d9c5c3f	0.07634782
108	0x3dc3d795	0.095626034
109	0x3d90e42f	0.070747726
110	0xbcf6641a	-0.030077029
111	0x3db576fe	0.088605866
112	0xbc9ce035	-0.019149879
113	0xbd91ee45	-0.071255244
114	0xbbf60365	-0.007507729
115	0x3dbf4925	0.09340123
116	0xbd8129fb	-0.06306835
117	0xbc091d65	-0.008368825
118	0x3d360826	0.044441365
119	0xbce21834	-0.027599432
120	0x3d2f5f45	0.042815465
121	0x3dc39f09	0.09551818
122	0xbc13b829	-0.009016075
123	0xbd04f10d	-0.032456446
124	0x3c7990d1	0.015232281
125	0xbcb1479f	-0.021640597
126	0x3ceef5df	0.029169975
127	0x3ac51ec5	0.0015039077
128	0xbd357923	-0.044304978
129	0xbd15e7da	-0.036598064
130	0x3d8886b3	0.06666317
131	0x3d905ad8	0.07048577
132	0xbdc688e9	-0.09694082
133	0xbc71ae7a	-0.014751071
134	0x3ddfa52f	0.10920178
135	0xbc610916	-0.013735076
136	0xbd858639	-0.065197416
137	0x3cb4a8ca	0.022053141
138	0xbb8ea00e	-0.004352576
139	0x3d2c4218	0.04205522
140	0xbd561681	-0.052267555
141	0x3cc6e0e2	0.024277154
142	0x3d01aae5	0.03165712
143	0xbab52653	-0.0013820626
144	0xbd5b0c53	-0.05347855
145	0x3d9a63aa	0.07538541
146	0x3c7cafd3	0.015422779
147	0xbd9b2a56	-0.07576434
148	0x3d61249f	0.054966565
149	0x3d64fb05	0.055903453
150	0x3d993413	0.074806355
151	0xbdb40a46	-0.08791022
152	0xbd11f089	-0.035629783
153	0xbdc4351e	-0.09580444
154	0x3d31278a	0.043250598
155	0x3d9fd7fa	0.07804866
156	0xbd3f379f	-0.046683904
157	0xbd24350b	-0.04008965
158	0x3d89caf6	0.06728165
159	0xbcdc4aa0	-0.026891053
160	0x3c8be411	0.017076524
161	0xbd2e1eea	-0.04250995
162	0xbc79a641	-0.015237392
163	0xbcdf0549	-0.0272242
164	0xbd9e330f	-0.077245824
165	0x3bf7b432	0.0075593228
166	0xbd976153	-0.0739161
167	0xbc70683e	-0.014673291
168	0x3d85e537	0.0653786
169	0x3d43cc80	0.04780245
170	0x3bd5f83b	0.0065298355
171	0xbd7b3d49	-0.061337743
172	0xba89e667	-0.0010520936
173	0xbd567e2e	-0.052366428
174	0x3d6b6a5e	0.057474487
175	0xbb94fc43	-0.0045466735
176	0xbdbb1b12	-0.091360226
177	0x3dbb52bc	0.0914664
178	0x3dd6bda6	0.10485391
179	0x3d29aad6	0.041422687
180	0x3d3ec5d6	0.04657539
181	0x3ca48f05	0.020087728
182	0x3d426972	0.04746384
183	0x3cd5c1a3	0.02609331
184	0xbd89b449	-0.0672384
185	0xbcc5e893	-0.024158752
186	0x3d8dad7e	0.06917857
187	0xbdbdaa69	-0.09261019
188	0xbd38aebb	-0.04508851
189	0x3dd67a20	0.10472512
190	0x3d5587b8	0.052131385
191	0xbc8837e7	-0.016628219
192	0xbd0efe4e	-0.034910493
193	0x3ba49d04	0.0050236005
194	0x3b0d70e6	0.0021582185
195	0xbd1a02b0	-0.03760022
196	0x3dbb60c3	0.09149315
197	0xbce3ba3e	-0.027798768
198	0xbce77ad3	-0.02825681
199	0x3ca2bc80	0.019865274
200	0xbda451e3	-0.08023431
201	0xbd5939fe	-0.05303382
202	0x3cc09575	0.023508767
203	0x3d6956af	0.056967434
204	0x3cd6b633	0.026209926
205	0x3b8fa4f5	0.004383678
206	0xbd50fc4e	-0.051021867
207	0xbd1ac361	-0.037783984
208	0x3b5c20c2	0.003358886
209	0xbdca83d7	-0.09888428
210	0xbc0bd477	-0.008534542
211	0xbd51e0f8	-0.051239938
212	0x3d7de6bd	0.061987627
213	0x3db9c49d	0.09070704
214	0x3c97fe31	0.018553825
215	0xbcafcb0a	-0.021459121
216	0x3be99c6e	0.0071292436
217	0x3a92f977	0.0011213262
218	0x3d809555	0.06278483
219	0xbcaaf868	-0.020870402
220	0x3d17b69d	0.037039388
221	0x3c93d523	0.018045967
222	0xbd820cef	-0.06350123
223	0xbbb35394	-0.00547261
224	0x3d28d059	0.04121432
225	0x3cfc7ce5	0.030821273
226	0xbd2ea3a9	-0.042636547
227	0xbd62d2fb	-0.055376988
228	0x3cf4060c	0.02978804
229	0xbc6d8e94	-0.014499325
230	0xbc51041f	-0.01275733
231	0xbd8816a9	-0.06644947
232	0x3d20f4c5	0.03929593
233	0xbdb404cb	-0.08789977
234	0x3cd32c57	0.025777979
235	0x3d32b7f5	0.043632466
236	0x3dbf2024	0.09332302
237	0x3bd9667f	0.006634533
238	0xbad51c8a	-0.0016259116
239	0x3d84a70b	0.064771734
240	0xbd0c1ecf	-0.03420907
241	0x3d7da7cf	0.061927613
242	0xbb0ec439	-0.0021784438
243	0xbdb62d1e	-0.08895324
244	0x3cae6726	0.02128942
245	0x3de273af	0.11057221
246	0xbd290ad1	-0.04127008
247	0xbca78ab2	-0.020451877
248	0xbbae76ab	-0.005324205
249	0x3d1597ce	0.036521725
250	0x3c3dd7e4	0.011587117
251	0xbd15e49b	-0.03659497
252	0x3c961cdf	0.018324314
253	0xbcc84caa	-0.024450619
254	0x3ceda01c	0.02900701
255	0x3c54dbaa	0.012991825

lstm.bias_hh_l0 f4 [512]
0	0xbd13ce43	-0.03608538
1	0x3cc3c3e0	0.023897111
2	0xbc3d3938	-0.011549287
3	0x3d7b3d4d	0.061337758
4	0x3d0b10f0	0.0339517
5	0x3dc12c2d	0.09432254
6	0x3b8d6880	0.004315436
7	0x3bd229bc	0.0064136665
8	0x3d077f06	0.033080123
9	0x3dcae05b	0.09906074
10	0xbb4a355b	-0.0030854556
11	0xbd89245b	-0.066963874
12	0x3d98192b	0.074266754
13	0x3e0a9470	0.13533187
14	0x3d994275	0.07483379
15	0xbd79976d	-0.060935427
16	0x3c8d8c0a	0.01727869
17	0xbdb9100f	-0.09036266
18	0xbc93d38c	-0.01804521
19	0xbd880f70	-0.066435695
20	0x3da96a12	0.082721844
21	0x3c2d4ef4	0.010577906
22	0xbd84a1aa	-0.064761475
23	0xbd094fb6	-0.033523284
24	0xbcd467d8	-0.025928423
25	0xbce1760d	-0.027522111
26	0xbdac52c2	-0.08414222
27	0xbd4c7af6	-0.049921952
28	0x3ce69bcd	0.028150463
29	0x3de99ff0	0.11407459
30	0x3dfb4bd6	0.12270324
31	0xbd9fae28	-0.077968895
32	0x3c355380	0.011067271
33	0x3d6ed62d	0.058309723
34	0xbd32197e	-0.043481342
35	0xbd463260	-0.048387885
36	0x3d011ae5	0.03151979
37	0xbc8124ed	-0.015764678
38	0x3da57022	0.08078028
39	0xbd7f8637	-0.062383857
40	0x3d9a5bf0	0.07537067
41	0x3bff2f0f	0.0077875922
42	0x3cfd0c84	0.030889757
43	0x3bd88e95	0.006608794
44	0x3d5e487f	0.054268356
45	0x3de55cec	0.11199364
46	0x3b2212ef	0.0024730524
47	0x3d9eae71	0.07748116
48	0x3d3c99f5	0.046045262
49	0x3d681470	0.056660116
50	0x3cc2335c	0.02370613
51	0x3d8161dd	0.06317494
52	0x3c4fa0c2	0.012672605
53	0x3c433143	0.0119136
54	0x3db3ab89	0.08772952
55	0xbd34d901	-0.044152264
56	0xbd62d537	-0.05537912
57	0xbd6832ec	-0.056689188
58	0xbba6beb7	-0.005088653
59	0x3d39a5d8	0.045324177
60	0xbd141733	-0.036154937
61	0xbc181c71	-0.009284125
62	0xbce348ed	-0.027744735
63	0x3d1215af	0.03566521
64	0xbc5ff544	-0.013669316
65	0x3d40b361	0.04704607
66	0x3a898f18	0.0010494916
67	0xbcd9c08e	-0.026581075
68	0x3e05e0c9	0.1307403
69	0xbd3bb1a3	-0.045823704
70	0x3ce843b7	0.028352601
71	0xbb9eff50	-0.004852213
72	0xbcb9873d	-0.022647494
73	0x3d4a9991	0.04946286
74	0xbd27e53e	-0.040990107
75	0x3db9d3a3	0.090735696
76	0x3d96635f	0.07343172
77	0xbd45155a	-0.048116066
78	0xbc8caf78	-0.017173514
79	0xbd9f4797	-0.077773266
80	0x3c00353f	0.007825195
81	0x3dc52d1d	0.09627745
82	0x3d035454	0.032062843
83	0x3d15c48e	0.036564402
84	0x3df1842b	0.11792787
85	0xbc012798	-0.007882975
86	0xbcf6d54e	-0.030131008
87	0x3d67bc91	0.056576315
88	0xbd566970	-0.052346647
89	0xbccb9e44	-0.02485574
90	0xbd2e930d	-0.042620707
91	0x3cc79cec	0.024366818
92	0x3b1bda4b	0.0023781236
93	0x3d791efd	0.06082057
94	0x3d97f5b1	0.07419909
95	0x3d1ae4b0	0.03781575
96	0x3ddc182f	0.107468
97	0x3daf45c1	0.085582264
98	0x3d951947	0.07280212
99	0x3db7f94f	0.08983099
100	0xbd3daf8c	-0.046309993
101	0xbc06d52b	-0.008229534
102	0xbc8577c3	-0.016292458
103	0xbb4d761f	-0.0031350923
104	0x3dfa6571	0.1222638
105	0x3da88d54	0.08230081
106	0x3d85ad69	0.06527216
107	0x3c2ce4b0	0.01055257
108	0x3d286459	0.041111324
109	0xbc5e4159	-0.013565385
110	0x3d3fa5ef	0.046789106
111	0x3da32305	0.07965664
112	0x3d5c0966	0.0537199
113	0xbcadde9e	-0.021224316
114	0x3d121ee7	0.035674002
115	0x3dbeaa2c	0.093098015
116	0x3caf5c74	0.02140639
117	0x3d835360	0.06412387
118	0xbd3602e9	-0.04443637
119	0xbcc6fd9e	-0.024290856
120	0xbc3f66ef	-0.011682256
121	0x3d2180da	0.039429523
122	0xbcbd5400	-0.023111343
123	0x3d06f707	0.032950427
124	0xbc5e938e	-0.0135849845
125	0xbc028374	-0.007965911
126	0x3cc17772	0.023616526
127	0x3d8901f6	0.06689827
128	0x3c2bcdc7	0.010486073
129	0xbca85f87	-0.020553363
130	0x3cd4aa69	0.025960164
131	0x3d9bb7bb	0.07603403
132	0xbc8a73b8	-0.016900882
133	0x3d4b4e74	0.049635366
134	0x3cfc6a83	0.030812507
135	0x3c836462	0.016039077
136	0xbd9e044b	-0.077156626
137	0xbd1e95db	-0.038717132
138	0x3c8d06c5	0.017215142
139	0x3b9ec6c0	0.00484547
140	0x3d3a44b5	0.04547568
141	0x3d184048	0.03717068
142	0x3ce0efce	0.027458098
143	0x3dc7ffa6	0.09765558
144	0xbc68f16c	-0.014217716
145	0x3d5504d6	0.052006565
146	0xbc2841af	-0.010269566
147	0x3d9a62f2	0.075384036
148	0x3c984121	0.018585743
149	0xbc36b42b	-0.011151354
150	0xbcb94bf1	-0.02261922
151	0xbd223ddb	-0.03960977
152	0xbd03e4e5	-0.032200713
153	0x3d61b5da	0.055105068
154	0x3d356a80	0.04429102
155	0x3db157e6	0.086593434
156	0x3d715824	0.058921948
157	0x3d88d7e6	0.06681804
158	0xbd9ea41d	-0.07746146
159	0x3d446747	0.047950055
160	0x3b0d0d7f	0.0021522937
161	0xbc1f6559	-0.009728753
162	0x3d036268	0.03207627
163	0xbd62d7a4	-0.055381432
164	0xbd366700	-0.044531822
165	0xbd60270d	-0.05472474
166	0xbd8123e6	-0.06305675
167	0x3c9b1dbd	0.018935079
168	0x3d1bc0eb	0.038025778
169	0xbd44ae66	-0.04801788
170	0x3c4fcace	0.01268263
171	0x3cbfc4bb	0.023409238
172	0xbd4ce2c1	-0.050020937
173	0x3d31e93e	0.043435328
174	0x3c8a91b7	0.016915185
175	0xbd55d057	-0.05220064
176	0x3c05dad6	0.00816985
177	0x3d82527f	0.06363391
178	0xbd1f0352	-0.038821526
179	0x3cecaa7e	0.02888989
180	0x3b04fae0	0.0020291135
181	0xbd9eb291	-0.077489026
182	0x3e149240	0.14508915
183	0x3dcea853	0.10090699
184	0x3c9065da	0.017626692
185	0xbd428863	-0.04749335
186	0xbc42b47e	-0.011883853
187	0xbd8b3a3e	-0.06798218
188	0x3cc9972c	0.024608217
189	0x3b075d09	0.0020654819
190	0x3da301ff	0.07959365
191	0xbbd33752	-0.0064458037
192	0x3d9c5c89	0.07634837
193	0x3cbb2f69	0.022849755
194	0xbba92113	-0.0051614135
195	0x3dad703a	0.08468671
196	0xbd25cf1d	-0.04048072
197	0xbbeeb9f0	-0.007285349
198	0xbd766049	-0.06015042
199	0xbcac178a	-0.021007318
200	0xbdace53a	-0.08442159
201	0xbd9a0340	-0.07520151
202	0xbd854ad7	-0.06508415
203	0x3dcd58b6	0.10026686
204	0x3d5ceee5	0.053938765
205	0x3dab4c9a	0.0836422
206	0x3d8ed1dc	0.06973621
207	0x3d9d4880	0.07679844
208	0xbd1c8b7d	-0.038218964
209	0x3d914631	0.07093466
210	0xbd0549cd	-0.032541085
211	0x3d6e9ae9	0.058253203
212	0x3c9c05e1	0.019045772
213	0x39127a26	0.00013969149
214	0xbd1c5a19	-0.03817186
215	0xbd84a42b	-0.06476625
216	0x3d7d2d63	0.061810862
217	0xbc9be0da	-0.019028116
218	0xbd2da367	-0.04239216
219	0x3d332e0b	0.043745082
220	0xbb4948b9	-0.0030713512
221	0x3d12dc84	0.03585483
222	0x3dc44d53	0.09585061
223	0x3d614b26	0.055003308
224	0x3d2ce906	0.042214416
225	0xbd27914d	-0.040910054
226	0x3db5677b	0.08857628
227	0x3db5f33c	0.08884284
228	0xbd906967	-0.07051354
229	0xbd9bf573	-0.07615175
230	0x3c87130b	0.016488573
231	0xbda92c40	-0.08260393
232	0x3d3eb1f0	0.046556413
233	0x3d7dde84	0.061979786
234	0x3d8b6aef	0.06807505
235	0x3cd76663	0.026293939
236	0x3cac39a1	0.021023573
237	0x3ba5f00f	0.0050640176
238	0xbca74841	-0.020420196
239	0x3d0fa073	0.035065126
240	0xbd398891	-0.045296255
241	0x3d845b92	0.06462778
242	0xbdacda74	-0.08440104
243	0x3b879f81	0.0041388874
244	0x3d556df9	0.05210683
245	0x3d41ca46	0.047312044
246	0x3c8f43f3	0.017488455
247	0x3d4e3dfc	0.05035208
248	0x3d265af3	0.04061408
249	0x3c7b8a55	0.015352805
250	0xbcf68eea	-0.030097444
251	0xbd9954e7	-0.07486897
252	0xbc922205	-0.017838487
253	0xbcc4f70c	-0.024043582
254	0xbca605f3	-0.020266509
255	0x3db90f06	0.090360686

fc_forecast.weight f4 [34, 128]
0	0xbdaf5b4f	-0.085623376
1	0x3d4900d5	0.04907306
2	0x3caddc0c	0.02122309
3	0xbd18d3e4	-0.03731145
4	0xbdbf9bf8	-0.093559206
5	0x3da3dc26	0.08000974
6	0xbd09d184	-0.033647075
7	0xbd5b984a	-0.05361203
8	0xbc3a8538	-0.011384301
9	0xbd5c095b	-0.05371986
10	0xbcbefc1d	-0.023313576
11	0xbc7588f7	-0.014986268
12	0xbd65578e	-0.0559917
13	0x3dfbc497	0.12293356
14	0xbd81120a	-0.06302269
15	0xbdb0bdfd	-0.086299874
16	0x3db7b282	0.089695945
17	0xbd2c9522	-0.04213441
18	0x3c4e82a3	0.012604388
19	0xbcbfe167	-0.02342291
20	0x3dbede9b	0.093198024
21	0x3c8b7920	0.01702553
22	0xbe04a94a	-0.12955204
23	0x3d85e844	0.06538442
24	0xbd2ae5b5	-0.041722972
25	0x3d271399	0.040790174
26	0x3c999412	0.018747363
27	0xbd2b4458	-0.041813225
28	0x3d27a215	0.040926058
29	0x3bf385e2	0.0074317316
30	0xbc3dd14a	-0.011585543
31	0xbd904951	-0.07045234
32	0xbd85818f	-0.06518852
33	0x3da1a98b	0.07893666
34	0xbcd415bb	-0.025889268
35	0xbd9b1eb3	-0.07574215
36	0xbc608ad7	-0.013704977
37	0x3dc01ae4	0.09380129
38	0x3d3b39bd	0.04570936
39	0x3cd86b81	0.02641845
40	0x3d3cd966	0.046105765
41	0x3dcc34ca	0.09971006
42	0x3db397ac	0.087691635
43	0xbd2a6899	-0.04160366
44	0x3a806646	0.0009796105
45	0xbc426b8c	-0.0118664615
46	0x3d97191c	0.07377836
47	0x3de90384	0.11377624
48	0x3d28cc00	0.041210175
49	0x3d5d19fa	0.05397985
50	0x3d824e84	0.06362632
51	0x3cb5735a	0.02214973
52	0x3cf9cd81	0.0304935
53	0x3d579858	0.05263552
54	0xbcdc6ab0	-0.026906341
55	0xbd0987cf	-0.033576783
56	0xbd9bf419	-0.07614917
57	0x3cbc9943	0.0230223
58	0x3d24476e	0.040107183
59	0xbbfbb973	-0.0076820194
60	0xbd15e7c1	-0.03659797
61	0xbdc0dded	-0.09417329
62	0x3d4e6ea4	0.050398484
63	0xbd6d458f	-0.057927664
64	0x3d1c8cf7	0.038220372
65	0x3d31a0fe	0.043366425
66	0xbd0c71ec	-0.034288332
67	0xbda3a695	-0.079907574
68	0xbd5aa56a	-0.053380407
69	0x3dbef6b4	0.09324399
70	0xbdcf38f2	-0.10118283
71	0xbde8d389	-0.11368472
72	0x3dd214d9	0.102578826
73	0x3d43d9af	0.04781502
74	0x3e0ce05a	0.13757458
75	0xbc4e46d0	-0.012590125
76	0xbd878f85	-0.06619171
77	0xbd167976	-0.036736928
78	0x3cda7ffe	0.02667236
79	0x3c2b51e9	0.010456541
80	0x3dc1e1d5	0.09466902
81	0x3dd8d990	0.10588372
82	0xbdb7e70a	-0.08979614
83	0x3bf8bb9d	0.0075907246
84	0x3d0ff26d	0.035143305
85	0xbc926d66	-0.01787443
86	0xbe135d5f	-0.14391087
87	0xbd878c8b	-0.06618603
88	0xbcb5a68f	-0.022174148
89	0x3db505b6	0.0883898
90	0xbd05c8ac	-0.03266208
91	0xbc5d1a66	-0.013495063
92	0xbd835f69	-0.064146824
93	0xbd6e6fad	-0.05821197
94	0xbca2ff52	-0.019897137
95	0x3dc85708	0.09782225
96	0xbd36e5b1	-0.044652645
97	0x3da85fcb	0.08221396
98	0xbe0ceb90	-0.13761735
99	0xbcc44b2c	-0.023961626
100	0xbd6f007f	-0.058350082
101	0xbdbf2ce3	-0.09334733
102	0x3cc5e540	0.024157166
103	0xbd5a41c1	-0.053285364
104	0xbc836efe	-0.016044136
105	0xbda98df0	-0.082790256
106	0xbd3f4166	-0.04669323
107	0xbd380ec1	-0.044935945
108	0x3dae25d0	0.08503306
109	0xbd8aa4a3	-0.06769683
110	0xbd93a843	-0.07209828
111	0x3d9b1c18	0.07573718
112	0xbd02853c	-0.031865343
113	0xbcce4339	-0.025178539
114	0x3dc6d3f0	0.097083926
115	0xbd6ec8e4	-0.058297053
116	0xbc9be000	-0.01902771
117	0x3d8751ba	0.06607385
118	0xbd7dabec	-0.061931536
119	0xbd3ae550	-0.045628846
120	0x3d29cee5	0.041457076
121	0x3da1b107	0.078950934
122	0x3d8461a6	0.064639375
123	0xbd792b15	-0.0608321
124	0x3cb3c003	0.021942144
125	0xbd89d6f2	-0.06730451
126	0xbd845f78	-0.06463522
127	0x3d7dd670	0.06197208
128	0x3ca356b8	0.019938812
129	0xbb255eab	-0.0025233428
130	0xbc6f73e0	-0.014615029
131	0xbd91a22e	-0.071110114
132	0xbe235c78	-0.15953243
133	0x3c2ff504	0.010739569
134	0xbc754dfb	-0.014972205
135	0x3d8325a0	0.06403661
136	0x3b0fa303	0.002191723
137	0x3d80dc4f	0.062920205
138	0x3dd14c5b	0.10219642
139	0xbdac60df	-0.08416914
140	0x3b890b1d	0.004182233
141	0x3e0bef71	0.13665558
142	0xbc1bbb3b	-0.009505088
143	0xbdb5bd3d	-0.08873985
144	0x3d9f8d4a	0.077906206
145	0xbe02ac99	-0.12761153
146	0xbd8c913e	-0.0686364
147	0xbd3a36f5	-0.045462567
148	0xbca40606	-0.020022403
149	0x3d7c4856	0.061592422
150	0x3b7adf50	0.0038280077
151	0x3ca51db8	0.020155773
152	0x3e043f99	0.12914886
153	0xbdbacbbe	-0.09120892
154	0xbd11334f	-0.035449322
155	0x3dd4c1da	0.10388537
156	0x3aeea42c	0.0018206886
157	0xbc2392cb	-0.009983729
158	0xbb99638c	-0.0046810564
159	0xbd405841	-0.046959165
160	0x3d44065d	0.04785763
161	0x3d1d8954	0.038461044
162	0xbcee6397	-0.029100223
163	0x3daae808	0.08345038
164	0x3d5a8b6a	0.05335561
165	0xbc9e2fc8	-0.019309893
166	0x3dd28f9b	0.10281297
167	0x3d87740c	0.06613931
168	0xbdc70221	-0.09717203
169	0xbcb686b4	-0.022281028
170	0xbc8d1171	-0.01722023
171	0xbcb0d50e	-0.021585967
172	0xbca0ebd3	-0.0196437
173	0x3ce30422	0.027711932
174	0xbc67068e	-0.014100684
175	0x3b4dd320	0.0031406358
176	0x3d1c1166	0.03810253
177	0xbd357872	-0.04430432
178	0x3ce024cd	0.027361298
179	0x3d89c459	0.067269035
180	0xbcc64443	-0.024202472
181	0xbcf81668	-0.030284122
182	0xbdf96be5	-0.121787824
183	0x3c139507	0.009007699
184	0xbdebe9eb	-0.11519226
185	0x3b8b9850	0.0042601004
186	0x3d6aa160	0.057282805
187	0x3db2568f	0.08707916
188	0x3dba64d9	0.091012664
189	0xbd84224d	-0.06451855
190	0x3da15b6b	0.07878765
191	0xbda73050	-0.08163512
192	0xbbe2abc9	-0.006917451
193	0x3da4d356	0.08048122
194	0x3db45402	0.08805086
195	0x3bd2cb49	0.006432925
196	0xbd19028a	-0.037355937
197	0x3dc8bd1f	0.09801697
198	0x3cb57e06	0.02215482
199	0x3c667a21	0.014067204
200	0xbd812a8e	-0.06306945
201	0x3d1221c4	0.035676733
202	0x3cda53f1	0.026651355
203	0xb9c34865	-0.00037247236
204	0xbc9b262a	-0.018939096
205	0xbd31d50b	-0.043416064
206	0xbb6e9d92	-0.0036409837
207	0x3d69809a	0.05700741
208	0xbd80c35d	-0.062872626
209	0xbc90f3b3	-0.01769433
210	0xbdaf99d8	-0.08574265
211	0x3b92f94f	0.0044852863
212	0x3bb16183	0.0054132356
213	0xbdf4d016	-0.11953752
214	0x3dede228	0.116154015
215	0xbd980c47	-0.07424217
216	0xbdb38d04	-0.08767131
217	0x3de09700	0.10966301
218	0x3d9a447d	0.07532594
219	0xbd9df271	-0.07712258
220	0xbd4f7138	-0.050645083
221	0xbdc0610b	-0.093935095
222	0x3d02a699	0.03189716
223	0x3db0ef7c	0.08639428
224	0x3e1325d9	0.14369906
225	0x3dbeed56	0.09322612
226	0x3d6e9d77	0.05825564
227	0x3ddd8788	0.10816866
228	0xbde8172f	-0.11332547
229	0x3d21ecb0	0.039532363
230	0xbcab920c	-0.020943664
231	0x3e20508a	0.15655723
232	0x3d55a7a5	0.05216183
233	0xbda941a5	-0.08264474
234	0x3dedf945	0.1161981
235	0xbde9f78d	-0.1142417
236	0x3ca30000	0.019897461
237	0xbdcba234	-0.09943047
238	0xbd911328	-0.07083732
239	0x3c9a6f2d	0.01885184
240	0x3d57b843	0.05266596
241	0x3dab9803	0.08378603
242	0x3d01e76b	0.031714838
243	0xbc1c2c02	-0.009531977
244	0xbdffcb8c	-0.12489995
245	0x3d5850ac	0.05281131
246	0x3d83a733	0.06428375
247	0xbd9664fb	-0.07343479
248	0xbc1d0bf0	-0.009585366
249	0xbd339f03	-0.043852817
250	0x3c2b31ec	0.010448914
251	0x3d26eb49	0.04075173
252	0x3e14bce3	0.1452518
253	0x3d095203	0.033525478
254	0x3d2624b7	0.040562358
255	0xbcb50e6c	-0.022101603

fc_forecast.bias f4 [34]
0	0x3dafc838	0.085831106
1	0x3db0919b	0.08621522
2	0x3b79d1fc	0.0038119545
3	0x3d1ea0dd	0.03872763
4	0x3d77677c	0.060401425
5	0x3d9ad630	0.07560384
6	0x3d1b062f	0.037847694
7	0x3d817a2f	0.06322133
8	0x3cbc61f3	0.022995925
9	0x3d9ca383	0.07648375
10	0x3db850ea	0.08999808
11	0x3d8252c8	0.063634455
12	0x3d9f70e2	0.077852026
13	0x3dd9258f	0.10602867
14	0x3da08e5d	0.07839654
15	0x3d6bdcda	0.057583667
16	0x3da3339d	0.07968829
17	0x3d413a6d	0.04717486
18	0x3bf8d466	0.0075936792
19	0x3dd24316	0.10266702
20	0x3e04e67b	0.12978546
21	0x3dd70f26	0.10500936
22	0x3e097a8d	0.13425656
23	0x3d23b23d	0.039964903
24	0x3d85f129	0.06540138
25	0x3d06798d	0.032830764
26	0x3bc666b0	0.006054722
27	0x3d3be0bc	0.04586862
28	0x3dd6991f	0.10478424
29	0x3dcf852e	0.10132824
30	0x3dd1342b	0.102150284
31	0x3c77210d	0.0150835635
32	0x3d4cfc28	0.050045162
33	0x3df96feb	0.1217955

fc_class.weight f4 [2, 128]
0	0x3c8b7a39	0.017026054
1	0x3de57189	0.11203296
2	0xbdf77a89	-0.120839186
3	0x3d09c5f5	0.033636052
4	0xbd68efdd	-0.056869376
5	0x3e2a09b9	0.16605271
6	0x3e28ed8e	0.1649687
7	0x3cfc3b0f	0.03078988
8	0x3dd886d4	0.105725914
9	0x3d9763fa	0.07392116
10	0x3db6b9bb	0.08922144
11	0x3d6fb917	0.058526125
12	0xbcdfdbe5	-0.027326534
13	0x3e5620d2	0.20910957
14	0x3db21d64	0.08697012
15	0x3de4d678	0.11173719
16	0xbd306e1f	-0.04307377
17	0x3de82ad8	0.11336297
18	0x3c88ec40	0.016714215
19	0x3de0cec7	0.1097694
20	0xbbfa9830	-0.0076475367
21	0x3c81cfce	0.01584616
22	0x3caf334c	0.021386765
23	0xbd8a089d	-0.06739924
24	0x3de21b98	0.11040419
25	0xbc79c25c	-0.015244093
26	0x3d4a20e4	0.049347773
27	0x3df266bc	0.11836001
28	0x3cf23a52	0.029568825
29	0x3e189ce5	0.149036
30	0x3c88d553	0.016703283
31	0xbd20070b	-0.039069217
32	0x3cdb52b9	0.026772844
33	0x3d709f86	0.058745883
34	0x3d1c0b3e	0.03809666
35	0x3dd1e062	0.10247876
36	0x3df064cf	0.11737978
37	0xbcf645c0	-0.030062556
38	0xbda870dc	-0.08224651
39	0x3c77f4bc	0.015134033
40	0x3dab1672	0.083538905
41	0xbda15f11	-0.078794606
42	0xbcd680a9	-0.026184397
43	0x3e204ec3	0.15655045
44	0xbddfc2ff	-0.109258644
45	0xbdedd088	-0.1161204
46	0x3da7d296	0.08194463
47	0xbd2f9741	-0.042868856
48	0x3d94839b	0.07251664
49	0xbd8220b1	-0.06353892
50	0x3e1f2bd0	0.15544057
51	0xbcdac7d0	-0.026706606
52	0xbdb2cb3b	-0.087301694
53	0x3dd451e4	0.10367182
54	0x3ded7df1	0.11596287
55	0xbc4c4902	-0.012468578
56	0xbcdfc7ae	-0.027316894
57	0xbdefb79e	-0.11704944
58	0xbdbda4d2	-0.092599526
59	0x3ce4f5fd	0.027949328
60	0xbdb8bc23	-0.09020259
61	0xbdd7df5d	-0.1054065
62	0xbe19e40a	-0.15028396
63	0x3c3e4eae	0.011615438
64	0x3dcc3f24	0.099729806
65	0xbd8b386a	-0.067978695
66	0x3da464df	0.08027052
67	0xbb7afa83	-0.003829629
68	0xbdbea672	-0.09309091
69	0xbdce7dd5	-0.10082594
70	0x3d31fd4f	0.043454465
71	0xbdd4940d	-0.10379801
72	0x3e0cb078	0.13739192
73	0x3cad5d07	0.021162523
74	0xbcd7c702	-0.026340012
75	0x3dfbfecb	0.12304457
76	0x3d2eaff0	0.042648256
77	0x3dcebf1e	0.100950465
78	0xbdc925e7	-0.098216824
79	0xbd1b0ec8	-0.037855893
80	0xbe281eed	-0.16418047
81	0x3d0c27ee	0.034217767
82	0xbd509f67	-0.050933268
83	0xbcc3f20e	-0.023919132
84	0xbe1e17fe	-0.1543884
85	0x3dc8c2e8	0.098028004
86	0xbd7fec79	-0.062481377
87	0x3e0ef599	0.13960876
88	0xbd355470	-0.04426998
89	0x3b3107ff	0.0027012823
90	0x3d852d7f	0.06502818
91	0xbc57351d	-0.013135222
92	0xbd589e88	-0.052885562
93	0x3d5d8389	0.05408052
94	0xbca0df90	-0.019637853
95	0x3d83da92	0.06438173
96	0xbd9f7172	-0.0778531
97	0x3dfd12af	0.12357079
98	0xbd9d9103	-0.076936744
99	0x3dd9714d	0.106173135
100	0xbc1085f1	-0.008820997
101	0x3d92eb91	0.07173837
102	0x3dd2ff13	0.10302558
103	0x3ae8ef36	0.0017771486
104	0xbdfe1bf4	-0.124076754
105	0xbcb2c007	-0.021820081
106	0xbc8df182	-0.017327074
107	0xbd41c27b	-0.04730461
108	0x3d03d38c	0.03218417
109	0x3dbd68dd	0.09248517
110	0xbe0b4cd4	-0.13603526
111	0xbdb7c78d	-0.08973608
112	0xbcc1f5a9	-0.02367671
113	0xbb56e87c	-0.003279238
114	0x3de03977	0.109484605
115	0x3e17c611	0.1482165
116	0x3e16461e	0.14675185
117	0x3dde7d9b	0.10863801
118	0x3d920ae8	0.071309865
119	0x3e074e7e	0.13213536
120	0x3cb13041	0.021629455
121	0x3df464ce	0.119332895
122	0x3da1b018	0.07894915
123	0xbc5e2315	-0.013558169
124	0xbbfa0d97	-0.0076310146
125	0xbd4ff3c3	-0.05076958
126	0x3dcdf3c2	0.10056259
127	0xbc9bb044	-0.019004948
128	0xbdb2933e	-0.087194905
129	0x3d7978c9	0.060906205
130	0x3d1d018b	0.03833155
131	0xbe0c8c48	-0.13725388
132	0x3ddf39b8	0.10899681
133	0xbd1766e1	-0.036963347
134	0xbe2879d8	-0.1645273
135	0x3dcbef5e	0.09957765
136	0xbdda9724	-0.10673359
137	0xbdd2d5bb	-0.10294672
138	0x39a6c806	0.00031811016
139	0xbd0aa011	-0.033844057
140	0x3dbf1c13	0.093315266
141	0xbdab724c	-0.0837141
142	0xbdb13a89	-0.08653743
143	0xbe26d09c	-0.16290516
144	0x3dac7f40	0.084227085
145	0xbdb7c3cf	-0.089728944
146	0x3d20c119	0.039246652
147	0xbc525e81	-0.012839914
148	0xbd265526	-0.040608548
149	0xbdf92779	-0.12165732
150	0xbcfb8e26	-0.03070743
151	0xbd498958	-0.049203247
152	0xbe23ecae	-0.16008255
153	0x3db65ec9	0.089047976
154	0x3dc64478	0.09681028
155	0xbdc5fcd2	-0.09667362
156	0xba85d763	-0.0010211285
157	0xbe027c91	-0.12742831
158	0x3d0225dd	0.03177439
159	0x3dc8ab64	0.09798315
160	0xbc35e938	-0.011102967
161	0xbd218934	-0.039437488
162	0xbdf52b4d	-0.119711496
163	0x3ccb8c97	0.024847312
164	0xbdc76909	-0.09736831
165	0x3e01932e	0.12653801
166	0x3d9e7b12	0.077383175
167	0x3e082040	0.13293552
168	0xbe13a666	-0.14418945
169	0x3daa604e	0.0831915
170	0x3b84f2bc	0.0040572565
171	0xbde6c64b	-0.1126829
172	0x3a434a4f	0.00074497325
173	0x3dc01b0d	0.093801595
174	0xbe1466be	-0.14492318
175	0x3dc63094	0.09677234
176	0xbda08acc	-0.078389734
177	0x3e0c5b1e	0.13706633
178	0xbdddb072	-0.1082467
179	0xbdd5c503	-0.10437968
180	0x3daf5b44	0.085623294
181	0xbdb665e1	-0.089061506
182	0xbe1c0854	-0.15237552
183	0xbdc2f2f6	-0.09518997
184	0x3c0c7cc7	0.008574671
185	0x3df4aaac	0.119466156
186	0x3d863bb4	0.06554356
187	0x3d580890	0.05274254
188	0xbcb1c741	-0.021701457
189	0x3e0b3792	0.13595417
190	0x3db08348	0.0861879
191	0xbd901414	-0.070350796
192	0xbdb8f801	-0.09031678
193	0x3e19eea1	0.15032436
194	0xbdd76e4b	-0.105190836
195	0xbd594b01	-0.053050045
196	0x3df9db8b	0.122000776
197	0xbab94e70	-0.0014137756
198	0xbd04547b	-0.03230713
199	0x3dd83628	0.105572045
200	0xbd97c35b	-0.07410308
201	0xbd0c0d48	-0.034192353
202	0xbd8f0c89	-0.06984813
203	0xbc812c03	-0.015768057
204	0xbe0ce4e9	-0.13759197
205	0xbd9a3477	-0.07529538
206	0xbd038f44	-0.03211905
207	0x3cff50ed	0.031166518
208	0x3db35a9b	0.08757516
209	0xbe1da6bd	-0.15395637
210	0x3c19f1b5	0.009396006
211	0xbdb4ca11	-0.088276036
212	0x3d956408	0.0729447
213	0xbe01c9f6	-0.12674698
214	0x3e078867	0.13235627
215	0xbdeb04cd	-0.11475525
216	0x3d52b4b3	0.05144186
217	0xbc9d572b	-0.019206604
218	0xbddbfa05	-0.10741047
219	0xbd516b40	-0.051127672
220	0x3de6fbf6	0.112785265
221	0xbe012c95	-0.12614663
222	0x3d34216f	0.043977197
223	0x3d8282d1	0.063726075
224	0x3e058ecd	0.13042755
225	0xbe0916ac	-0.13387555
226	0x3e0e69fd	0.13907619
227	0xbe1e3d36	-0.15453038
228	0xbcd16ae8	-0.025563672
229	0xbda30f5f	-0.07961916
230	0x3b314172	0.0027047065
231	0xbdb0590d	-0.08610735
232	0x3e02893f	0.12747668
233	0xbdc0bf8e	-0.09411536
234	0x3e2865e7	0.16445123
235	0x3d0cd883	0.03438617
236	0xbe13a1c3	-0.14417176
237	0xbe01ef6c	-0.12688988
238	0x3d6880c8	0.05676344
239	0xbda8e876	-0.082474634
240	0x3e0178ec	0.12643784
241	0x3bcfb6d6	0.0063389344
242	0xbd98adf6	-0.074550554
243	0xbdd035ed	-0.101665355
244	0xbd5b9a60	-0.05361402
245	0x3cd4d537	0.025980575
246	0xbdac0b51	-0.08400596
247	0xbd86c2a8	-0.065800965
248	0xbdb201b1	-0.08691729
249	0xbc6a9ef7	-0.014320127
250	0xbd23c096	-0.039978586
251	0x3d520d51	0.05128223
252	0xbc6a167e	-0.014287589
253	0xbd33065d	-0.04370724
254	0xbdbf94b1	-0.093545325
255	0xbe0df073	-0.13861255

fc_class.bias f4 [2]
0	0x3d803bca	0.06261404
1	0x3cc5f6ff	0.024165628
