code/models/lstm_10.pt (torch, 357337 bytes, 8 tensors)

lstm.weight_ih_l0 f4 [512, 34]
000000 7e 65 0e be e8 c6 06 3e b3 2e aa bd 6c 75 9f 3d
       -0.13905904 0.13161814 -0.083096884 0.07786068
000010 8c 31 42 bd dc c1 0b 3e fd a9 1a be 37 1c e7 3d
       -0.047410533 0.1364817 -0.15103908 0.112846784
000020 4b ad 74 3b 75 e9 35 3c fb 27 17 be 3d 31 89 3d
       0.0037334736 0.011103024 -0.14761345 0.066988446
000030 db 69 0c be f3 e7 e2 bb 77 e6 0a be 95 69 18 bd
       -0.13712256 -0.006924623 -0.13564478 -0.037210066
000040 91 23 95 bb 65 c3 2b bd b6 bb 4b bb 6a e9 d5 bc
       -0.004551359 -0.04193439 -0.0031087226 -0.026112277
000050 6f 69 f7 3c b9 40 0f bd 19 b5 50 bd 91 17 fe bb
       0.030201642 -0.034973834 -0.05095396 -0.007754274
000060 8a 1d 0f 3c 46 c1 1d bd 85 17 12 3d 40 d8 46 3d
       0.00873507 -0.038514398 0.03566696 0.048546076
000070 a9 f7 76 3d f4 2b a2 bc 70 e1 f0 3d 60 cf f2 bc
       0.06029478 -0.01979635 0.11761749 -0.0296399
000080 51 0a f4 3d f3 84 17 3d e2 71 cb bc 13 42 fc bd
       0.1191603 0.036992025 -0.024834577 -0.1231729
000090 f5 0d 3e bc 18 1a 36 bd fa e4 8f bd 70 2c e4 3c
       -0.011600007 -0.04445848 -0.07026096 0.02785322
0000a0 13 b7 45 bd 21 d6 47 3d 43 12 a2 3d ce 53 d0 bc
       -0.048270296 0.048788194 0.079136394 -0.025430586
0000b0 cc 45 67 3d bb 34 c2 bd 8e 06 5c 3d 6a de 96 bc
       0.056463048 -0.09482714 0.05371719 -0.018416602
0000c0 bc 81 e1 bc b4 2e c9 bb b6 d9 9b bd cf 1f f2 bc
       -0.027527682 -0.0061396006 -0.076098844 -0.029556183
0000d0 c6 84 96 bd 82 e3 21 3d af c9 2f 3c f7 de b0 bd
       -0.07349543 0.03952361 0.010729237 -0.08636277
0000e0 52 1c 32 3d 01 26 c5 bd 2c 1b 00 bb d4 95 74 bd
       0.04348404 -0.09626389 -0.0019547446 -0.0597132
0000f0 8d 0b 8f bd e1 ba f6 3d 5a 96 37 bd 88 85 1b 3d
       -0.06984625 0.12047363 -0.04482112 0.037969142
000100 c7 10 11 be 4b e1 d0 3d 76 60 d6 bc d0 eb 04 3d
       -0.14166556 0.10199221 -0.026169043 0.03245145
000110 7e a3 b3 3d cc d7 66 3b 29 d1 42 3a a1 03 af 3d
       0.08771418 0.003522384 0.000743168 0.08545614
000120 f6 60 01 bd e6 b3 0f 3e 0e 99 59 bc 8d 63 ed 3d
       -0.03158661 0.1403347 -0.01328112 0.115912534
000130 17 c5 9e 3c e5 99 23 bc 79 c0 a8 bb 43 72 34 bc
       0.01938109 -0.009985422 -0.0051498977 -0.01101357
000140 f3 c7 c9 bc d4 40 23 3e e4 ae d6 3d a6 40 6d 3d
       -0.024631476 0.15942699 0.104825765 0.05792298
000150 0c a8 15 3d e2 4c 34 3d c1 3b f3 3d ec 2c e1 3d
       0.036537215 0.044018634 0.118766315 0.10994896
000160 a6 53 29 3d 62 82 94 3d 04 67 77 3d 72 88 ee 3d
       0.04133954 0.07251431 0.060400978 0.11647119
000170 8d ce 85 3c b6 f5 eb bb 25 a3 84 bb 69 37 fa bc
       0.016333843 -0.007200922 -0.0040477687 -0.030544
000180 a2 15 aa 3d 7b c1 85 3d f3 ce c7 3d 41 a0 af 3a
       0.083049074 0.06531044 0.09756269 0.00133992
000190 2c 23 f2 3d 12 68 9d 3c 57 a7 b4 bc 96 67 46 3d
       0.11823115 0.019214664 -0.02205245 0.04843863
0001a0 7e bd 79 bd 0c 3a 49 bd 06 28 c5 bd 79 ce 50 bc
       -0.06097173 -0.049127623 -0.096267745 -0.012744539
0001b0 90 b6 0f bd 68 19 a2 bd 47 2e 44 be b0 e8 f5 bc
       -0.035086215 -0.07915002 -0.19158278 -0.03001818
0001c0 4a 78 07 be f7 f8 09 be 41 92 9b bd 68 db 1e 3d
       -0.1322948 -0.13473879 -0.07596255 0.03878346
0001d0 c5 dd 40 be 8c 10 19 be 36 da 86 bd 90 70 a5 bd
       -0.18834598 -0.14947718 -0.06584589 -0.0807811
0001e0 44 90 17 be 9d 4c 29 bd fb 64 2b be cf 97 8a 3c
       -0.14801127 -0.04133283 -0.1673774 0.016918091
0001f0 36 af 83 bd 6a 23 0c bd 7a 57 36 be 66 83 00 be
       -0.06429903 -0.03421346 -0.17806807 -0.12550125
000200 99 07 10 be 37 dd da bc 7a 02 a7 bd 3c 4f 8e bd
       -0.14065398 -0.026716812 -0.08154769 -0.069487065
000210 2e 73 9b bb 62 a3 73 bd 59 be 1f 3d 81 c0 d2 bd
       -0.004743955 -0.059481986 0.03899989 -0.102906235
000220 11 0b ab 3d df a3 c3 3d 12 3d bf 3d 15 49 34 3d
       0.0835172 0.0955274 0.0933782 0.04401501
000230 fd a4 08 bd 38 5a 41 3d 77 27 b5 3c 61 d2 2e bd
       -0.03336047 0.04720518 0.022113545 -0.0426811
000240 e2 45 59 3c b4 ca f7 ba 47 82 8f 3d f2 9f dd 3c
       0.01326129 -0.0018905015 0.0700727 0.027053807
000250 d9 2b 2d 3d 36 74 b8 3d 97 61 04 3d bd 26 a1 ba
       0.042278145 0.090065405 0.03231963 -0.001229487
000260 e0 bd 50 3d 65 5a 74 3c 79 a5 75 bb 95 3d d8 3c
       0.05096233 0.01491413 -0.0037482663 0.026396552
000270 f5 e1 93 bd 80 fa 8c 3d a7 21 77 3d 4a 9b 2a 3d
       -0.07220832 0.068837166 0.060334828 0.041652
000280 99 46 49 bd 20 14 d8 3d c2 b2 f6 3c 01 f8 d1 bc
       -0.049139593 0.105507135 0.030114535 -0.025630953
000290 10 89 55 bd de 89 6f bd 05 5b 9e 3d 42 94 c3 ba
       -0.052132666 -0.05848109 0.07732204 -0.0014921504
0002a0 d0 f4 f7 3d e7 10 40 3d 52 31 30 bd e6 3c 97 bd
       0.12107241 0.04689112 -0.043015786 -0.07384662
0002b0 3d f1 31 3d 4f ed 2b bd 86 df 85 bd f1 84 aa bc
       0.043442953 -0.041974362 -0.06536774 -0.020815345
0002c0 c0 c3 0e bd 92 ed 7f bc 72 57 60 3b ef cc e6 bd
       -0.03485465 -0.015620606 0.003423181 -0.11269557
0002d0 13 eb 8a bd d3 5b e7 3c 29 64 44 bd c8 66 24 bc
       -0.06783118 0.028242027 -0.047947083 -0.010034271
0002e0 a5 52 d1 bc fd 90 83 3c 1a 42 a2 3c 88 c5 75 3c
       -0.025552103 0.016060347 0.01980691 0.015000708
0002f0 ce ba 8d bc 10 af b6 bd 53 11 85 3d 3b 67 1f bd
       -0.01730099 -0.08920109 0.06497445 -0.038916808
000300 36 d9 01 3d c9 19 80 bd 15 1f 4d 3d d6 72 c2 bd
       0.03170129 -0.06254918 0.05007847 -0.094945595
000310 a6 1e ac 3d cb d1 f5 bc bd fd a0 bd 6d 17 10 3c
       0.08404283 -0.030007264 -0.07860897 0.008794648
000320 54 bf f3 3c ed c3 8d 3d c2 11 97 3d 73 50 45 3b
       0.029754318 0.069221355 0.07376434 0.0030107766
000330 7a ba 80 bd e3 ef e8 bd 48 0a fe bd 2a c5 b4 bd
       -0.062855676 -0.1137388 -0.12404305 -0.088266686
000340 39 51 0b 3d 23 21 c3 bd d6 6d 98 bd c4 e4 39 bd
       0.034013007 -0.09527805 -0.074428245 -0.045384184
000350 1f 87 67 bd 55 09 78 bd 1f f8 a2 bc 2f a1 5b bc
       -0.056525346 -0.060555775 -0.019893704 -0.013405128
000360 fa 85 bb bd 35 c2 f9 ba 5b 6b 0f 3d d0 2d 06 3d
       -0.091564134 -0.0019055071 0.03501449 0.032758534
000370 8c 7a eb 3c e5 e7 39 bd 6f 53 bd bc 5d 8b a7 bd
       0.028744958 -0.045387167 -0.023111073 -0.08180878
000380 38 06 93 3c 62 d8 8f bd 08 0b e0 bd 03 e3 99 bd
       0.017947301 -0.070236936 -0.10939604 -0.07514002
000390 e8 f0 d8 bd 8d fa 5f bd 27 7a 8e bd b9 7f 63 3d
       -0.10592824 -0.054682303 -0.069568925 0.055541728
0003a0 25 dd 03 bd e9 71 c6 bd e4 17 3f 3c b8 c0 82 bd
       -0.03219332 -0.096896954 0.011663411 -0.063844144
0003b0 82 d3 e1 bd 91 a5 10 bc 45 88 a7 bc 25 e5 a9 3d
       -0.1102667 -0.008828537 -0.02045072 0.08295659
0003c0 2f 66 02 bc 5f 9d 8f bd 4f 96 5d 3d 33 1a 34 bd
       -0.007958933 -0.07012438 0.054098424 -0.043970298
0003d0 fb 1e 37 3d 44 0a 89 bd 10 de 34 bd 5a e7 a5 3d
       0.04470728 -0.06691411 -0.044157088 0.081007674
0003e0 46 b2 0e bc e9 67 93 bd bc 47 f5 3c 05 6b 9f 3d
       -0.008709496 -0.07197554 0.029941432 0.07784084
0003f0 45 a3 79 bc 75 cc c3 bd db f5 5f bd c2 1f 51 bc
       -0.01523668 -0.095604815 -0.054677825 -0.012763919

lstm.weight_hh_l0 f4 [512, 128]
000000 1f 59 d7 bd 3d f3 7b bb 88 57 9e 3d da ac da 3c
       -0.105150454 -0.0038444542 0.07731539 0.02669375
000010 15 a2 10 bd 4f b7 0a bd af 96 a3 bd 7f 8b 4c b9
       -0.035310823 -0.033866223 -0.07987725 -0.00019506922
000020 26 fe d7 3d 03 ca eb 3c 74 f0 de 3d 47 45 80 bd
       0.10546522 0.02878285 0.108857065 -0.062632136
000030 5a e0 60 3d ef d0 ad 3d ce 0d bd bc 09 46 25 3d
       0.05490146 0.084871165 -0.023077872 0.040349994
000040 31 ee 6c bc ad 6c d5 3c 95 23 cd bd d5 d2 bc bd
       -0.014461086 0.026052797 -0.10016552 -0.092199005
000050 16 13 bf 3c 05 3f c4 bd c9 b2 0f 3e 56 e9 66 bd
       0.02332453 -0.095823325 0.14033045 -0.05637487
000060 a4 1c 66 be 83 d6 fb bd 3d b7 55 bc 84 3a f6 3c
       -0.22471863 -0.12296774 -0.013044176 0.0300572
000070 8e c4 cf 3c 59 05 d5 ba 48 ba 9e 3d 93 e9 56 bd
       0.02536228 -0.0016252204 0.07750374 -0.052468847
000080 ae ae 8c 3d 4a 86 9f bd 9f ef bf bd d4 9f 1e 3e
       0.06869255 -0.077892855 -0.09371876 0.15490657
000090 8f 0b 9d 3d 43 35 7b bd 50 9c 3b 3c ec 3a c2 3c
       0.0766822 -0.06133009 0.011450842 0.023709737
0000a0 48 8f d9 3c 35 0e 7c 3d 89 a7 7e bb ae e1 40 3d
       0.02655758 0.061536986 -0.0038857183 0.047090225
0000b0 09 bf f6 bb 66 03 e6 3d 59 87 a8 bd 7c da 0b 3c
       -0.0075300974 0.11231117 -0.082289405 0.008535977
0000c0 61 42 2a 3d f8 09 ee bd 05 88 23 be 2b d4 8e bd
       0.04156721 -0.11622995 -0.15969856 -0.069740616
0000d0 3d ff 0c bd d0 d1 21 be 40 ec 83 bc a8 a4 9c 3d
       -0.0344231 -0.15802693 -0.016103864 0.07648593
0000e0 8d d7 83 3e 4f 7e d8 bd c0 11 5a bd b5 2f bd 3c
       0.2575039 -0.105709665 -0.053239584 0.023094038
0000f0 7d 70 2c bd e0 cb ab bb f8 f8 1f bd 6d 8b 8a bc
       -0.042099465 -0.0052428097 -0.039055794 -0.016912187
000100 a3 5e 07 be 37 03 17 be 97 e4 8f bd 8a 23 e2 bb
       -0.13219695 -0.1474732 -0.07026022 -0.0069012092
000110 f9 84 8a bb 6f c3 9c bc 42 f9 8c 3d 1a b9 f3 3d
       -0.0042272774 -0.019136159 0.0688348 0.1190054
000120 80 b8 e5 3c 9e 58 2d bd 6d ea 32 3e f8 31 d3 3c
       0.028042078 -0.04232084 0.17472239 0.025780663
000130 bd de 9d 3d f4 39 b1 3d 0f 54 4e 3d 5e c1 ab bd
       0.077084996 0.08653632 0.050373133 -0.08386491
000140 f9 e8 8f bb 90 c5 d2 bd a1 8b f3 bd 40 e4 b2 3b
       -0.004391786 -0.10291588 -0.118918665 0.0054593384
000150 e8 f1 9e bc 31 b6 c9 bc a3 32 2c bd d7 67 70 bd
       -0.01940246 -0.024623008 -0.04204048 -0.05869278
000160 fc 64 9d bc db 83 24 3d 86 1f e1 3d e6 23 96 3d
       -0.019213192 0.04016481 0.10992341 0.07331066
000170 74 a2 60 3d 36 71 c1 bc 80 ec bc bc 5c 0b ab bd
       0.054842427 -0.023613553 -0.02306199 -0.08351776
000180 45 6f d7 bd d1 17 b6 bd 02 ac 27 be 0d ae 9c 3c
       -0.1051927 -0.08891261 -0.1637421 0.019125963
000190 af 78 67 bd ad 68 4d bc b8 1b da bd ee a7 c5 bc
       -0.056511577 -0.012537164 -0.10649818 -0.024127927
0001a0 ad 2e c9 3d ac 92 c7 3d 40 7d 3b 3d d8 b9 5e bd
       0.09823356 0.09744772 0.045773745 -0.054376453
0001b0 54 b5 d8 3c d8 49 be 3d 9b 75 76 bd 7a bb 96 bd
       0.026453651 0.09291428 -0.06017075 -0.07359977
0001c0 d0 5d 8c bc 16 b7 50 3d d0 34 65 bd eb aa 79 bd
       -0.017134577 0.050955854 -0.05595857 -0.060954016
0001d0 c8 9a f7 bc 46 96 cc 3c 72 36 d4 3d f6 6c 9d 3c
       -0.030225173 0.024974 0.10361947 0.019216996
0001e0 79 1a 28 3c 05 c5 aa 3d 61 89 56 bd 58 4d ac bd
       0.010260218 0.0833836 -0.05237711 -0.0841319
0001f0 3f 3d 88 bd 7b 0c e5 3c c3 bf a6 3d 15 29 31 3c
       -0.06652307 0.027960053 0.081420444 0.010813017
000200 78 48 0e 3c 82 f9 a5 bd 13 2c f9 3d 53 c7 43 3b
       0.00868427 -0.081042305 0.121666096 0.0029873445
000210 28 bc e2 3c 33 72 c1 3c a2 92 62 bb b2 c9 e4 3c
       0.02767761 0.023614025 -0.0034572263 0.027928207
000220 04 48 9e 3d b7 a5 99 3c 64 22 90 3b a9 6a 46 bd
       0.0772858 0.018755777 0.004398631 -0.048441563
000230 9b 42 aa 3c ed a3 e2 bc 79 9f 8d bd fd af b5 bc
       0.020783713 -0.027666057 -0.069151826 -0.022178644
000240 fd 7d 9f 3c 18 84 ce 3d 16 5d f5 bc ed 41 28 bd
       0.019469256 0.10083789 -0.029951613 -0.041078497
000250 0c 55 bf 3b 85 42 50 bd 69 1d 06 bd 11 6a 89 bd
       0.005838996 -0.050844688 -0.03274289 -0.06709684
000260 7a c2 a4 bc 34 f0 aa bd 43 fa b9 bd 40 a5 23 3d
       -0.020112265 -0.08346596 -0.09080937 0.039952517
000270 72 96 a9 bc a9 ea ac 3d 20 ef df 3c 25 93 36 bd
       -0.02070162 0.084431954 0.027335703 -0.04457392
000280 d5 ee 24 3d 72 cd 25 bc 4e 7b 95 3d 1f 29 51 bd
       0.04026683 -0.010119783 0.07298909 -0.051064607
000290 b1 35 fb bb 3a ac d3 bd 93 ca 57 bc f0 66 0e 3d
       -0.0076663126 -0.10335584 -0.013170856 0.034766138
0002a0 39 63 e6 bd 28 90 91 bd de 30 60 3d b8 ad bd bd
       -0.11249394 -0.07107574 0.054734103 -0.0926165
0002b0 40 65 b7 3d 49 6c 4b 3c 65 82 8e bd 63 37 a2 bd
       0.08954859 0.012415954 -0.069584645 -0.079207204
0002c0 69 f8 f0 3c fb 2d f5 bc 87 44 4e bd dc 28 50 3d
       0.029415326 -0.029929152 -0.05035832 0.050820217
0002d0 bf 69 16 3e ab e0 a5 3b 58 ea ae bd b6 27 02 3d
       0.14688776 0.005062183 -0.08540791 0.031776153
0002e0 0e 2e 97 3d 88 aa c7 3d da 2a 48 3c 71 98 cd bd
       0.07381831 0.09749323 0.012217248 -0.100388415
0002f0 fb fc 48 bc f4 59 d8 3d 8a a4 ae bd 15 95 04 3d
       -0.0122673465 0.10564032 -0.08527477 0.03236874
000300 8f 7e 80 bd 84 61 0a 3c 6d 11 02 bc 21 f5 23 3d
       -0.06274139 0.008446101 -0.007938725 0.040028695
000310 1f 60 97 bc 40 7d 90 bd 9a 6c 7d bd c2 4e c3 3c
       -0.018478451 -0.070551395 -0.06187115 0.023841266
000320 f7 4a 79 3d ec de 90 3d a6 90 ce ba 28 86 b4 3d
       0.060862508 0.07073769 -0.0015759661 0.08814651
000330 60 2c f0 3d ca 59 0a bd ca 0d 26 3d f0 56 6f bb
       0.11727214 -0.033777036 0.040540494 -0.0036520325
000340 f7 79 a2 bc 63 87 39 bd e7 a5 1b bd e2 b8 ea bd
       -0.019833548 -0.04529513 -0.038000014 -0.11461045
000350 41 28 26 3d 48 71 f2 bc 49 04 72 bd ef 1b 6e 3d
       0.040565733 -0.029595032 -0.059086118 0.05813211
000360 f8 d0 9e bd 00 36 bf bd cb 1a 83 3a a9 b6 ce bd
       -0.077547014 -0.093364716 0.0010002492 -0.100934334
000370 13 59 af 3d ea 7e 85 bd 48 e0 63 bc 09 76 5c bd
       0.085619114 -0.065183476 -0.013908453 -0.053823505
000380 86 fe 17 bd 94 2b e3 bb 20 fb df 3c b6 da f9 bc
       -0.037107967 -0.006932685 0.027341425 -0.030499797
000390 ef 2e 7e bd 32 86 02 3d ba 6f e2 3c 66 42 85 bd
       -0.062056478 0.03186626 0.027641166 -0.06506805
0003a0 32 28 46 3d c8 aa ee 3c 08 0d 8e 3c 12 be 5b b9
       0.048378177 0.02913417 0.017340198 -0.00020956274
0003b0 b7 8d f8 3d 8d 69 55 bd d3 f1 38 bc 52 b5 00 bd
       0.12136405 -0.052102614 -0.011288124 -0.03142292
0003c0 65 61 93 bc 9f fe 97 3a 3b 48 5d bc 47 40 56 bd
       -0.017990777 0.0011596269 -0.013505991 -0.052307393
0003d0 4b 32 80 3d 75 44 93 3d ef c7 1a 3b 9e d8 cd 3d
       0.062595926 0.071907915 0.0023617705 0.10051082
0003e0 cb 28 71 bd 85 8f 70 3b 36 19 67 bc b9 d4 20 bd
       -0.058876794 0.0036706638 -0.014105132 -0.039265368
0003f0 ae 8f 05 bd 52 ab 30 3d 10 8e 41 bd 30 a4 36 bd
       -0.032607727 0.043132134 -0.047254622 -0.044590175

lstm.bias_ih_l0 f4 [512]
000000 fe e7 2f 3c 04 1d 72 3d bb 4c b5 3c 8d b9 0e 3c
       0.010736464 0.059109703 0.022131315 0.008711231
000010 20 16 5c 3d f9 88 62 3d 45 72 59 3d 00 15 a2 3d
       0.053732038 0.05530641 0.05308749 0.07914162
000020 40 5f 0d 3d df 51 13 bd a6 74 7e bd a2 81 02 3c
       0.034514666 -0.03596675 -0.062122963 0.007965477
000030 68 d8 55 bc 05 f4 24 3d b8 13 d1 3c 23 e4 23 bd
       -0.013052084 0.040271778 0.025522098 -0.04001249
000040 19 18 c0 bc d2 ce 08 bd 7e 3e b0 3c 90 2a 0c 3d
       -0.02344899 -0.033400364 0.021514174 0.03422028
000050 81 2b e4 3d c3 3b 1e 3d 87 18 9a 3d de b0 d2 3c
       0.1114111 0.038631212 0.075242095 0.025719102
000060 d4 b4 67 3d c7 33 8d 3d 1e b2 81 bd 1c f8 ec 3c
       0.056568936 0.06894641 -0.06332801 0.028926902
000070 51 01 c3 3d f2 02 7f bc 4b bf e7 3d b2 c4 b2 bd
       0.095217355 -0.015564667 0.11315783 -0.08728923
000080 25 79 4b bc ab b8 21 bc 00 61 03 3b 9d 98 da bc
       -0.01241902 -0.009870688 0.002004683 -0.0266841
000090 15 0b b1 3d e7 46 80 bd 45 21 c2 3c c4 14 0a 3b
       0.08644692 -0.062635235 0.023697505 0.0021069506
0000a0 59 ab db 3d 04 7c 0c bd 5e 01 c3 3d 07 3a 38 3d
       0.10726041 -0.034297958 0.09521745 0.044977214
0000b0 c1 f5 62 3c e8 04 04 3e 11 08 c5 3d 32 3a 94 3d
       0.013852538 0.12892497 0.09620679 0.072376624
0000c0 5b 13 25 bc b0 88 b4 3c 0c 22 7b 3d 35 26 32 b8
       -0.0100754155 0.022037834 0.061311767 -4.247409e-05
0000d0 36 8c ab bd 6d ac 99 3d f1 64 0d 3d 0d 8e ba bd
       -0.083763525 0.07503591 0.034520093 -0.09109125
0000e0 a5 55 db bb aa 50 3a bc 3a d8 18 3d 11 04 de 3d
       -0.0066935592 -0.011371771 0.037315585 0.10840619
0000f0 01 28 9d 3c ed d2 8a bc c3 11 84 bd 99 ad dc 3d
       0.019184114 -0.01694628 -0.064487 0.107752986
000100 e0 d2 75 3c 33 50 2e bd c3 f4 1e bd b9 db 1f 3d
       0.01500389 -0.042556953 -0.03880764 0.039027903
000110 78 ba 70 3c 46 18 e7 3d cf ca ad 3d 02 e3 6a 3d
       0.014692895 0.11283927 0.08485948 0.057345398
000120 12 37 95 3d 21 75 d6 bd 9c b9 82 3d 39 01 60 3c
       0.072858945 -0.10471559 0.063830584 0.0136721665
000130 14 75 b5 bd 70 cd be bc af e7 d4 3c fa 73 f1 3c
       -0.088602215 -0.02329132 0.025989382 0.029474247
000140 2c 6e 64 3c b1 b5 97 3d 6d ed fd 3c 0c 30 c4 bc
       0.013942283 0.07407702 0.030997002 -0.023948692
000150 aa 94 92 3d 50 8e 71 bd 15 02 01 3d 12 7c 03 3d
       0.07157262 -0.05897361 0.031496126 0.032100745
000160 b2 d2 dd 3d d6 55 e7 3b b6 3a 70 bd 1d 88 9c bd
       0.108312026 0.007059793 -0.05864974 -0.07643149
000170 4e bb 8e bd b1 b2 57 3c a7 62 cc bc 01 02 ca bb
       -0.06969319 0.013165162 -0.024949385 -0.0061647897
000180 2b 64 a6 bc b9 7c ba 3d f8 81 8d 3c 80 40 f1 3d
       -0.020311436 0.0910582 0.017273888 0.117798805
000190 68 f0 ad bc c8 af 76 3d 4b 29 1a bd 4a cb 39 3c
       -0.021232799 0.06022623 -0.037637036 0.011339972
0001a0 5b a8 06 be c6 d4 99 3b 3c 19 7c 3d 0c 8e 0c 3d
       -0.1315016 0.004694554 0.061547503 0.034315154
0001b0 58 a2 6a 3d 0f 05 75 3d 74 a8 53 3d 69 06 2d 3a
       0.05728373 0.059819277 0.05167432 0.00066003815
0001c0 4f 0a d1 bc 32 2c d5 3d 75 98 1b bd 39 58 e2 3d
       -0.02551761 0.1040882 -0.03798719 0.110519834
0001d0 27 71 8e 3d db e3 34 3d 3b 27 b6 3c e0 40 a5 3d
       0.06955176 0.044162612 0.022235503 0.080690145
0001e0 db 0c 19 bb 82 14 8d 3a e5 f4 17 3d f1 31 5e bb
       -0.002335361 0.0010763558 0.037098784 -0.003390428
0001f0 28 a7 8c ba 90 7d 4b 3c a3 ba 46 3d c2 c6 1d 3c
       -0.0010730969 0.012420073 0.048517834 0.009629907
000200 04 96 87 3c 16 55 49 bd 10 33 4d ba 8a d1 a9 3d
       0.016551025 -0.04915341 -0.00078277383 0.082919195
000210 53 ff de 3c 91 88 10 be b3 bc 9f bd 75 93 84 3d
       0.027221357 -0.14114596 -0.077996634 0.06473438
000220 79 c8 d4 3d e8 2e 87 bd fe 5b 61 3b 73 0a 44 3b
       0.103897996 -0.066007435 0.0034387107 0.0029913455
000230 89 91 9d bd 65 52 de bd 4f cb a2 3d 0c fd 86 bd
       -0.07693774 -0.10855559 0.07948934 -0.065912336
000240 70 0e b6 bd 69 e0 0c 3d 0e 44 8e bd 3b a6 b0 3c
       -0.088894725 0.0343937 -0.06946574 0.02156364
000250 90 8b a3 3d 40 30 93 bc c5 70 34 be 2a 95 88 bd
       0.07985604 -0.017967343 -0.17621143 -0.06669076
000260 18 cb 3c bc 6d fc d8 bb 18 f2 85 bd e1 f9 c5 3c
       -0.011523031 -0.0066218884 -0.06540316 0.024167003
000270 21 7a 78 3d 6b 31 11 bd 93 f7 16 3c e3 15 b6 3c
       0.060663346 -0.03544752 0.0092143 0.022227233
000280 fe 8d 79 3d c8 98 33 3d 01 0a 57 bd da bc e5 3c
       0.06092643 0.043846875 -0.052499775 0.028044153
000290 ad 99 05 bc c2 68 86 bd 04 c0 e9 bb 63 50 1b 3d
       -0.008154315 -0.0656295 -0.0071334857 0.03791846
0002a0 54 d0 4b 3d ed 30 7d 3d f5 aa 44 bd 79 c8 a4 3d
       0.049759224 0.061814237 -0.0480146 0.080460496
0002b0 71 35 86 bd 4b 64 2d bd c1 da d0 bc a5 1d a3 3d
       -0.06553162 -0.042331975 -0.025494935 0.079646386
0002c0 e1 e7 aa 3a b8 9e 12 3d ec 8a 0f be 11 24 0b bd
       0.0013039076 0.035795897 -0.14017838 -0.033969942
0002d0 a6 ea c9 bc cb 37 bf bd b5 b5 87 3c bd ac c0 bd
       -0.024648022 -0.093368135 0.016566137 -0.09407947
0002e0 9d 6d 82 3a 20 38 29 bd fc 31 85 bd 0b 91 09 bc
       0.000995088 -0.04131329 -0.065036744 -0.008396397
0002f0 69 e0 00 bd 52 56 36 3d 8b 85 84 3d b7 c5 dd 3c
       -0.031464014 0.044515915 0.06470784 0.027071817
000300 21 19 d0 bd ce b0 c4 bd 90 0c 26 bd 13 fd 33 3d
       -0.10161043 -0.09604035 -0.040539324 0.043942522
000310 36 7e bc 3d 8f d5 25 bd 82 b3 7f bd d2 ab 12 3e
       0.0920376 -0.04048687 -0.06242705 0.14323357
000320 de 22 cd 3c 56 4a 47 3d 51 f2 38 3b 96 91 a5 3d
       0.02504104 0.048654877 0.0028220604 0.08084409
000330 fd e1 3d 3d c7 b0 cd bd 0b 0e a1 3c 64 b1 58 bd
       0.046358097 -0.10043483 0.019660017 -0.052903548
000340 b4 5a 49 bd f1 83 b7 3c ad d0 90 3d a5 13 5a 3d
       -0.049158767 0.022401782 0.07071052 0.05324139
000350 ad f1 a8 3b dc 82 5c bc cf 92 f5 bc 79 d0 5b 3d
       0.005155763 -0.013458934 -0.02997723 0.053665612
000360 f3 a0 88 3d e8 d5 83 3d ae 79 84 3d 3f ad a6 3d
       0.066713236 0.06437284 0.06468521 0.08138513
000370 b6 52 ab bd b9 3c 59 bd e1 db 31 3d d6 83 87 3d
       -0.08365385 -0.053036425 0.043422583 0.066169426
000380 fa 78 b6 3c fc 61 1f bd 24 80 a1 bd 3a b2 50 bd
       0.022274483 -0.038911805 -0.07885769 -0.05095122
000390 28 0b 15 bd f4 22 87 bb c6 6e 83 3d 27 60 87 bd
       -0.036387593 -0.00412404 0.06417613 -0.066101365
0003a0 d3 77 e2 bc 5d bd d7 3c b2 5b 12 bd 64 38 58 bd
       -0.027645027 0.026335413 -0.03573198 -0.052788153
0003b0 10 53 87 bc 64 73 5d bd bf 8c 0b 3e 07 8c 92 3d
       -0.0165191 -0.054065123 0.13627909 0.07155614
0003c0 7a ac 54 3d b3 37 86 bd 3e 6c e2 bd 0f 1b 37 3d
       0.0519223 -0.065535925 -0.11055802 0.04470354
0003d0 12 c3 74 bd ef a3 f7 bc 5d 88 58 3d 5f 80 a7 3d
       -0.059756346 -0.030229537 0.05286442 0.08178782
0003e0 d9 73 13 3c 3e bb 0a bd 23 ee 8d 3d 5f fe 2f bd
       0.008999788 -0.033869974 0.069301866 -0.042967197
0003f0 39 b4 83 bd 48 55 94 3d 88 16 8c bd 93 1b e8 bd
       -0.06430859 0.072428286 -0.06840235 -0.11333384

lstm.bias_hh_l0 f4 [512]
000000 b8 2d f2 3b 58 04 d3 3d c1 84 df bc ea a3 9d bd
       0.007390704 0.10303563 -0.027284982 -0.0769728
000010 41 e7 48 bd 71 85 bd bc e4 46 47 bd 35 ed 74 3d
       -0.049048666 -0.023134919 -0.04865159 0.05979653
000020 ce 76 8d 3d e1 01 d6 3b 6a 73 b2 3c ee 1e 16 3a
       0.06907426 0.0065309857 0.02178355 0.0005726655
000030 d2 69 57 3d 85 32 8f bd f2 10 8f 3d fb d7 aa bd
       0.052591152 -0.06992058 0.06985654 -0.08341976
000040 20 8f 3b bc ea 93 7a bd b1 f8 3d bd d9 c2 79 3d
       -0.011447698 -0.061176218 -0.04637975 0.060976837
000050 d0 36 1d 3e 86 5c 54 3d ed 9c 90 3d 42 54 a2 3d
       0.1535294 0.05184605 0.07061181 0.07926227
000060 2d ab 20 3c ce 3a 6e 3c ff 8e 9c 3d b7 2e 88 3d
       0.0098064365 0.014540387 0.07644462 0.06649535
000070 ff 44 ef 3d 3a ba 3c bd 91 80 c7 bc 5c 8b 21 3d
       0.11683082 -0.046076037 -0.024353297 0.039439544
000080 cb c3 73 bc e6 ba cf 3d 53 0c 90 bd 41 64 c1 3c
       -0.014878224 0.1014307 -0.07033601 0.023607375
000090 2c cf 86 bd 84 39 ae 3d e4 d9 87 bd 30 65 d4 bc
       -0.06582484 0.08507064 -0.06633356 -0.025927156
0000a0 80 a9 ef 3c 70 73 af 3d 32 65 06 3a 32 af 38 3d
       0.029255629 0.0856694 0.00051267736 0.045088954
0000b0 f3 21 91 3d df bc a9 3d 65 87 6b bd be 74 f7 bc
       0.070865534 0.082879774 -0.05750217 -0.030207034
0000c0 d7 04 d0 3c ad 2d 8d 3d 7d 6f 5b bd 2a d3 45 3c
       0.025392933 0.068934776 -0.05357312 0.012074271
0000d0 fc 89 8a 3c be 8d 45 bd 8f 32 b5 3d 5f 84 ae bc
       0.0169115 -0.04823088 0.08847534 -0.021303354
0000e0 c9 9d 65 3c ec 4b ed bd 96 1a dd 3d 5a 48 98 3d
       0.01401467 -0.115867466 0.107960865 0.07435675
0000f0 e3 1f f3 3c 30 de fa bc 6f 65 89 bd 66 2e b1 3d
       0.02967829 -0.030623525 -0.067088 0.08651428
000100 8d bf ed bd 19 83 79 bd 14 42 57 bd 0e 15 96 3c
       -0.11608801 -0.06091604 -0.05255325 0.018320587
000110 27 50 bb bc 74 97 f5 3d b7 55 13 3e 2a b8 2d bd
       -0.022865368 0.11991778 0.14388166 -0.04241196
000120 3f a1 5a bd 1d 7d 47 bd 4e 6d 2c 3d aa 2b 3a bd
       -0.053376433 -0.0487033 0.04209643 -0.045451798
000130 82 ba 1a bd dd 10 27 3d 1e 22 d2 bc 1c 1b a3 3c
       -0.037775524 0.040787566 -0.025651034 0.019910388
000140 23 4a 94 3c 19 3e 85 3d b5 37 d1 3d 84 dd 9b 3c
       0.018101757 0.06505985 0.102157034 0.019026525
000150 8e da 89 bc a2 92 99 3d 0a 5d 5f bc da 9b bc 3c
       -0.016827848 0.07498671 -0.013633022 0.023023535
000160 a8 22 d7 3d b0 8f 39 3c 31 c6 bf 3d 3e 56 04 3d
       0.10504657 0.011325762 0.09363974 0.03230881
000170 b0 52 29 3d 1e 00 74 bc 63 8b 81 3d f0 d3 18 bc
       0.041338623 -0.014892606 0.06325414 -0.009327874
000180 79 60 dd bd a4 ad c0 3d 47 16 0e bd 92 fc f8 bc
       -0.10809416 0.09408119 -0.034689214 -0.030393872
000190 67 af ae 3c df 32 b5 3c 74 a5 0a 3d 2d c4 08 3d
       0.021323873 0.022118984 0.033849195 0.033390213
0001a0 cf 29 00 be 6b aa ed bc dc 3c a8 3d 77 21 30 3d
       -0.12515949 -0.029011926 0.08214733 0.043000665
0001b0 56 21 96 3c 55 97 94 bd 5f c3 9f 3b 2b b7 29 3d
       0.018326443 -0.07255427 0.004875585 0.04143445
0001c0 42 e9 68 bd 11 23 df 3d 42 b7 42 bd 44 0f 80 3d
       -0.056863077 0.1089536 -0.04753805 0.06252912
0001d0 61 d6 6b bd cf c4 84 bd b5 93 6b bc 4e 21 25 3c
       -0.057577495 -0.06482851 -0.014378478 0.010078741
0001e0 76 e3 86 3c 67 d5 bf 3c 91 67 59 bd 6e 6a 28 bb
       0.016465884 0.023417188 -0.053077284 -0.0025698203
0001f0 77 ec dc bc ff 92 80 3c 91 c0 d7 bc 5a 52 a8 bd
       -0.026968224 0.015695093 -0.02633694 -0.08218832
000200 b3 74 87 bd 81 3b 29 3d 17 d8 95 3d a2 a6 a8 bc
       -0.066140555 0.041316513 0.073166065 -0.02058727
000210 af 2b a3 bd b5 ae 05 be 92 52 55 3c 39 8f eb 3c
       -0.07967316 -0.13054927 0.013020175 0.028754817
000220 87 85 b1 bc 6b b1 ca bd f2 0d d9 bc b8 fe 0d bd
       -0.021670116 -0.09897121 -0.026495907 -0.034666747
000230 31 7e 34 bd ac 29 ba bc 7e 5e d7 3b 70 4b b8 bd
       -0.044065658 -0.022724949 0.0065725436 -0.089987636
000240 84 93 2e 3c cc 35 2c 3d 51 71 96 bc 05 6d 4b bd
       0.010655288 0.042043492 -0.01836458 -0.049664516
000250 04 ba 85 bd a0 2c 81 bd b9 0e 1e be 77 6b 8f 3d
       -0.0652962 -0.0630734 -0.15435304 0.07002919
000260 f6 39 6a bd 27 06 41 bd 11 4b f6 ba 40 8d 20 bd
       -0.057184182 -0.047125008 -0.0018790682 -0.039197206
000270 c5 d4 fa bc 05 56 9b bd a4 44 b5 bc ff bb 84 3d
       -0.030619035 -0.07584766 -0.022127457 0.0648117
000280 85 c3 9b 3d 69 dc 67 3d 1f 0c b6 3d 0c cc 89 bc
       0.07605652 0.056606684 0.08889031 -0.01682093
000290 19 67 38 3c 1e ac ca bc 19 6d 1f bd 31 ce f9 bc
       0.011255049 -0.024740275 -0.038922403 -0.030493828
0002a0 fa 8e c3 3d dc 5d 80 bc 74 5d 84 3d 40 e9 84 3d
       0.09548755 -0.015669756 0.06463137 0.064898014
0002b0 86 1b 91 3c 0f 20 cf 3d 07 ed a4 bd f7 af 9d b9
       0.01771332 0.101135366 -0.08053022 -0.00030076478
0002c0 79 0d 92 3d 02 ca b8 bc 33 56 6a bb a9 57 07 3d
       0.07131476 -0.022557262 -0.0035756945 0.033042584
0002d0 88 25 1f bd 1e cd 5d bd e2 6a 82 bd 85 39 fd bc
       -0.038854152 -0.054150693 -0.063680425 -0.030911217
0002e0 08 90 ba 3d da c8 1b bd 11 94 61 bc cf f9 73 bc
       0.09109503 -0.038033344 -0.013768212 -0.014891102
0002f0 a9 50 31 3d 57 c9 39 3d 71 b6 ae 3d a8 73 8c bc
       0.043289814 0.04535803 0.08530892 -0.017144993
000300 dd f5 f9 bd b6 2a 3b bc 12 54 cd 3b a9 94 86 bd
       -0.12205098 -0.011423757 0.0062661255 -0.065713234
000310 9a 28 d4 3c 86 3e a7 bd 3c bd 39 3d 70 19 1d 3e
       0.025898267 -0.08166222 0.045346484 0.15341735
000320 0b 3c 10 3d 17 15 f1 bd 49 4d 70 3d ec 39 da bb
       0.03521351 -0.11771601 0.058667455 -0.006659737
000330 49 69 8f 3c 4f ff 43 3d 6a 8d 9a bc 7b 7f 12 3d
       0.017506259 0.047850903 -0.01886626 0.035766106
000340 da f5 89 bd 1d a2 87 bb 3b 13 90 3d 81 36 f5 bc
       -0.067363456 -0.0041391985 0.07034918 -0.029933216
000350 3b 38 68 bd 8c 00 33 3d 15 cb 83 bc ff 6e c6 3c
       -0.05669425 0.043701693 -0.016088048 0.024222849
000360 d6 a1 00 bd 32 c5 c2 3d bc 7f b7 bc 0a b2 9b 3d
       -0.03140434 0.09510268 -0.022399776 0.07602318
000370 dc 57 95 bd 97 eb 2f bd db 56 93 3c be de fe bc
       -0.072921485 -0.042949285 0.017985752 -0.031112071
000380 89 d2 9e bd 77 48 77 3d 56 25 b7 bd 1e 97 a8 3d
       -0.07755 0.060371842 -0.08942668 0.08231948
000390 13 dd 9a bc cc 2b 42 bd a8 f8 73 3c 57 bd 97 3c
       -0.018904245 -0.04740505 0.014890827 0.018522901
0003a0 8c 4d d0 bc d1 76 45 3b c8 43 0a 3a e4 17 98 3d
       -0.025427602 0.0030130635 0.00052743824 0.07426432
0003b0 16 8e 27 bd 35 d9 0d bc 7d 75 c6 bc b6 00 76 3d
       -0.040906988 -0.008657743 -0.024225945 0.06005927
0003c0 d0 db 46 bd 81 b3 bf 3a 4f 98 c6 3c 08 0a 4e 3d
       -0.048549473 0.001462564 0.024242548 0.050302535
0003d0 2a d8 b9 bc 3a 62 9e 3d d7 36 88 bb 87 db 08 3d
       -0.022686083 0.07733579 -0.004156928 0.033412483
0003e0 92 9f a9 3c c0 5a 04 3d 52 4b 4c 39 a5 4e cc 3d
       0.020705972 0.03231311 0.00019483015 0.09975938
0003f0 6f 9d 4f bd ad 8c 8b 3d 2a 57 3e 3d ff d3 c2 bd
       -0.05068725 0.06813941 0.046469845 -0.09513091

fc_forecast.weight f4 [34, 128]
000000 75 5c e5 bb e3 75 b1 3c 1d 95 f3 bd 21 83 68 3d
       -0.006999547 0.021662658 -0.118936755 0.05676568
000010 c2 11 6d bd b1 bd 91 bd 75 92 e0 3d cc bf 17 3c
       -0.057878263 -0.07116259 0.109654345 0.0092620365
000020 38 90 18 bb 1d ad dc 3c 6c fb c6 bd 1b c4 0b bd
       -0.002327932 0.026938016 -0.09715924 -0.034122568
000030 ec 1d dd bc 42 24 2e 3d 02 ae 65 3d 3e e6 84 bd
       -0.026991807 0.042515047 0.05607415 -0.06489228
000040 0e 56 19 bd 6b de 0e be 20 b5 8b 3d 1f c0 9c 3d
       -0.037435584 -0.13952033 0.06821656 0.07653832
000050 0f b8 8e bc 49 14 61 bd 60 e3 c0 bd 21 cb d3 bc
       -0.01742175 -0.054950986 -0.09418368 -0.025853695
000060 b5 7b 24 bd fb 2a 41 bd cc 8a 05 3d ab 4b 00 be
       -0.04015704 -0.04716013 0.03260307 -0.12528865
000070 a7 ae 45 3d 9d 91 dc 3c d2 8d 0d 3c 44 30 22 3d
       0.048262265 0.026924903 0.00863977 0.03959681
000080 a8 c6 ec ba 0a e9 6e b9 e7 ac aa bc 6e 55 57 bc
       -0.0018064575 -0.00022784263 -0.0208344 -0.013142927
000090 81 20 4c 3d 9a 13 2c bd d3 d7 7c bd 9e 02 b9 bc
       0.049835686 -0.04201088 -0.061729264 -0.022584256
0000a0 02 d3 5d bc 10 46 9f b8 77 1d ba 3c a1 5e 51 bb
       -0.013539078 -7.594761e-05 0.022719128 -0.0031947272
0000b0 1a 97 a8 3d b6 ee 34 ba 10 d4 f2 3d 00 ab a6 3d
       0.08231945 -0.0006902026 0.11856854 0.081380844
0000c0 57 c8 79 3d e3 cc 9c bb f0 a5 b0 3d 41 61 a3 3d
       0.060982075 -0.0047851666 0.086254 0.07977534
0000d0 d5 12 8c bd 2d c0 80 bd 3b ec 8d 3d 44 26 b7 3a
       -0.068395294 -0.062866546 0.06929823 0.0013973196
0000e0 e3 0a da bc f3 79 b5 3c d1 00 a7 3c 41 1f c9 3d
       -0.02661652 0.022152876 0.020386131 0.09820414
0000f0 08 09 c7 bd 6c 8c ad 3b b8 26 45 3d 37 0a 34 3c
       -0.097185194 0.0052962806 0.04813263 0.0109887635
000100 c0 e4 65 3d bb 63 94 3b bc 71 27 3d cf c0 5a be
       0.056126356 0.0045284904 0.04087995 -0.21362613
000110 bc 44 f8 3c 01 aa 14 3e b4 d4 26 bd 4e c3 b6 bc
       0.030306213 0.14517976 -0.040730193 -0.022309925
000120 4a 08 40 3c 22 6d f7 3d 3b 72 94 3c c3 4e aa bd
       0.011720726 0.12081362 0.018120876 -0.08315804
000130 0c 97 ae 3c 95 a8 98 bd 98 fb b0 3d 42 e3 bb bb
       0.02131226 -0.074540295 0.08641738 -0.0057338784
000140 82 42 f9 bc 97 62 b6 3d cb 6c 0b 3d b0 92 03 bd
       -0.030427221 0.08905523 0.0340393 -0.032122314
000150 8f 0c ec 3d 26 d4 b8 bd 7a 46 ea bd 26 2c ce 3b
       0.11525833 -0.09024839 -0.114392236 0.006291884
000160 e9 a7 84 3d 1d 5b f1 3c 83 7d 68 bc 10 ef d0 bc
       0.06477339 0.029462392 -0.014190081 -0.025504619
000170 92 2e 58 bd 49 6f 2d 3d bf 43 e4 bd ae 11 15 3d
       -0.052778788 0.042342458 -0.11145734 0.036393814
000180 ea 3f 55 bd 66 59 1a 3d 5b ea 4d bd 88 0d d6 3d
       -0.052062906 0.037682913 -0.050272327 0.104518
000190 57 20 50 bc 49 b0 26 3d 6b cb d1 3d 52 8a c3 bd
       -0.012703023 0.040695462 0.10243877 -0.09547867
0001a0 52 63 3c bd ff 87 b4 bc 67 0e 3b 3d 97 a5 c3 bd
       -0.045993157 -0.022037504 0.045668032 -0.09553068
0001b0 5a b8 a8 bd 1a 84 84 bc 0b e4 9a 3d b4 45 80 3d
       -0.08238287 -0.016176272 0.07563027 0.06263295
0001c0 9f 87 53 bd 05 58 cd 3c 2e 77 00 3d de 8a e5 3d
       -0.05164301 0.025066385 0.03136366 0.112081274
0001d0 e6 8b 40 bd 76 a7 94 3d ea 73 81 ba 52 51 41 bd
       -0.047008418 0.07258503 -0.0009876464 -0.047196694
0001e0 84 24 9f 3c b3 48 c5 bd 2a 07 e8 3d fc 09 2a 3e
       0.019426592 -0.09633007 0.113294914 0.16605371
0001f0 e0 fb d4 bd 1d 59 98 bd 67 b6 b4 bc db bb d9 3c
       -0.10399604 -0.07438872 -0.022059632 0.026578834
000200 d6 0c 2e bd b7 77 9b bd 25 f5 97 bd f2 cc a5 3d
       -0.04249271 -0.07591193 -0.074198045 0.08095731
000210 23 f9 9b bc 74 8c 25 3b 19 3b fd 3c 31 83 04 bd
       -0.019039696 0.0025260719 0.030911969 -0.032351676
000220 e4 87 05 3d 50 a0 d0 bc 30 64 69 bc 5b 6b 06 bc
       0.0326003 -0.025467068 -0.014245078 -0.0082043065
000230 ef f1 3c bc b3 99 ba 3d 7d 74 e7 bd 7f da f9 3d
       -0.011532291 0.09111347 -0.11301515 0.12199878
000240 9f 6a d3 bd 63 e1 b3 bc a8 18 45 3d 86 69 1f bd
       -0.10323071 -0.021958059 0.048119217 -0.038918994
000250 f9 be 2e 3c d3 cd 75 3d a4 5a b7 bc 41 41 71 bd
       0.010665649 0.060010742 -0.022382088 -0.05890012
000260 99 1d 5c 3d 40 39 b8 bd 6b 8b 93 3d 31 c2 8e bd
       0.053739164 -0.089952946 0.07204326 -0.06970633
000270 7c 14 bc bc 53 69 39 bc e5 3c e0 bc f5 28 9e bd
       -0.022958986 -0.011316615 -0.027372787 -0.07722656
000280 83 c0 91 3c df 19 d9 3d 7f 3c a1 bb f1 9e ea 3c
       0.017791992 0.10600638 -0.004920542 0.028640242
000290 02 68 31 3e 82 2e 9a bc c1 12 bf bc 21 1d dc 3d
       0.17324832 -0.018821005 -0.023324372 0.107477434
0002a0 19 d7 61 bc e4 e0 1a bd 4f a2 84 bd 3a 4a aa bd
       -0.013784193 -0.03781213 -0.064762704 -0.08314939
0002b0 d3 a9 d2 3d 32 07 9d 3d ba ac bb bd af 13 58 3d
       0.10286298 0.07667388 -0.09163804 0.052753147
0002c0 fd 9f 3e bd 33 f3 00 3d bb 84 20 bd 0b b1 ae 3d
       -0.046539295 0.031481933 -0.03918908 0.08529862
0002d0 13 15 bd bd df f4 fb bd 8c 8e b7 bd fc a2 b0 bd
       -0.09232535 -0.12302565 -0.089627355 -0.08624837
0002e0 d6 31 e3 bd 56 5c d6 bc 16 c0 41 bd d3 58 40 bc
       -0.1109349 -0.026167076 -0.047302328 -0.011739927
0002f0 90 9b a7 bb 68 3c 54 bb 7b eb 82 bd ba 64 d3 3b
       -0.00511498 -0.0032384638 -0.063925706 0.0064512165
000300 17 e9 b8 3d cf 23 a0 3d fe 7c 86 3c ab 28 ac bc
       0.09028833 0.0781933 0.016417023 -0.021015486
000310 04 7f 20 39 d8 76 6c 3e ef 32 ad bd c6 c5 1b be
       0.00015306106 0.2309221 -0.084569804 -0.15212163
000320 b0 18 06 3e dd b1 10 bd 77 a4 90 bd ee b9 32 bc
       0.13095355 -0.035325874 -0.07062619 -0.010908587
000330 d4 02 a7 bd de 3a e0 3c 61 18 a0 3c 11 62 f8 bb
       -0.08154836 0.02737182 0.019542875 -0.00758005
000340 b7 a5 c7 3d 9d af 05 3d 35 f8 9f bd 70 b0 18 3d
       0.097484045 0.03263818 -0.078110136 0.03727764
000350 ae bd 0d bd f8 6b a7 3d 79 5e 85 bd 80 a8 a8 3d
       -0.03460472 0.0817489 -0.0651216 0.08235264
000360 b1 12 79 3c ad 21 ba bd b2 a0 c5 3d e4 4e 1d 3c
       0.01520221 -0.090884544 0.09649791 0.0096013285
000370 00 84 8d bd ab ee 4e 3d 76 26 c7 bb a4 01 0b 3c
       -0.069099426 0.05052058 -0.006077583 0.008484278
000380 c1 cb 6b 3d 40 65 b7 3c ee df 78 3d 71 88 e6 3c
       0.05756736 0.022387147 0.06076043 0.028141232
000390 3f 90 ba 3d 90 b7 1d 3e 08 90 20 bb e5 96 ed bd
       0.09109544 0.15402055 -0.0024499912 -0.116010465
0003a0 80 78 e0 3d 8f 12 a1 3d d9 e8 66 bd 28 64 c1 bd
       0.109604836 0.07864868 -0.056374405 -0.094429314
0003b0 02 08 d6 bd e3 94 2f 3d cd ca 2a 3c 38 df f4 3d
       -0.10450746 0.0428666 0.010424328 0.11956638
0003c0 e7 5d ba bd bd ab 2a bd 97 52 c1 3d a6 dc 01 bc
       -0.09099942 -0.04166769 0.09439581 -0.007926142
0003d0 3e 8c 4d be 96 74 55 3d a0 8c 19 3d 33 67 02 3e
       -0.2007303 0.05211314 0.037487626 0.1273468
0003e0 f3 db cc 3d a8 b3 22 3e 83 6c 09 3b ad c4 4a bc
       0.100028895 0.15888846 0.002096922 -0.012375993
0003f0 14 1c 2b 3c c6 6a 93 bc 61 f1 cc bd ec a1 a5 3d
       0.010443706 -0.01799525 -0.10006977 0.08087525

fc_forecast.bias f4 [34]
000000 e6 f5 c8 3d 07 8c ca 3d 82 bb 74 3d db 71 c4 3d
       0.098125264 0.09889989 0.059749134 0.09592029
000010 dd b7 54 3b 08 a2 fd 3c e3 7c d6 3a 87 41 dd 3c
       0.0032458224 0.030961052 0.0016364123 0.027008785
000020 83 ba 20 3d d0 b4 0f 3e ef 57 01 3e 0e 1d 1e 3e
       0.03924037 0.14033818 0.126312 0.15440771
000030 ab d8 28 3b 34 37 10 3e c0 4f f4 bb 07 7f b1 3d
       0.002576391 0.14083558 -0.007455796 0.08666807
000040 35 b4 2a 3d 42 7a 96 3d b3 8c ce 3d 58 f8 07 3d
       0.041675765 0.073475376 0.1008543 0.033195823
000050 c5 74 da 3d ea ca 91 3d 69 4c d9 3b bf 18 0d 3e
       0.10666803 0.07118781 0.0066314233 0.13778971
000060 81 e6 84 3d ad 40 27 3e 8a 35 04 3e 17 4b ac 3d
       0.06489278 0.16333266 0.12911049 0.0841276
000070 bd 84 f5 3d e3 ae 17 3e 82 47 dc 3d f5 24 4d 3e
       0.119882084 0.14812808 0.107558265 0.20033629
000080 c7 c7 f7 3d d6 60 53 3e
       0.120986514 0.20642409

fc_class.weight f4 [2, 128]
000000 5c 82 02 3e 0d 11 a0 bd 43 d3 bb bb f9 20 df bd
       0.1274504 -0.07815752 -0.0057319715 -0.10894961
000010 84 0b b9 3d 5b 51 78 bd 78 53 14 be af a8 d1 bd
       0.090353996 -0.06062446 -0.14484966 -0.10237252
000020 74 0d 36 3e 55 ab ae bd f7 fb d3 3d 00 2f 6f bc
       0.1777857 -0.08528773 0.10350793 -0.014598608
000030 2d e2 61 3d aa 90 bb bd 8d 25 40 3e cc 86 ff bc
       0.05514734 -0.09158452 0.18764324 -0.031192206
000040 40 e1 af bc 48 f5 22 3e b5 36 1c 3d 5b b3 d8 3c
       -0.021469712 0.1591388 0.03813811 0.02645271
000050 70 3a 9b 3d a7 34 3e 3d da be a4 3d d8 63 11 be
       0.075795054 0.046436932 0.080442145 -0.14198244
000060 b9 a5 5e bd 34 b7 dd 3c b5 68 68 bd 27 f3 24 3e
       -0.054357264 0.027064897 -0.05674048 0.1610838
000070 7a d9 ce 3d 48 13 51 3e c0 e3 94 3d f1 97 1c 3e
       0.10100074 0.20417511 0.07270002 0.15292336
000080 99 fe 59 be 71 e9 c0 3d 0b c1 e6 3d 9b 72 9f bd
       -0.21288528 0.094195254 0.11267289 -0.07785531
000090 b4 19 28 3e 38 b3 09 be 0b 4c 84 bd 44 24 b1 3d
       0.16416055 -0.13447273 -0.064598165 0.08649495
0000a0 c4 23 2a be 43 fd f1 bd 92 0f 4c 3e b8 76 a8 bd
       -0.16615206 -0.11815884 0.19927815 -0.08225769
0000b0 ae ec 9e 3c 84 c3 e7 bd a3 5b c0 bd d6 37 39 be
       0.019399967 -0.113165885 -0.09392478 -0.18087706
0000c0 71 0f 61 3e f7 5c ef 3d b7 ea 98 bd d4 ac 83 bd
       0.21978547 0.116876535 -0.07466643 -0.06429449
0000d0 9b d5 1f 3e 66 af b1 bc 23 c7 13 3d 89 27 34 bc
       0.15608828 -0.021690082 0.036078583 -0.010995754
0000e0 95 22 d4 bd 16 ed 3b 3b b5 5c 0a 3e 74 3f d7 bd
       -0.103581585 0.002867525 0.13511927 -0.105101496
0000f0 5d 3e 21 3e b0 1b 09 3e c9 c8 fe bd e2 d6 54 3d
       0.15746446 0.13389468 -0.124406405 0.05196274
000100 16 ed 12 bd a2 24 e2 bd 10 c5 0b 3e 4f 14 2d 3e
       -0.035870634 -0.110421434 0.13649392 0.16902278
000110 40 34 1f be c2 1a 1c be ce b5 7d bd 43 dc 46 3d
       -0.15547276 -0.15244582 -0.06194096 0.0485499
000120 7c 0d c6 bd 2c 96 13 bd d2 04 23 3e 29 71 11 3e
       -0.09670541 -0.036031887 0.15919808 0.14203323
000130 26 3d ca 3d 8f 9e 1c 3d bb 06 22 3e 16 12 a5 3d
       0.098749444 0.03823715 0.1582288 0.0806009
000140 d9 20 88 bb 64 de 43 3d fe 18 26 be ca ec 86 3a
       -0.0041543064 0.04781951 -0.16220471 0.0010293957
000150 98 88 50 3e f7 ad 6a bd 0d d6 af bd c0 5a a1 3d
       0.20364606 -0.057294812 -0.08585749 0.07878637
000160 3a 6e a5 bc 86 05 06 be cc 33 72 3d b2 e6 01 bd
       -0.020194162 -0.13088045 0.05913143 -0.03171415
000170 b3 2c 9f 3c 0b 33 8d 3c 01 b0 cd 3d a6 ad 0a be
       0.019430494 0.017236253 0.10043336 -0.13542804
000180 18 b2 21 3d d2 47 99 3b 69 86 e7 bd c6 79 d4 bd
       0.039476484 0.004677751 -0.113049336 -0.10374789
000190 6b 82 d6 3d bb bc b4 bd 0c b5 eb 3d e6 da 9f bc
       0.10474094 -0.0882506 0.11509141 -0.019513559
0001a0 b0 30 45 bd 49 5e fe 3d 24 5d 07 be ea 46 cb 3d
       -0.048142135 0.12420327 -0.13219124 0.09925635
0001b0 9c 9e 1b 3e 9c c6 c7 bd 2a d3 60 be d9 d7 05 3d
       0.15197223 -0.097546786 -0.21955553 0.03267655
0001c0 24 7d 25 bd a5 2a 03 3e 35 1e b4 bb c0 3a 75 3e
       -0.040402547 0.12809236 -0.005496765 0.23948193
0001d0 7d 0c 88 bd 5d 80 b7 3d 5d 28 cc 3d fb f2 15 3d
       -0.06643007 0.0896003 0.09968636 0.036608677
0001e0 a2 58 f3 bd f8 db 05 be c5 32 b0 bd 1e 98 49 3e
       -0.1188214 -0.13072193 -0.086034335 0.19686934
0001f0 2f 14 0b be bf 2e b8 bc a7 1d 4b 3c c4 eb c4 bd
       -0.13581918 -0.022483228 0.012397206 -0.09615281
000200 4e 96 e4 bd 47 83 e9 3d b7 9b 04 be 13 b7 96 3d
       -0.11161481 0.11401992 -0.12950025 0.073591374
000210 51 cb 6f 3b a4 4b 3c bd f5 7b 9e 3d 34 94 9f 3a
       0.0036589692 -0.045970574 0.07738487 0.0012174905
000220 a7 80 6d be 16 f7 ef bc b5 88 08 be b6 26 0f 3e
       -0.23193608 -0.029292624 -0.133334 0.13979611
000230 d5 10 c8 bd 71 a0 21 3c 08 90 06 be 5e f9 aa bd
       -0.097688355 0.009864912 -0.13140881 -0.08348344
000240 f0 25 bd 3d d9 b2 fd bb 6e 5e 01 3d f1 0b dd bd
       0.09235752 -0.0077422676 0.031584196 -0.10793293
000250 04 ac 4a be d9 44 f1 bb 2f 07 4f 3d 21 43 af 3d
       -0.19792181 -0.0073629436 0.05054396 0.08557726
000260 e0 4b b6 3c 5b ba 33 bd a8 6e ef 3d 90 4f ee bd
       0.022252977 -0.043878894 0.11691028 -0.11636269
000270 58 c3 b8 3c 13 d2 b7 bd 30 ea b9 bd e8 8e 4d bd
       0.022554085 -0.08975615 -0.09077871 -0.050185114
000280 ce b5 66 3e fb 6a b4 bd 07 0e c1 bd 00 95 93 3d
       0.2253029 -0.088094674 -0.09426504 0.07206154
000290 05 75 aa bc ef b7 04 3e 0b d7 77 bd 4e 46 02 bd
       -0.020807752 0.1296079 -0.060507815 -0.03180533
0002a0 ac 19 d7 3d 03 4c 0a 3e f0 de 78 be 1c 79 07 3e
       0.105029434 0.13505559 -0.24303794 0.13229793
0002b0 39 1e 6d bd 25 a9 bd 3d 5e f4 2c 3e fd 8a 34 3e
       -0.05789015 0.092607774 0.16890094 0.17631145
0002c0 28 29 52 be bb c9 09 be 91 5a 9d 3d 1b 31 ea 3d
       -0.20523512 -0.1345586 0.0768329 0.114351474
0002d0 8c 1d 43 be a5 c5 bd 3c 0b 12 47 3d 4a 7f 91 bd
       -0.1905424 0.023165533 0.04860119 -0.071043566
0002e0 6b 30 f3 3d 09 ef 8f bd b8 41 13 be 73 fd 90 3d
       0.11874469 -0.07028014 -0.14380538 0.070795916
0002f0 3a 16 26 be e9 7f a2 bd 5f 6d 9a 3d 14 f8 85 3c
       -0.16219416 -0.07934553 0.07540392 0.016353644
000300 b0 12 2c 3d 98 22 90 3c a8 54 cf bd b6 b4 2b be
       0.04201001 0.01759462 -0.10123569 -0.16768155
000310 9f dd 92 3d c3 39 e8 3c cd b6 bd 3c 19 8f a0 bd
       0.07171177 0.028347855 0.023158455 -0.07839794
000320 81 5e 39 3e 6f 85 54 bd 7a d0 1c be 00 83 8f bd
       0.18102457 -0.051885065 -0.15313902 -0.07007408
000330 a4 3c 2b be c5 5e 00 3d ab a2 21 be d9 51 75 bd
       -0.16722351 0.03134038 -0.15784709 -0.05989251
000340 13 47 f2 3d 0a 75 ab bd 11 63 17 3e 1e 72 9a 3d
       0.118299626 -0.08371933 0.14783885 0.075412974
000350 34 48 2d be ab 56 3c 3e cb 31 73 3e 95 91 99 3a
       -0.16922075 0.18392436 0.23749463 0.001171636
000360 99 ed dd 3d bc ce 22 3b 81 5e 8b bc 7e 23 d5 3d
       0.10836334 0.0024842462 -0.017012836 0.1040716
000370 53 61 eb bd f6 29 f3 3d cb c9 c8 bd c0 99 00 3d
       -0.114931725 0.11873238 -0.09804114 0.031396627
000380 26 bd ff bb b3 93 3e bd 77 72 b1 3d c8 5d 26 3e
       -0.0078045307 -0.046527576 0.086644106 0.16246712
000390 7d 83 0d bc ee 58 26 3e c2 27 c8 bc 64 3f d0 bc
       -0.008637306 0.16244861 -0.02443302 -0.025420852
0003a0 36 64 c3 3c 32 ce 15 be 31 d5 ec 3d 1e 07 21 be
       0.023851495 -0.14629439 0.115641005 -0.15725371
0003b0 d9 c7 a8 bc 6c 87 f8 3d eb 42 1e 3e 20 15 8e bd
       -0.020603107 0.12135205 0.15455215 -0.06937623
0003c0 b2 b8 f1 3d b2 1b 12 be fd e7 b4 bc fa 52 6b be
       0.11802806 -0.14268377 -0.022083277 -0.22980872
0003d0 6d 23 a2 3d 12 1f 30 be e7 99 b1 bc 04 b6 b8 bd
       0.07916913 -0.17199352 -0.021679832 -0.09019092
0003e0 11 bf 44 3d 15 5e 6f bb 00 38 26 3e 8f 53 41 be
       0.048033778 -0.0036524583 0.162323 -0.18879531
0003f0 e1 51 25 3e d6 72 e7 3d d4 c4 f2 3d 29 af 17 bd
       0.16144516 0.113012 0.11853948 -0.03703228

fc_class.bias f4 [2]
000000 fa 3e 49 3c 47 18 9d 3d
       0.012283081 0.07670646
