code/models/lstm_500.pt (torch, 357540 bytes, 8 tensors)

lstm.weight_ih_l0 f4 [512, 34]
0.36948106 -0.09174642 0.27865952 -0.0132943075 0.30845156 -0.07046708 0.2877051 -0.21545297
0.22464143 -0.14075604 0.102117695 -0.17051993 0.06493382 -0.0854667 0.06198174 0.0037194395
-0.030678226 0.112458386 0.050968166 0.10323814 0.10939006 0.13798016 -0.017136116 -0.18952562
-0.14556189 -0.10047313 0.081783704 0.1713439 -0.057603598 0.16906701 0.33525947 0.45202246
0.22488089 0.48268846 0.4953254 0.42889503 0.5755554 0.29167894 0.61040974 0.3729738
0.65898436 0.24871764 0.48485407 0.32103708 0.7122354 0.24204585 0.46152553 0.15168962
0.6296092 0.47537678 0.49183896 0.3241989 0.47516558 0.5081637 0.36500525 0.35697678
0.5324221 0.12129699 0.37133846 0.1308093 0.27497324 0.42232722 0.21641938 0.2594643
0.38035232 0.5416663 0.45883912 0.4432244 -0.16815166 -0.15852179 -0.11595228 -0.10630015
-0.067948304 -0.12792477 -0.22063142 -0.17911509 -0.17833142 -0.08499445 -0.3427729 -0.18719682
-0.3711392 -0.0790227 -0.39350834 -0.060324606 -0.24997345 0.12701955 -0.19469792 -0.033709332
-0.24413265 0.116655536 -0.33837432 0.11507236 -0.1853693 0.15111478 -0.12961698 0.14032355
0.048007384 0.14472455 -0.20685378 0.2520287 0.15027739 0.20369186 -0.062198278 -0.097565174
-0.16448343 -0.12482171 -0.03637887 -0.023629794 -0.07159463 -0.18329623 -0.112050384 -0.16389452
-0.19891457 -0.2790501 -0.22937259 -0.36071897 -0.3175694 0.007777147 -0.10203244 -0.26082996
-0.5239444 0.03929253 -0.37645295 -0.029067677 -0.38992608 -0.50562626 -0.2713998 -0.6135862
-0.5309761 -0.22646734 -0.4310548 -0.24781108 -0.35148248 -0.030129422 -0.15785275 0.004261176
-0.2804309 -0.102839254 -0.3371633 -0.08355999 -0.2994679 -0.026344182 -0.36287254 -0.012158546
-0.3921562 -0.11437049 -0.44601116 -0.023150591 -0.388125 0.0042369785 -0.42107266 -0.040367726
-0.40634954 -0.04060429 -0.24685997 -0.1510798 -0.34140635 -0.18593577 -0.4492241 -0.22279614
-0.43294978 -0.18411057 -0.33953583 -0.21180315 -0.24217927 -0.1430698 -0.4722267 -0.14408985
-0.17450452 -0.14400563 0.006161398 0.067466125 0.09521677 0.057143334 0.01317112 0.07992873
0.03804536 -0.05020842 0.04752661 -0.013097101 -0.027318615 -0.13371064 -0.041196592 -0.07333697
-0.04878675 -0.017749825 -0.19834463 -0.09743149 -0.30371547 0.10718218 -0.14378107 0.08666001
-0.18179624 -0.2766917 -0.21304467 -0.3213072 -0.19019017 -0.21992849 -0.25394568 -0.25546056
-0.17880136 -0.025965938 -0.18628274 -0.029652992 0.22156093 0.20554236 0.37843922 0.21162744
0.29278257 0.09439727 0.39055434 0.109802246 0.3229955 0.16087283 0.3849855 0.045161635
0.28614035 0.11524354 0.30015728 0.13293277 0.20247169 0.1395715 0.19566882 0.26520973
0.021358784 0.25443786 0.26802596 0.15156478 0.09812279 0.101873025 0.08002938 0.17140266
0.026797967 0.06926065 -0.08405467 0.032846082 -0.065922305 0.14915113 -0.061411865 0.04506596
0.10238246 0.14039673 0.012629744 0.106886946 -0.0006492695 0.06968727 0.051768504 0.11305307
0.14292075 -0.0203206 0.10737181 0.01833566 0.09422067 0.109642394 0.045342967 -0.010743854
00000000: 9f2c bd3e 8ce5 bbbd 76ac 8e3e 5ed0 59bc
00000010: 5ded 9d3e 0b51 90bd 154e 933e b49f 5cbe
00000020: 6708 663e 5a22 10be 1523 d13d c79c 2ebe
00000030: 06fc 843d 2a09 afbd 91e0 7d3d d7c1 733b
00000040: e750 fbbc 9550 e63d ffc3 503d 856e d33d
00000050: e507 e03d ac4a 0d3e 0a61 8cbc 0113 42be
00000060: 2d0e 15be dbc4 cdbd 377e a73d c674 2f3e
00000070: c0f1 6bbd e71f 2d3e 21a7 ab3e 7d6f e73e
00000080: 2d47 663e f122 f73e 4a9b fd3e 2198 db3e
00000090: 9957 133f f156 953e d043 1c3f 6cf6 be3e
000000a0: 33b3 283f d6af 7e3e cb3e f83e f95e a43e
000000b0: 0f55 363f deda 773e 134d ec3e 8654 1b3e
000000c0: 122e 213f 9664 f33e 51d2 fb3e 66fd a53e
000000d0: e748 f33e 0417 023f f8e1 ba3e a9c5 b63e
000000e0: d14c 083f 8e6a f83d 1320 be3e e0f2 053e
000000f0: 4bc9 8c3e 463b d83e 0b9d 5d3e 81d8 843e
00000100: 8abd c23e a5aa 0a3f f6ec ea3e 4fee e23e
00000110: f32f 2cbe 8953 22be 6478 edbd e5b3 d9bd
00000120: 7b28 8bbd b6fe 02be 34ed 61be f269 37be
00000130: 839c 36be 9211 aebd ee7f afbe 86b0 3fbe
00000140: f505 bebe a7d6 a1bd ed79 c9be ef16 77bd
00000150: 0af9 7fbe 6a11 023e e45e 47be cc12 0abd
00000160: e9fd 79be 19e9 ee3d 663f adbe 0fab eb3d
00000170: 73d1 3dbe d5bd 1a3e 50ba 04be fab0 0f3e
00000180: 64a3 443d ac32 143e 7ad1 53be e809 813e
00000190: 51e2 193e 9994 503e 9fc3 7ebd 40d0 c7bd
000001a0: 586e 28be 86a2 ffbd 0302 15bd 4593 c1bc
000001b0: 35a0 92bd 02b2 3bbe ac7a e5bd f7d3 27be
000001c0: 43b0 4bbe a8df 8ebe a6e0 6abe 28b0 b8be
000001d0: 7598 a2be 70d7 fe3b 62f6 d0bd 818b 85be
000001e0: 3821 06bf 34f1 203d 71be c0be 561f eebc
000001f0: 64a4 c7be b970 01bf eaf4 8abe fc13 1dbf
00000200: 0dee 07bf 0ee7 67be 37b3 dcbe 30c2 7dbe
00000210: 83f5 b3be fad1 f6bc 27a4 21be 56a1 8b3b
00000220: a494 8fbe 639d d2bd aba0 acbe 8021 abbd
00000230: db53 99be c1cf d7bc 6eca b9be a334 47bc
00000240: b3c8 c8be 133b eabd 935b e4be 4fa6 bdbc
00000250: 52b8 c6be 5ad6 8a3b d696 d7be a158 25bd
00000260: 0c0d d0be af50 26bd dcc8 7cbe aab4 1abe
00000270: d0cc aebe f265 3ebe b400 e6be ac24 64be
00000280: 98ab ddbe 7b87 3cbe a4d7 adbe ede2 58be
00000290: d8fd 77be e480 12be b3c7 f1be 4a8c 13be
000002a0: 50b1 32be 3676 13be 8de5 c93b ae2b 8a3d
000002b0: 0301 c33d 210f 6a3d aecb 573c adb1 a33d
000002c0: 74d5 1b3d 58a7 4dbd 43ab 423d 3995 56bc
000002d0: 4acb dfbc 71eb 08be c2bd 28bd b131 96bd
000002e0: 9dd4 47bd 1568 91bc db1a 4bbe 298a c7bd
000002f0: 9880 9bbe 5582 db3d 583b 13be ce7a b13d
00000300: cb28 3abe 89aa 8dbe 6228 5abe 6182 a4be
00000310: 36c1 42be ef34 61be 2b05 82be bacb 82be
00000320: b417 37be 85b6 d4bc e7c0 3ebe d5ea f2bc
00000330: dee0 623e b279 523e c9c2 c13e ddb4 583e
00000340: 99e7 953e 5b53 c13d bdf6 c73e 00e0 e03d
00000350: ab5f a53e d9bb 243e d21c c53e 68fb 383d
00000360: fd80 923e ce04 ec3d 37ae 993e 871f 083e
00000370: bd54 4f3e d5eb 0e3e 685d 483e 92c9 873e
00000380: 9ef8 ae3c ae45 823e b33a 893e cc33 1b3e
00000390: 9af4 c83d cea2 d03d 72e6 a33d 2e84 2f3e
000003a0: 6987 db3c 87d8 8d3d db24 acbd 9d89 063d
000003b0: 4602 87bd 13bb 183e 028b 7bbd 1697 383d
000003c0: e5ad d13d 29c4 0f3e fcec 4e3c 8be7 da3d
000003d0: bd33 2aba 33b8 8e3d 360b 543d 5e88 e73d
000003e0: d159 123e 6377 a6bc c0e5 db3d ab34 963c
000003f0: c4f6 c03d 318c e03d 8cb9 393d fd06 30bc

lstm.weight_hh_l0 f4 [512, 128]
-0.39388722 -0.20538102 -0.28850445 -0.30323464 0.20378497 0.03911669 0.26787823 0.11278625
-0.2480132 -0.094854504 -0.34901053 0.22189656 0.50983125 0.30343103 0.20504121 0.3252813
0.61829376 -0.077737376 -0.23789342 -0.11401063 -0.35255864 0.50226986 -0.35996342 -0.077901244
-0.38211223 -0.21437714 0.13237889 0.09955819 0.4894163 0.028169373 -0.590524 -0.21576476
-0.41701764 0.10674463 -0.09614028 -0.4001828 -0.08740075 -0.18226644 0.654716 0.43446133
-0.37475723 -0.15973663 -0.45339847 -0.51928926 1.0373834 -0.41785297 0.51965916 0.056602072
0.08268735 0.14408295 0.16184658 -0.0873101 -0.20578268 0.097263515 0.059038363 0.45412955
-0.5136429 -0.33450297 -0.26701793 -0.20885012 0.2751451 -0.04457456 -0.11262439 0.19530667
0.096264675 0.3758152 -0.12414293 -0.06797247 0.012999643 0.25587144 0.16192783 -0.058278333
0.14810324 0.6364881 -0.09841192 0.4142832 -0.11704364 -0.16568455 -0.45035324 -0.2699319
0.42461118 0.15796632 -0.16493091 0.1903751 -0.05898705 -0.47365758 -0.012428364 -0.12647943
0.46174878 -0.052216496 -0.22629197 -0.16405593 0.07269057 0.28499493 0.045026474 -0.0036292512
-0.24963883 0.23312156 0.4438264 0.49870163 0.19256867 -0.0062316307 -0.54638195 0.017177902
-0.019947514 -0.52606153 -0.16507278 -0.17635824 0.32269883 -0.034520414 0.23824951 -0.1387848
0.22882253 0.32876953 0.090180695 -0.053936757 0.16593868 0.31796855 -0.5162625 -0.40437564
-0.60301566 0.23117039 -0.3452412 -0.0126493815 0.115473345 0.15825409 -0.24665724 0.49038073
-0.6407747 0.18245266 -0.45023584 -0.115319975 0.04713078 -0.10175983 -0.31478527 -0.041061364
-0.59225464 -0.33669043 0.23220532 0.25742322 -0.5365725 0.62850356 0.062969506 0.1469041
0.038437724 0.062513955 -0.8127739 -0.42442852 -0.117290884 0.28111213 -0.651932 0.0064387694
0.0772423 -0.310176 0.10336614 0.36678112 0.0044726254 -0.21865079 0.37377846 -0.52419245
-0.25751662 -0.2893195 -0.010036671 0.4913822 -0.19922502 -0.021808222 0.6113663 -0.79671526
-0.31367463 0.11782265 0.025335906 -0.23899657 0.17967027 -0.37290096 -0.058392074 0.17413561
0.070452705 0.4667273 0.34887946 0.49873328 -0.34735882 -0.52858204 0.37838414 -0.23958603
0.38173673 0.043132644 -0.11518383 -0.45746052 0.3499474 0.65339416 0.06522631 0.55536777
0.08288412 -0.03714531 0.4776262 -0.39535198 -0.27019647 0.64474523 0.078864925 0.04999652
-0.22180218 0.02255752 -0.21865709 -0.1917099 0.45022812 0.19542351 0.0997357 -0.21219653
0.09322633 -0.048291046 0.06573234 0.08616492 -0.022547852 0.02391333 -0.16507544 -0.40463662
-0.13081649 -0.10383972 0.50087523 0.25092295 0.45658472 0.24432023 0.1929515 -0.62530124
0.1246765 0.045850985 0.06953995 -0.4937423 0.1294992 0.2978183 0.11635131 0.47853237
0.18209559 -0.097166106 0.24775042 0.28204453 -0.048196133 0.0678507 0.5187738 -0.24008745
0.22219272 0.08998592 -0.41376925 -0.15108162 0.032099348 0.25120488 -0.013382728 -0.05068558
-0.27659777 0.048871055 -0.367869 -0.19034526 0.15140118 -0.2909278 0.06783037 0.06334537
00000000: 96ab c9be 674f 52be dbb6 93be 9241 9bbe
00000010: 02ad 503e d338 203d 5627 893e 7afc e63d
00000020: 2cf7 7dbe 1443 c2bd 82b1 b2be da38 633e
00000030: 4d84 023f 505b 9b3e 53f6 513e 458b a63e
00000040: 8048 1e3f c634 9fbd 559a 73be 687e e9bd
00000050: 9182 b4be c294 003f 204d b8be b08a 9fbd
00000060: 37a4 c3be ae85 5bbe 558e 073e 2ae5 cb3d
00000070: c694 fa3e 75c3 e63c 952c 17bf 70f1 5cbe
00000080: 5683 d5be ee9c da3d 32e5 c4bd c3e4 ccbe
00000090: 2aff b2bd 0ea4 3abe 789b 273f b771 de3e
000000a0: 2ee0 bfbe 0092 23be d823 e8be 24f0 04bf
000000b0: fbc8 843f d3f0 d5be 6208 053f 93d7 673d
000000c0: fc57 a93d 7b8a 133e 1cbb 253e a3cf b2bd
000000d0: b2b8 52be 1832 c73d 36d2 713d ab83 e83e
000000e0: 1a7e 03bf f943 abbe 93b6 88be cedc 55be
000000f0: d2df 8c3e d093 36bd 9ea7 e6bd 79fe 473e
00000100: 6a26 c53d da6a c03e a63e febd 2635 8bbd
00000110: 74fc 543c 9501 833e 69d0 253e 43b5 6ebd
00000120: 60a8 173e e2f0 223f 308c c9bd ed1c d43e
00000130: 93b4 efbd 36a9 29be b394 e6be 8434 8abe
00000140: a366 d93e ecc1 213e a6e3 28be b1f1 423e
00000150: 689c 71bd 3f83 f2be 56a0 4bbc d383 01be
00000160: 566a ec3e f7e0 55bd 15b9 67be 47fe 27be
00000170: cbde 943d dbea 913e ae6d 383d bbd8 6dbb
00000180: 52a1 7fbe 6bb7 6e3e 373d e33e d255 ff3e
00000190: b930 453e b532 ccbb b0df 0bbf acb8 8c3c
000001a0: f868 a3bc f8ab 06bf d708 29be 4197 34be
000001b0: c838 a53e 4765 0dbd aef7 733e 9a1d 0ebe
000001c0: 7450 6a3e 7b54 a83e a8b0 b83d caec 5cbd
000001d0: d4eb 293e c6cc a23e c729 04bf 530a cfbe
000001e0: 3c5f 1abf eeb7 6c3e 74c3 b0be 5a3f 4fbc
000001f0: 4a7d ec3d 5c0d 223e b793 7cbe 2f13 fb3e
00000200: d009 24bf dfd4 3a3e 5085 e6be e12c ecbd
00000210: 340c 413d 7567 d0bd 892b a1be f62f 28bd
00000220: 009e 17bf b062 acbe 3bc7 6d3e facc 833e
00000230: d15c 09bf 9ce5 203f 28f6 803d 076e 163e
00000240: e070 1d3d 5107 803d f311 50bf b24e d9be
00000250: 3436 f0bd eeed 8f3e 04e5 26bf 50fc d23b
00000260: 3631 9e3d 64cf 9ebe a0b1 d33d bcca bb3e
00000270: 1a8f 923b fee5 5fbe e45f bf3e 7a31 06bf
00000280: 38d9 83be af21 94be d970 24bc 7396 fb3e
00000290: a501 4cbe 28a7 b2bc 8082 1c3f 88f5 4bbf
000002a0: f699 a0be 004d f13d 3f8d cf3c 84bb 74be
000002b0: 7cfb 373e e0ec bebe 872c 6fbd 9b50 323e
000002c0: 8249 903d e1f6 ee3e 54a0 b23e f859 ff3e
000002d0: 04d9 b1be 2751 07bf 91bb c13e 0a56 75be
000002e0: ff72 c33e dbab 303d 80e5 ebbd 4438 eabe
000002f0: 4e2c b33e d744 273f 5f95 853d 952c 0e3f
00000300: 26bf a93d ae25 18bd 6c8b f43e 936b cabe
00000310: 3157 8abe 060e 253f ef83 a13d 27c9 4c3d
00000320: 1c20 63be 8cca b83c a5e7 5fbe 9a4f 44be
00000330: 4d84 e63e 1a1d 483e 3b42 cc3d 0c4a 59be
00000340: 72ed be3d d5cc 45bd ad9e 863d 3c77 b03d
00000350: 46b6 b8bc e3e5 c33c 8909 29be 882c cfbe
00000360: c2f4 05be eba9 d4bd 5c39 003f f978 803e
00000370: 79c5 e93e 152f 7a3e 1495 453e be13 20bf
00000380: 6556 ff3d 3ece 3b3d f66a 8e3d cacb fcbe
00000390: 709b 043e a47b 983e 9849 ee3d 3202 f53e
000003a0: 4477 3a3e 06ff c6bd 49b2 7d3e 2468 903e
000003b0: 4f69 45bd 4ff5 8a3d 5cce 043f 7cd9 75be
000003c0: 7d86 633e 8a4a b83d 90d9 d3be 24b5 1abe
000003d0: 9b7a 033d ed9d 803e 3b43 5bbc af9b 4fbd
000003e0: 399e 8dbe 042d 483d 5359 bcbe dee9 42be
000003f0: e908 1b3e 7df4 94be a6ea 8a3d 38bb 813d

lstm.bias_ih_l0 f4 [512]
0.30532628 0.19652118 0.053777836 0.1348921 -0.07377012 -0.028485047 -0.009204962 -0.085675485
0.036181286 0.19862305 -0.099042594 -0.054337516 0.18842582 0.1961744 -0.04083405 0.26452193
-0.032360755 0.16587023 0.022442134 0.12186687 0.11839771 0.068787046 0.21371351 0.2145714
-0.059059825 -0.15224728 0.20362121 0.109601095 -0.08842785 -0.06674271 -0.013610002 0.07873339
0.006370209 0.27569208 0.15079455 0.35169938 -0.088697664 -0.09735307 0.30922443 -0.051470052
0.16499239 -0.068985365 -0.33889705 0.020999415 0.32055554 0.3940243 -0.19286926 0.21686168
-0.49121302 0.18708521 0.3185886 -0.17151445 0.10066821 0.28210127 0.13625126 -0.06107492
0.06159217 -0.1491806 0.1713619 0.13823946 0.26216218 -0.021412047 -0.087844685 0.18341528
0.12101675 -0.30182478 0.049343802 -0.19349264 -0.21898364 0.3094682 -0.26606962 -0.17016989
-0.0707287 0.0875641 -0.117264055 -0.14724576 -0.13598089 -0.37436634 -0.1262708 -0.0052734776
0.20541535 -0.18605979 -0.11109898 0.0037750592 -0.007071313 -0.07029551 0.10695521 0.099612996
0.30395797 0.18030727 -0.21751247 -0.0565649 0.3571778 -0.25105783 -0.065911934 0.23437335
-0.30656466 0.18673496 -0.010569382 -0.05956397 0.018905394 0.11233657 -0.04131872 -0.38314295
0.09798365 0.06021695 -0.224776 -0.38830036 -0.124037676 -0.022815675 0.23104289 -0.15051104
-0.27570936 -0.313845 -0.29596895 -0.2643672 0.27262205 0.24911837 -0.18218167 -0.094228126
0.11761603 -0.11087534 0.33004317 0.027457666 0.12307671 -0.007134623 -0.29582494 0.04212631
0.09444845 -0.07252616 0.15900965 -0.09910245 0.017175823 0.22132619 -0.11915993 -0.1941213
-0.30718046 0.046648726 0.25548485 0.028746603 -0.8212172 0.07767203 0.093550146 -0.16112715
-0.24989854 -0.014874402 -0.32218564 -0.0026733102 0.01081715 -0.15991007 -0.1356193 0.11508384
-0.14986631 0.11447616 0.31587714 0.08764969 0.08691641 -0.048939873 -0.14366779 0.12597533
-0.11713532 -0.100152604 0.050618395 -0.034455303 0.23106292 -0.21406446 -0.030155787 -0.3453088
-0.09301899 -0.41211405 -0.22413816 -0.6171935 -0.10021084 0.03532544 -0.12362157 -0.06013807
-0.4031722 -0.2290349 -0.08996359 -0.018122522 0.12500905 0.052452356 -0.31297472 -0.14737642
-0.12800923 -0.013777014 0.055937875 0.2281189 0.1443282 -0.045088902 0.30289 0.02342674
0.10992622 -0.10827064 -0.090593114 -0.15152429 -0.04002526 -0.055773884 -0.14226307 -0.024965541
0.041528303 -0.10455978 -0.2770357 -0.04700736 -0.1433914 -0.40739834 -0.20657234 -0.20602603
-0.0613414 -0.5448982 -0.22915736 0.5068657 0.20811899 -0.2062539 -0.24324894 0.09104195
-0.15028088 -0.19145206 -0.11217614 -0.44191527 -0.05137811 -0.14441854 0.110474184 -0.29778376
0.02092511 -0.033919923 0.11120661 -0.282658 -0.13077132 0.035046697 -0.07186504 -0.29147434
0.095678 -0.12386716 -0.25047576 -0.027456556 -0.31861567 -0.38005808 0.1158799 -0.1837921
-0.22110577 -0.12875956 -0.16982785 -0.16231161 -0.029525302 -0.030831514 -0.25461516 -0.33657387
-0.07319609 -0.26252705 0.026923005 -0.13399738 -0.004454492 -0.14639361 -0.09879436 -0.039151307
00000000: ba53 9c3e d93c 493e 2646 5c3d 2821 0a3e
00000010: ca14 97bd 7959 e9bc 69d0 16bc a176 afbd
00000020: d432 143d d763 4b3e d8d6 cabd 0491 5ebd
00000030: b3f2 403e f1e1 483e 9b41 27bd 6b6f 873e
00000040: b68c 04bd e3d9 293e 91d8 b73c 5695 f93d
00000050: 807a f23d 39e0 8c3d b7d7 5a3e 9bb8 5b3e
00000060: b7e8 71bd b6e6 1bbe 1482 503e 8a76 e03d
00000070: a919 b5bd 67b0 88bd 7cfc 5ebc f93e a13d
00000080: 30bd d03b 8327 8d3e e369 1a3e f111 b43e
00000090: 1fa7 b5bd 0c61 c7bd aa52 9e3e 43d2 52bd
000000a0: c4f3 283e 3348 8dbd ea83 adbe f706 ac3c
000000b0: db1f a43e 8ebd c93e 857f 45be fd10 5e3e
000000c0: 4680 fbbe 4493 3f3e 0c1e a33e 7ca1 2fbe
000000d0: 222b ce3d 946f 903e 7385 0b3e b229 7abd
000000e0: 1248 7c3d cdc2 18be 7e79 2f3e a58e 0d3e
000000f0: 1f3a 863e 5168 afbc eae7 b3bd 37d1 3b3e
00000100: a1d7 f73d c788 9abe ba1c 4a3d ef22 46be
00000110: 3f3d 60be 9e72 9e3e 473a 88be 0441 2ebe
00000120: 35da 90bd cf54 b33d 2328 f0bd 98c7 16be
00000130: 933e 0bbe f2ac bfbe 224d 01be 23cd acbb
00000140: 6758 523e 7586 3ebe dd87 e3bd fc66 773b
00000150: 79b6 e7bb 18f7 8fbd 550b db3d e601 cc3d
00000160: 61a0 9b3e 78a2 383e 97bb 5ebe 99b0 67bd
00000170: 02e0 b63e a78a 80be d6fc 86bd 91ff 6f3e
00000180: 0bf6 9cbe 7337 3f3e 342b 2dbc 59f9 73bd
00000190: 7cdf 9a3c b710 e63d d13d 29bd 502b c4be
000001a0: a7ab c83d 0ca6 763d ae2b 66be 4ecf c6be
000001b0: 7707 febd f0e7 babc 8296 6c3e 911f 1abe
000001c0: c729 8dbe 4bb0 a0be 3e89 97be 235b 87be
000001d0: 1e95 8b3e e318 7f3e d58d 3abe adfa c0bd
000001e0: ace0 f03d 9c12 e3bd 6bfb a83e e6ee e03c
000001f0: a40f fc3d 8ec9 e9bb 5e76 97be a38c 2c3d
00000200: 306e c13d 9888 94bd 6dd3 223e 3af6 cabd
00000210: 50b4 8c3c 55a3 623e 1f0a f4bd bcc7 46be
00000220: c246 9dbe bc12 3f3d e9ce 823e ff7d eb3c
00000230: 4a3b 52bf 8312 9f3d 3897 bf3d 84fe 24be
00000240: 67e5 7fbe c4b3 73bc 84f5 a4be b432 2fbb
00000250: 6a3a 313c 77bf 23be c9df 0abe 14b1 eb3d
00000260: 8e76 19be 7a72 ea3d a6ba a13e ae81 b33d
00000270: 3b01 b23d 2d75 48bd a61d 13be adff 003e
00000280: a5e4 efbd cf1c cdbd 3c55 4f3d 0121 0dbd
00000290: c29b 6c3e b733 5bbe 4509 f7bc 51cc b0be
000002a0: bd80 bebd 9d00 d3be 7984 65be 6500 1ebf
000002b0: 573b cdbd 69b1 103d 4e2d fdbd 5653 76bd
000002c0: 966c cebe 2088 6abe d53e b8bd af75 94bc
000002d0: 5f02 003e 48d8 563d 393e a0be d8e9 16be
000002e0: da14 03be fcb8 61bc 1d1f 653d 0098 693e
000002f0: c6ca 133e 24af 38bd 6614 9b3e 6fe9 bf3c
00000300: ff20 e13d ffbc ddbd e288 b9bd 2f29 1bbe
00000310: 87f1 23bd 2873 64bd 69ad 11be 8984 ccbc
00000320: 9519 2a3d 7023 d6bd a0d7 8dbe ca8a 40bd
00000330: 32d5 12be 8496 d0be b387 53be 7df8 52be
00000340: 1f41 7bbd 737e 0bbf 3aa8 6abe f3c1 013f
00000350: 251d 553e 3934 53be 4016 79be 3474 ba3d
00000360: 3be3 19be 020c 44be 9bbc e5bd b842 e2be
00000370: da71 52bd 74e2 13be 4a40 e23d 1d77 98be
00000380: 236b ab3c 9eef 0abd 4bc0 e33d 8db8 90be
00000390: ebe8 05be 208d 0f3d fa2d 93bd 203c 95be
000003a0: d4f2 c33d 11ae fdbd 5c3e 80be 92ec e0bc
000003b0: 9821 a3be f996 c2be 7152 ed3d ff33 3cbe
000003c0: 8d69 62be 8cd9 03be 5ae7 2dbe 0435 26be
000003d0: 0cdf f1bc 5f92 fcbc eb5c 82be 6953 acbe
000003e0: d5e7 95bd f269 86be a28d dc3c 9c36 09be
000003f0: fdf6 91bb 35e8 15be b354 cabd 1f5d 20bd

lstm.bias_hh_l0 f4 [512]
0.17352231 0.32110995 0.11309884 0.19500533 -0.22767031 -0.069897875 -0.08150014 -0.10713786
0.13218187 0.287499 -0.06777393 -0.18381347 0.09713251 0.21649796 -0.06528501 0.23894097
-0.11431527 0.10454786 0.13874084 0.23095472 0.07138485 0.061741438 0.1443533 0.291387
-0.122566804 -0.15749596 0.073864765 0.09233186 -0.053844962 0.073946565 -0.13580577 0.19263709
0.04629692 0.23862259 0.13252026 0.25286084 -0.045680676 -0.072481334 0.19764245 -0.118252695
0.14438775 -0.19876313 -0.46217445 -0.0281334 0.22886433 0.37963906 -0.14369124 0.1257907
-0.503137 0.248895 0.17067629 -0.26780307 0.19861014 0.21971937 0.2509923 -0.004026788
-0.045850936 -0.23104644 0.12087336 0.1481824 0.21248947 -0.16117007 -0.15575738 0.11338177
0.02301282 -0.19336501 -0.028284961 -0.08176204 -0.21707134 0.2706422 -0.28656685 -0.23839848
0.07393026 0.22321732 -0.13446394 -0.18271972 -0.08764853 -0.41125703 -0.18506314 0.08485364
0.24415989 -0.19390194 -0.03918321 -0.1482638 -0.00060255575 -0.16833138 -0.013353232 0.059357602
0.25993314 0.13976629 -0.27005425 0.037623208 0.26488817 -0.19943932 0.03561508 0.094510816
-0.22138478 0.07468106 -0.06547358 -0.06250923 -0.027716903 0.09531508 0.011495968 -0.44121274
0.10280913 0.027913801 -0.14137521 -0.45117208 -0.23912872 0.04258484 0.2931108 -0.07259105
-0.13736556 -0.33541802 -0.27939466 -0.14940028 0.13926603 0.38152948 -0.29628912 -0.13838468
0.2384553 -0.09152994 0.29005444 0.0055926307 0.1829955 -0.011630473 -0.27685356 0.0995362
0.069727845 -0.19661893 0.09576716 -0.13056098 0.026098201 0.17336836 -0.013897099 -0.24101731
-0.2228926 -0.040511787 0.31518906 0.08762126 -0.7527413 0.08185764 -0.06026915 -0.08596563
-0.14213692 0.012011601 -0.3517648 0.020278445 -0.036305208 -0.2390547 -0.045290045 0.0460347
-0.22848414 0.035753906 0.16168624 0.01834327 0.107315324 -0.16965231 -0.049700458 0.076400675
-0.22998187 -0.13682179 -0.06776881 -0.11298426 0.32866672 -0.15666218 -0.04146514 -0.3015866
-0.02921512 -0.3904253 -0.19523749 -0.72552407 -0.07941636 0.024710983 -0.114845544 0.040124677
-0.33974206 -0.25552383 -0.08550822 0.08638661 0.12870426 0.056019034 -0.3480578 -0.20082952
-0.08576221 -0.013222264 0.08861869 0.10937561 0.1473581 -0.095007166 0.18364638 0.056882307
0.013379069 -0.23016937 -0.034854732 -0.031247696 0.03325858 -0.054906916 -0.15847708 0.049034607
0.0041732495 -0.0737999 -0.28414327 0.0018067586 -0.053723086 -0.42412275 -0.14838573 -0.11041728
-0.043946438 -0.4578359 -0.1458953 0.36033556 0.20083193 -0.091071896 -0.22631973 0.00049143704
-0.11431995 -0.09355667 -0.13372055 -0.3810396 0.0059601148 -0.22756036 0.12511924 -0.34167498
0.089024454 -0.039569218 0.110811 -0.3166743 -0.20813207 -0.059329472 -0.09891211 -0.4046222
-0.051007006 -0.15264685 -0.24336034 0.07180104 -0.18399002 -0.352884 0.07307102 -0.17969307
-0.13091266 -0.20332645 -0.26704553 -0.026124293 -0.1391106 -0.044539813 -0.24025464 -0.438749
-0.03163067 -0.37583163 0.02753485 0.015521308 -0.0054350356 -0.018921055 -0.13048735 -0.12571913
00000000: d5af 313e 8668 a43e 5da0 e73d 7aaf 473e
00000010: 6822 69be 9e26 8fbd 8ce9 a6bd 186b dbbd
00000020: af5a 073e 1233 933e 0fcd 8abd 9939 3cbe
00000030: 69ed c63d a4b1 5d3e 26b4 85bd f1ac 743e
00000040: 201e eabd 301d d63d 1412 0e3e 657f 6c3e
00000050: 3832 923d 97e4 7c3d 5ad1 133e ad30 953e
00000060: 4e04 fbbd 9f46 21be 6946 973d 7c18 bd3d
00000070: 898c 5cbd 4c71 973d ab10 0bbe a842 453e
00000080: d7a1 3d3d 7b59 743e 64b3 073e fa76 813e
00000090: a91b 3bbd 1871 94bd c862 4a3e 782e f2bd
000000a0: 62da 133e 9088 4bbe 21a2 ecbe 0478 e6bc
000000b0: 695b 6a3e 0d60 c23e cc23 13be 47cf 003e
000000c0: 96cd 00bf 55de 7e3e c4c5 2e3e 7c1d 89be
000000d0: 7560 4b3e 1dfe 603e 1082 803e 25f3 83bb
000000e0: 31ce 3bbd 7097 6cbe 748c f73d 21bd 173e
000000f0: d796 593e c409 25be dd7e 1fbe b434 e83d
00000100: 6285 bc3c 7a01 46be ddb5 e7bc db72 a7bd
00000110: f347 5ebe 9d91 8a3e e4b8 92be bb1e 74be
00000120: c068 973d 1593 643e eab0 09be e11a 3bbe
00000130: 1381 b3bd 4890 d2be 3181 3dbe bfc7 ad3d
00000140: 0d05 7a3e 3b8e 46be 937e 20bd 77d2 17be
00000150: d5f4 1dba 105f 2cbe 84c7 5abc f520 733d
00000160: f515 853e e51e 0f3e 8d44 8abe cb1a 1a3d
00000170: 6c9f 873e d239 4cbe 1ee1 113d e38e c13d
00000180: b1b2 62be 62f2 983d 0317 86bd d704 80bd
00000190: 8f0e e3bc 8d34 c33d 9659 3c3c a3e6 e1be
000001a0: 988d d23d 7cab e43c aac4 10be 0700 e7be
000001b0: 29de 74be 716d 2e3d 9e12 963e 9eaa 94bd
000001c0: 8fa9 0cbe e9bb abbe d10c 8fbe 63fc 18be
000001d0: c19b 0e3e d557 c33e 35b3 97be b7b4 0dbe
000001e0: a02d 743e 0d74 bbbd 0482 943e 6342 b73b
000001f0: 2c63 3b3e bd8d 3ebc c0bf 8dbe a3d9 cb3d
00000200: 79cd 8e3d 7956 49be 9321 c43d c7b1 05be
00000210: e5cb d53c 7a87 313e a8b0 63bc 3ecd 76be
00000220: f53d 64be b0ef 25bd 7660 a13e c672 b33d
00000230: a7b3 40bf faa4 a73d c9dc 76bd c00e b0bd
00000240: 578c 11be 4ecc 443c 841a b4be fb1e a63c
00000250: c5b4 14bd c1ca 74be 0e82 39bd e28e 3c3d
00000260: bff7 69be b072 123d 1491 253e a044 963c
00000270: 23c8 db3d 56b9 2dbe b592 4bbd f577 9c3d
00000280: 5e80 6bbe 031b 0cbe 60ca 8abd 4b64 e7bd
00000290: 0147 a83e 0d6c 20be 5ad7 29bd 8f69 9abe
000002a0: 8c54 efbc d3e5 c7be 56ec 47be f2bb 39bf
000002b0: 0ba5 a2bd b06e ca3c 2434 ebbd c659 243d
000002c0: acf2 adbe 05d4 82be ef1e afbd 77eb b03d
000002d0: 0dcb 033e 3774 653d a234 b2be 41a6 4dbe
000002e0: 19a4 afbd 32a2 58bc b77d b53d 5200 e03d
000002f0: 0be5 163e 1e93 c2bd cc0d 3c3e 6cfd 683d
00000300: e233 5b3c 85b1 6bbe d6c3 0ebd 2bfb ffbc
00000310: 263a 083d 13e6 60bd d147 22be 83d8 483d
00000320: c1bf 883b 6724 97bd 3a7b 91be c2d0 ec3a
00000330: bd0c 5cbd 9e26 d9be 6ef2 17be 7422 e2bd
00000340: 2e01 34bd 7869 eabe 9465 15be e77d b83e
00000350: e3a6 4d3e e783 babd 5cc0 67be c8d3 003a
00000360: 9420 eabd a49a bfbd 0aee 08be 9f17 c3be
00000370: 114d c33b 9505 69be 421f 003e 06f0 aebe
00000380: 7452 b63d 5513 22bd e1f0 e23d 2223 a2be
00000390: 9320 55be 7603 73bd 6f92 cabd a42a cfbe
000003a0: b9ec 50bd 754f 1cbe 7433 79be 6c0c 933d
000003b0: e167 3cbe 36ad b4be 42a6 953d 7601 38be
000003c0: f80d 06be cf34 50be 31ba 88be 9d02 d6bc
000003d0: 0273 0ebe 616f 36bd 5005 76be b5a3 e0be
000003e0: 298f 01bd 016d c0be c490 e13c 164d 7e3c
000003f0: 6218 b2bb 5400 9bbc 7a9e 05be 84bc 00be

fc_forecast.weight f4 [34, 128]
0.024931422 -0.1356615 -0.043266434 0.071280584 -0.04668201 -0.05501294 -0.034953244 -0.40145364
-0.085816756 -0.054642636 -0.039757617 0.11272748 0.015285027 0.11893349 -0.05669426 -0.038533535
0.07326968 -0.12735398 0.15614094 0.102334216 0.10605643 -0.07135976 -0.18829551 -0.016111149
0.048212547 -0.066235706 0.009806529 -0.007994508 0.07562343 -0.10621704 0.033029232 -0.17789482
0.008656536 0.045363225 0.038556755 0.022544987 0.022164473 -0.040771514 -0.06308703 0.048246052
0.20051016 -0.1956075 0.13333288 -0.16122155 -0.07477854 -0.07360734 -0.047838815 -0.17457858
-0.7319559 -0.0128372805 0.10751146 -0.058341064 -0.4213491 0.030079583 -0.24455155 0.028712811
-0.043297756 0.07764454 -0.060816366 -0.20260718 -0.1638707 0.126711 -0.0011585705 0.022089755
-0.09776369 0.08072241 -0.08862597 -0.031733643 -0.008309183 -0.122289 -0.050315145 0.009243267
-0.029289318 -0.006413753 -0.18393598 0.0092374375 0.06042173 0.18541777 -0.0203931 -0.027085794
-0.08632108 0.045688618 0.037573215 -0.0273394 -0.06111649 -0.16647156 -0.3421889 -0.015414141
-0.00054077286 0.30049145 0.017221043 0.033581126 -0.22640124 -0.02284877 0.07801965 0.15942669
-0.08159338 0.13405278 0.012182221 -0.00014840723 -0.10187598 0.016352024 -0.021002604 -0.34423
0.15094201 0.04481588 0.0011684123 0.080521755 -0.13878588 -0.018445486 -0.003114165 0.042515423
0.1343393 -0.045532793 -0.037393138 -0.03011658 0.009365202 -0.051007055 0.13584872 -0.5842623
0.029223599 0.24181405 -0.043862402 0.061147053 0.20397575 -0.12458115 0.09189473 0.053416453
0.026819972 -0.21377726 0.080252394 -2.1608772e-05 0.010890854 -0.100342974 -0.03568941 -0.11858607
0.16202344 0.12930757 -0.046717603 0.12465144 0.111491844 0.028778395 -0.088414125 0.025890281
-0.06569063 -0.363035 0.23489594 -0.029302526 0.100755975 -0.10972835 -0.42047605 0.0054199332
0.04343185 -0.13005415 -0.054147717 -0.002063387 0.032276247 -0.07638116 0.03515789 0.09104978
0.09861178 -0.23343445 0.059992928 0.10293961 -0.009741405 -0.046153385 -0.2806729 -0.22655645
-0.31349126 0.7362408 -0.23326367 -0.35135442 0.007549443 -0.18737054 -0.16417891 -0.093475
-0.4669782 -0.2598866 -0.09116199 0.0261265 0.15381932 0.04186919 -0.2672738 0.034733303
0.085518025 0.085022576 0.23883456 -0.33463717 -0.03399445 0.17475292 -0.006993193 0.056341022
-0.0022427547 0.17531388 -0.03120914 -0.02017531 -0.022283144 0.030056596 -0.08892153 0.023030913
0.020050952 -0.0047154073 -0.3289095 -0.05268028 0.0013305068 -0.06289896 0.249129 0.035349112
-0.055702485 0.042317126 0.13568892 0.08535795 -0.10677064 -0.1262996 -0.58482814 -0.332602
-0.0067220335 0.17735054 0.017188974 0.0053360173 -0.34667882 0.03048026 -0.0038018639 0.1386231
-0.0040764925 0.010412619 -0.03136657 -0.13906851 -0.034523144 0.31482667 -0.16350222 -0.726678
0.24376656 0.15782297 -0.04419459 -0.016810326 -0.19071 -0.04224271 0.0567915 0.021998174
0.10558383 -0.038041845 -0.029926036 -0.008438122 0.04390803 -0.055194926 -0.07167345 0.028905602
0.14307266 0.4667247 0.058021888 -0.007663611 -0.04820094 0.0170003 0.067373544 0.07907344
00000000: fb3c cc3c d9ea 0abe 2538 31bd 8efb 913d
00000010: a335 3fbd 4055 61bd 222b 0fbd 558b cdbe
00000020: b2c0 afbd f5d0 5fbd e2d8 22bd aadd e63d
00000030: 0d6e 7a3c 6793 f33d 3e38 68bd 57d5 1dbd
00000040: 6a0e 963d 1569 02be 69e3 1f3e 9a94 d13d
00000050: 1d34 d93d 1125 92bd 8ad0 40be 87fb 83bc
00000060: 857a 453d 96a6 87bd 90ab 203c 66fb 02bc
00000070: 75e0 9a3d 5288 d9bd a949 073d 0f2a 36be
00000080: 25d4 0d3c cace 393d b0ed 1d3d 44b0 b83c
00000090: 4592 b53c 0800 27bd c633 81bd a79d 453d
000000a0: 8952 4d3e 554d 48be 6a88 083e 4317 25be
000000b0: 7e25 99bd 72bf 96bd a2f2 43bd bac4 32be
000000c0: 7661 3bbf 7553 52bc f82e dc3d 0af7 6ebd
000000d0: 12bb d7be 7569 f63c b96b 7abe 2137 eb3c
000000e0: fd58 31bd 1a04 9f3d 951a 79bd 4278 4fbe
000000f0: b9cd 27be 87c0 013e 2ddb 97ba 93f5 b43c
00000100: 5438 c8bd ca51 a53d 8881 b5bd 23fb 01bd
00000110: 3d23 08bc a872 fabd 4117 4ebd 1271 173c
00000120: 27f0 efbc 762a d2bb b759 3cbe 9f58 173c
00000130: c77c 773d 28de 3d3e 6e0f a7bc 07e3 ddbc
00000140: 1bc9 b0bd fd23 3b3d 5fe6 193d e1f6 dfbc
00000150: 4955 7abd 8577 2abe 6233 afbe 988b 7cbc
00000160: a7c2 0dba 04da 993e 2513 8d3c 5d8c 093d
00000170: bad5 67be 582d bbbc c4c8 9f3d c040 233e
00000180: 6e1a a7bd 2245 093e f097 473c c39d 1bb9
00000190: 5ba4 d0bd aef4 853c a70d acbc ea3e b0be
000001a0: 8b90 1a3e db90 373d 6925 993a 97e8 a43d
000001b0: e31d 0ebe fd1a 97bc 0517 4cbb a724 2e3d
000001c0: 3e90 093e 9880 3abd 8c29 19bd 0cb7 f6bc
000001d0: 8170 193c c6ec 50bd ed1b 0b3e 3792 15bf
000001e0: 5466 ef3c 1a9e 773e 10a9 33bd 5575 7a3d
000001f0: 05df 503e 6724 ffbd 4e33 bc3d 36cb 5a3d
00000200: 8fb5 db3c 6de8 5abe 5e5b a43d 7c44 b5b7
00000210: 8d6f 323c 9e80 cdbd 0f2f 12bd 41dd f2bd
00000220: 79e9 253e 3469 043e f55a 3fbd 4149 ff3d
00000230: d655 e43d abc0 eb3c 7712 b5bd db17 d43c
00000240: cf88 86bd b9df b9be 9088 703e da0b f0bc
00000250: 2659 ce3d 42b9 e0bd a348 d7be b299 b13b
00000260: 98e5 313d ea2c 05be ffc9 5dbd e439 07bb
00000270: 1934 043d ba6d 9cbd b801 103d 4f78 ba3d
00000280: f9f4 c93d 7109 6fbe 25bb 753d 01d2 d23d
00000290: 6a9a 1fbc 550b 3dbd 5cb4 8fbe 6afe 67be
000002a0: ed81 a0be 477a 3c3f acdc 6ebe bae4 b3be
000002b0: 5161 f73b 10de 3fbe 841e 28be d26f bfbd
000002c0: c417 efbe db0f 85be 23b3 babd 3e07 d63c
000002d0: d082 1d3e 077f 2b3d 1dd8 88be 8244 0e3d
000002e0: 1324 af3d 5120 ae3d 0c91 743e 9055 abbe
000002f0: c43d 0bbd 6ef2 323e 2827 e5bb d8c5 663d
00000300: 2efb 12bb 7b85 333e 4faa ffbc b146 a5bc
00000310: 248b b6bc 4039 f63c 7e1c b6bd 53ab bc3c
00000320: e541 a43c b483 9abb d366 a8be 47c7 57bd
00000330: 6664 ae3a 2cd1 80bd ac1b 7f3e 3bca 103d
00000340: 4a28 64bd b954 2d3d 09f2 0a3e 26d0 ae3d
00000350: 91aa dabd af54 01be 4cb7 15bf cf4a aabe
00000360: 8144 dcbb 619b 353e e4cf 8c3c c2d9 ae3b
00000370: e37f b1be bdb1 f93c b128 79bb 37f3 0d3e
00000380: 1994 85bb b199 2a3c 3c7a 00bd fa67 0ebe
00000390: 2468 0dbd f630 a13e 206d 27be 9207 3abf
000003a0: f19d 793e 589c 213e 6305 35bd cfb5 89bc
000003b0: 7b49 43be b106 2dbd 349e 683d 8435 b43c
000003c0: 563c d83d c4d1 1bbd 7227 f5bc 0d40 0abc
000003d0: e8d8 333d 1314 62bd 88c9 92bd 71cb ec3c
000003e0: a481 123e 8af6 ee3e 5ca8 6d3d 071f fbbb
000003f0: 596e 45bd 3744 8b3c 24fb 893d 41f1 a13d

fc_forecast.bias f4 [34]
0.47393695 0.44697016 0.4773341 0.43806896 0.47043326 0.43851355 0.4789394 0.4423892
0.46475124 0.44307217 0.48308215 0.49300104 0.45291618 0.4931745 0.4900476 0.567157
0.44757426 0.56958467 0.49137962 0.60155284 0.45276913 0.6127669 0.4737915 0.6103925
0.45679986 0.6115651 0.47785562 0.66243434 0.4676788 0.66341174 0.47167802 0.73739994
0.47288483 0.74064094
00000000: dda7 f23e 46d9 e43e 2365 f43e 934a e03e
00000010: a1dc f03e d984 e03e 8c37 f53e d680 e23e
00000020: e0f3 ed3e 5bda e23e 8b56 f73e a26a fc3e
00000030: a1e4 e73e 5e81 fc3e 85e7 fa3e 3331 113f
00000040: 7428 e53e 4dd0 113f 1c96 fb3e 5eff 193f
00000050: 5bd1 e73e 4bde 1c3f cd94 f23e af42 1c3f
00000060: ace1 e93e 888f 1c3f 7ea9 f43e 4c95 293f
00000070: 9873 ef3e 5ad5 293f c87f f13e 3ec6 3c3f
00000080: f61d f23e a59a 3d3f

fc_class.weight f4 [2, 128]
-0.5504243 0.098906495 -0.4758381 -0.3511112 -0.36940593 -0.078492805 1.1954439 0.03207689
-0.45338634 -0.14585067 -0.55047697 -0.115254104 1.0907332 0.37702677 0.536584 0.53199995
1.508761 -0.2700965 -0.38875234 -0.21726401 -0.389827 0.6057799 -0.6268322 -0.35493034
-1.2395376 -0.0006996729 -0.19581723 -2.5618618 0.64143425 0.099641606 -0.27918953 -0.2225392
-1.1826485 0.012169557 -0.36761573 -0.40988532 0.15269905 -0.2528331 0.71523803 0.29050598
-0.42051437 0.14201388 -0.09044115 -1.8179568 0.5705313 -0.4702121 0.85737526 0.26235983
-0.040128734 0.04974742 0.1631504 -1.4181926 -0.22300524 -0.11381045 0.24862835 0.9773405
-1.4338789 -0.122653514 -0.4456444 -0.24263279 0.4562961 -1.1892964 -0.37921873 0.20865723
0.20344459 0.82247233 -0.28758973 0.27901608 0.79500085 0.32569113 -0.07368602 0.25841236
0.8002987 1.3549646 -0.043953672 1.1442105 -0.011421485 -0.80094373 -0.9078035 -1.1804392
0.63628197 0.4140542 -1.7845341 0.44258368 0.102326065 -0.55505836 -0.17030731 -0.041095257
0.61192745 -0.13859785 -0.64760387 -1.1048958 0.07396562 0.11876588 0.20875826 -0.21705456
-0.29600358 0.42438942 0.45884043 1.5913501 0.009057695 0.3344973 -0.45899224 -0.35974455
-0.4544443 -2.0541074 -1.1027019 -0.3682163 0.78176534 -1.041166 0.65575355 -0.48573545
0.14576702 0.22775745 0.6065493 0.3876398 -0.19426657 0.33049333 -0.4044889 -0.16772425
-0.39096376 0.71172017 -0.43174645 0.98397166 0.11327708 0.11325077 -0.08241805 0.6917881
0.6194752 -0.17246051 0.5096863 0.388646 0.28893492 0.11137872 -1.167137 0.12162726
0.41568714 0.26593196 0.56174016 0.03534106 -1.0168225 -0.2339364 -0.67221785 -0.488309
-1.5347183 0.14553687 0.36106667 0.18692721 0.37407368 -0.4847497 0.6420589 0.38931677
1.2962774 0.03777963 0.07401132 2.519915 -0.6409131 -0.16528307 0.2777553 0.27235717
1.193229 -0.01881497 0.21700253 0.42657858 -0.1536745 0.36315098 -0.6729026 -0.21773742
0.46059668 -0.16991362 0.20403917 1.8110414 -0.61641026 0.5627399 -0.93574816 -0.14647058
-0.034359008 -0.11656246 -0.25191766 1.4251282 0.23471043 0.000432146 -0.19213259 -1.0354631
1.5640135 0.20625068 0.3692291 0.25445887 -0.4241251 1.2214079 0.3202833 -0.11210554
-0.16146345 -0.7764188 0.2796347 -0.25882718 -0.8984918 -0.30675182 -0.02170618 -0.34898216
-0.7262085 -1.3718295 0.08743634 -1.1614181 0.099062264 0.80891705 0.974432 1.141645
-0.6478426 -0.40302756 1.8603156 -0.31050518 0.01747279 0.54090774 0.24603868 0.123127416
-0.5597976 0.19227633 0.76053447 1.0494477 -0.24090451 -0.12014243 -0.12472558 0.35032126
0.22924586 -0.5137167 -0.514176 -1.6177771 -0.06733239 -0.225544 0.43165824 0.30878142
0.33290374 2.015774 0.9789372 0.2812349 -0.7929592 1.1429074 -0.71429086 0.6357978
-0.15740803 -0.3016606 -0.709004 -0.41606107 0.12139672 -0.3889576 0.44825867 0.28374454
0.39962262 -0.73568076 0.48987678 -1.0366677 -0.16453226 -0.13746603 0.23706329 -0.6646343
00000000: 9be8 0cbf 7d8f ca3d 0da1 f3be d9c4 b3be
00000010: c622 bdbe d6c0 a0bd 4e04 993f 0f63 033d
00000020: 4122 e8be e159 15be 0fec 0cbf 580a ecbd
00000030: 259d 8b3f a709 c13e 925d 093f 2631 083f
00000040: 151f c13f 174a 8abe 8c0a c7be 757a 5ebe
00000050: 6897 c7be 6414 1b3f 1378 20bf 6eb9 b5be
00000060: 2ba9 9ebf 416a 37ba 5084 48be 8bf5 23c0
00000070: 0935 243f e610 cc3d eef1 8ebe 51e1 63be
00000080: 0761 97bf d262 473c 2138 bcbe 7ddc d1be
00000090: 245d 1c3e 5773 81be d719 373f 33bd 943e
000000a0: a94d d7be 166c 113e 3639 b9bd cfb2 e8bf
000000b0: 570e 123f a4bf f0be f27c 5b3f 0754 863e
000000c0: 075e 24bd f3c3 4b3d e610 273e 5687 b5bf
000000d0: 7c5b 64be 7415 e9bd 6e98 7e3e fd32 7a3f
000000e0: 5889 b7bf c431 fbbd 812b e4be bb74 78be
000000f0: a49f e93e dd3a 98bf f528 c2be 3eaa 553e
00000100: c753 503e 8c8d 523f f63e 93be 32db 8e3e
00000110: 2d85 4b3f fdc0 a63e b2e8 96bd a04e 843e
00000120: 60e0 4c3f 7b6f ad3f c408 34bd 7d75 923f
00000130: 2e21 3bbc a60a 4dbf cf65 68bf a218 97bf
00000140: 60e3 223f e9fe d33e 9d6b e4bf 549a e23e
00000150: 5490 d13d 4e18 0ebf 0a65 2ebe 8053 28bd
00000160: 47a7 1c3f 98ec 0dbe 5ec9 25bf 3a6d 8dbf
00000170: 497b 973d 873b f33d bac4 553e 8d43 5ebe
00000180: c88d 97be 9249 d93e 22ed ea3e 5cb1 cb3f
00000190: ba66 143c 3b43 ab3e 0801 ebbe 7030 b8be
000001a0: ecac e8be 7f76 03c0 5625 8dbf d986 bcbe
000001b0: c621 483f ed44 85bf 77df 273f 51b2 f8be
000001c0: f343 153e 4039 693e d146 1b3f b978 c63e
000001d0: d1ed 46be 6c36 a93e 2b19 cfbe e8bf 2bbe
000001e0: 672c c8be 4b33 363f df0d ddbe 91e5 7b3f
000001f0: d0fd e73d 05f0 e73d cbca a8bd 0619 313f
00000200: ed95 1e3f 7d99 30be cd7a 023f 9cfc c63e
00000210: 47ef 933e 871a e43d bf64 95bf b717 f93d
00000220: f2d4 d43e 3c28 883e 34ce 0f3f cac1 103d
00000230: 3d27 82bf 068d 6fbe 7816 2cbf a303 fabe
00000240: a671 c4bf 9e07 153e bbdd b83e d969 3f3e
00000250: 9686 bf3e 1d31 f8be f95d 243f 8754 c73e
00000260: 6bec a53f d0be 1a3d 3f93 973d 4a46 2140
00000270: e212 24bf f73f 29be f135 8e3e 6672 8b3e
00000280: babb 983f da21 9abc e935 5e3e 8268 da3e
00000290: d95c 1dbe edee b93e 5843 2cbf 8ff6 5ebe
000002a0: 54d3 eb3e d6fd 2dbe a5ef 503e 34d0 e73f
000002b0: 10cd 1dbf b90f 103f 318d 6fbf 62fc 15be
000002c0: 08bc 0cbd 4db8 eebd 5afb 80be 9a6a b63f
000002d0: ee57 703e a791 e239 68be 44be 0e8a 84bf
000002e0: 9831 c83f 6133 533e 990b bd3e 6f48 823e
000002f0: ed26 d9be 1857 9c3f 2cfc a33e 9797 e5bd
00000300: ad56 25be 62c3 46bf 482c 8f3e ff84 84be
00000310: 8f03 66bf 930e 9dbe 29d1 b1bc caad b2be
00000320: cde8 39bf 1c98 afbf d311 b33d 59a9 94bf
00000330: 28e1 ca3d 3015 4f3f 6074 793f 6c21 923f
00000340: 03d9 25bf a159 cebe d21e ee3f 89fa 9ebe
00000350: 1923 8f3c ee78 0a3f 90f1 7b3e 3a2a fc3d
00000360: e54e 0fbf 16e4 443e 63b2 423f 4d54 863f
00000370: acaf 76be 3c0d f6bd 2070 ffbd 4f5d b33e
00000380: 6dbf 6a3e f082 03bf 0aa1 03bf 5213 cfbf
00000390: 90e5 89bd 02f5 66be 4f02 dd3e 9918 9e3e
000003a0: 5c72 aa3e 7102 0140 a19b 7a3f 05fe 8f3e
000003b0: 60ff 4abf ca4a 923f c4db 36bf a5c3 223f
000003c0: 922f 21be 4273 9abe 4981 35bf f505 d5be
000003d0: d89e f83d 7325 c7be 2982 e53e f746 913e
000003e0: 569b cc3e 9355 3cbf 21d1 fa3e 87b1 84bf
000003f0: 257b 28be e5c3 0cbe b8c0 723e 7925 2abf

fc_class.bias f4 [2]
0.14836168 -0.022817189
00000000: 20ec 173e 1deb babc
