code/models/lstm_100.pt (torch, 357540 bytes, 8 tensors)

lstm.weight_ih_l0 f4 [512, 34]
-0.2460156 -0.053131778 -0.2533108 -0.02952162 -0.18199477 0.002677325 -0.1985227 0.028141161
-0.17408891 0.007992254 -0.21014318 -0.13438848 -0.2879481 -0.16017075 -0.12654066 -0.131817
-0.23770654 -0.24941547 -0.049095403 -0.22126016 -0.14942394 -0.31434077 -0.07102359 -0.3293755
-0.11307877 -0.2193131 -0.22966248 0.026971804 -0.13370885 -0.015332062 0.089729376 0.070824035
-0.023612421 0.14884235 0.20058335 0.07095079 0.1325551 -0.041335713 0.05933669 0.06320887
0.18848464 -0.052643377 0.094707094 -0.065028965 0.15389262 -0.07693931 0.051755775 -0.0060746283
0.15482129 0.083571576 0.0410221 -0.025359591 0.18717518 0.016779488 -0.002062052 0.022663848
-0.055276316 -0.1654879 0.026268538 -0.22988668 -0.046522763 0.15238057 -0.09780793 0.15150325
0.1396374 0.32077652 0.037842005 0.30597317 0.051371027 -0.042865444 -0.027065583 0.007422669
0.0072000152 -0.11373621 0.03501658 -0.108694606 -0.11960444 -0.12486283 0.10757357 -0.13833503
0.01355119 -0.04951005 0.016715143 -0.04957494 -0.11711312 0.02791084 0.045120887 -0.11665012
-0.06607866 -0.05242118 0.077180974 0.010179966 -0.04673216 0.012946794 0.17423812 -0.07901798
-0.017737748 -0.044140134 0.1190685 -0.08123138 0.09468109 -0.026641203 -0.12793492 -0.1492659
-0.17883518 -0.12513125 -0.25184178 -0.036814783 -0.08787633 -0.16115116 -0.13796273 -0.04098105
-0.13221107 -0.056981944 -0.23047388 -0.20042439 -0.019033508 -0.037206374 -0.10636638 -0.10190407
-0.17982349 0.018199949 -0.13621958 -0.16292045 -0.12269469 -0.110549696 -0.11680185 -0.23551758
-0.15203369 -0.043601215 -0.3497324 -0.1653447 -0.12808067 -0.11276822 -0.3243328 -0.015691705
-0.011787284 -0.116817586 -0.13730215 -0.06708962 -0.06359497 -0.14393015 -0.08765912 -0.17459537
-0.1500586 -0.12526496 -0.13869363 -0.049878515 -0.10819408 -0.12602681 -0.21240611 -0.08756506
-0.15129356 -0.08121147 -0.15149714 0.05659253 -0.21745612 0.03519855 -0.21092233 0.029391032
-0.1326303 -0.0051762923 -0.3003501 -0.08668635 -0.20897809 -0.100249365 -0.386003 -0.13171293
-0.31024835 -0.01492042 -0.16330345 0.009291987 -0.06200914 -0.06489278 -0.16480847 -0.033279687
-0.11712087 -0.23561306 -0.114081234 -0.09073768 -0.27956194 -0.18237917 -0.24324848 -0.15082467
-0.32059756 -0.12888947 -0.20864977 -0.16251469 -0.2637437 -0.083225474 -0.24347799 0.030536145
-0.30473426 -0.3801707 -0.32680956 -0.31751043 -0.49922195 -0.255338 -0.3719034 -0.24707234
-0.42673174 -0.20045213 -0.26567227 -0.10005896 -0.029571392 -0.0968351 -0.039067585 -0.1286093
0.105879724 -0.013739156 0.08307943 -0.18518472 0.0007801093 -0.13692941 0.043403316 -0.18126427
0.12205385 -0.18887632 0.028020568 -0.08795968 0.10296091 -0.14312993 -0.041761495 -0.03852625
-0.028662179 0.002803133 0.012845135 -0.20769984 -0.04593748 -0.28079313 0.025018279 -0.10448332
0.053572744 0.015531452 0.17470741 0.09631695 0.16402152 0.080052644 0.22723813 0.12028572
0.09743883 0.15420888 0.1939696 0.15987316 0.05968231 0.01722323 0.19223745 0.124669515
0.2067004 0.13429442 0.17372616 0.028502751 0.039819185 0.19700162 0.10583709 0.19500123
00000000: 83eb 7bbe b5a0 59bd f4b1 81be 53d7 f1bc
00000010: d65c 3abe 0f76 2f3b 8949 4bbe 4b88 e63c
00000020: 5d44 32be f1f1 023c c62f 57be 229d 09be
00000030: ef6d 93be cd03 24be e093 01be 09fb 06be
00000040: 5869 73be c566 7fbe 4318 49bd 0692 62be
00000050: 9702 19be 46f1 a0be d174 91bd e8a3 a8be
00000060: d895 e7bd 9d93 60be a42c 6bbe f9f3 dc3c
00000070: f9ea 08be 5433 7bbc 09c4 b73d 310c 913d
00000080: d66e c1bc 216a 183e b965 4d3e a64e 913d
00000090: 86bc 073e a34f 29bd 070b 733d a773 813d
000000a0: 1e02 413e 95a0 57bd cbf5 c13d e82d 85bd
000000b0: 0796 1d3e 5b92 9dbd ddfd 533d ad0d c7bb
000000c0: 7989 1e3e 9327 ab3d ca06 283d ebbe cfbc
000000d0: daaa 3f3e 2375 893c 7e23 07bb 89a9 b93c
000000e0: 6b69 62bd a975 29be 1e31 d73c 6a67 6bbe
000000f0: a78e 3ebd a709 1c3e 864f c8bd ab23 1b3e
00000100: 1bfd 0e3e d23c a43e 3800 1b3d 84a8 9c3e
00000110: 6d6a 523d ad93 2fbd a4b8 ddbc dc39 f33b
00000120: 1bee eb3b 88ee e8bd 8c6d 0f3d 479b debd
00000130: 2cf3 f4bd 15b8 ffbd 884f dc3d b3a7 0dbe
00000140: cf05 5e3c 0dcb 4abd 32ee 883c 180f 4bbd
00000150: 01d9 efbd 46a5 e43c aed0 383d 42e6 eebd
00000160: 4054 87bd 97b7 56bd 0f11 9e3d dfc9 263c
00000170: 396a 3fbd ca1e 543c 7a6b 323e 2ed4 a1bd
00000180: c14e 91bc 49cc 34bd 30da f33d a35c a6bd
00000190: 29e8 c13d a73e dabc 5f01 03be 29d9 18be
000001a0: 9220 37be 6822 00be 68f1 80be 19cb 16bd
000001b0: 81f8 b3bd cf04 25be 1a46 0dbe bfdb 27bd
000001c0: 5762 07be e665 69bd 5801 6cbe 0d3c 4dbe
000001d0: 29ec 9bbc b665 18bd 9ed6 d9bd 15b3 d0bd
000001e0: a623 38be 0f18 953c 257d 0bbe 9ed4 26be
000001f0: 5b47 fbbd e167 e2bd cf35 efbd 852b 71be
00000200: b8ae 1bbe 3097 32bd 2010 b3be 1f50 29be
00000210: 9427 03be 06f3 e6bd f30e a6be e48b 80bc
00000220: 741f 41bc 0f3e efbd ef98 0cbe 4866 89bd
00000230: 143e 82bd 6d62 13be a086 b3bd 21c9 32be
00000240: f6a8 19be 7545 00be b405 0ebe 6a4d 4cbd
00000250: dc94 ddbd 2c0d 01be fd80 59be 4f55 b3bd
00000260: b3ec 1abe 3352 a6bd 1122 1bbe 92cd 673d
00000270: d1ac 5ebe 5b2c 103d 06fc 57be 76c5 f03c
00000280: 3dd0 07be e39d a9bb 7dc7 99be 9d88 b1bd
00000290: 5afe 55be 8a4f cdbd 2fa2 c5be c1df 06be
000002a0: dfd8 9ebe c774 74bc 0539 27be 6b3d 183c
000002b0: 4cfd 7dbd 81e6 84bd 8dc3 28be 4850 08bd
000002c0: 11dd efbd 8d44 71be 6ca3 e9bd add4 b9bd
000002d0: be22 8fbe 9bc1 3abe 2116 79be c871 1abe
000002e0: 5d25 a4be 9afb 03be 49a8 55be 406a 26be
000002f0: 6a09 87be 1e72 aabd 4b52 79be f026 fa3c
00000300: 2106 9cbe bca5 c2be 9553 a7be ba90 a2be
00000310: 059a ffbe aabb 82be 1f6a bebe 8800 7dbe
00000320: 957c dabe 5343 4dbe 3206 88be b6eb ccbd
00000330: b43f f2bc 7b51 c6bd 5505 20bd 28b2 03be
00000340: 78d7 d83d 321a 61bc 8c25 aa3d 10a1 3dbe
00000350: 4080 4c3a 3937 0cbe adc7 313d 579d 39be
00000360: 5ef7 f93d cb68 41be 648b e53c 3424 b4bd
00000370: 2bdd d23d a790 12be 1a0e 2bbd b3cd 1dbd
00000380: f2cc eabc c5b4 373b 6774 523c 44af 54be
00000390: f028 3cbd 1ec4 8fbe 22f3 cc3c 5afb d5bd
000003a0: 186f 5b3d a277 7e3c 80e6 323e d241 c53d
000003b0: 42f5 273e a4f2 a33d 1db1 683e 5c58 f63d
000003c0: 028e c73d efe8 1d3e f89f 463e cab5 233e
000003d0: 7075 743d bb17 8d3c e5d9 443e bb52 ff3d
000003e0: 45a9 533e 7a84 093e 45e5 313e 9a7e e93c
000003f0: 7119 233d cbba 493e 1ec1 d83d 67ae 473e

lstm.weight_hh_l0 f4 [512, 128]
0.0375566 0.018741561 0.14157444 -0.087484986 -0.107425906 0.038396146 -0.049828757 0.05748559
-0.1644185 -0.08810305 0.19086136 0.0067062452 -0.038478367 0.14474098 0.17308961 0.060220595
0.12875766 0.042668987 -0.14336675 -0.045816723 -0.07265517 -0.08017338 -0.13801815 0.04130076
0.16798224 0.14665891 0.1711161 -0.18036766 -0.17389229 -0.12008266 -0.0507804 -0.07911613
0.111226425 0.047402594 -0.061827406 -0.17044874 -0.058249656 -0.09236578 -0.16210335 0.054509517
0.116087034 0.065329425 -0.20585418 -0.11334205 0.066887125 0.10217885 0.0012772954 0.15142733
0.12675624 -0.024276601 0.0002463331 0.05218378 0.029798418 0.18570864 -0.113001496 0.09255402
0.045281664 0.08363567 0.19215843 0.16531515 0.065508835 0.21170151 0.11481094 -0.13823304
0.033292815 -0.033783197 -0.18717323 0.04456262 0.035410535 -0.15254855 -0.10655073 0.035734467
0.010107682 0.08335673 -0.02642168 0.005721926 -0.10223633 -0.07482464 0.054234564 0.014707722
0.004078151 0.02543574 0.25515917 -0.07220047 0.15116388 -0.06101822 0.10012806 -0.097772814
-0.02858589 -0.0030374979 0.110247076 -0.03055735 -0.050922673 -0.0031615626 -0.10717508 0.061354995
0.036359463 -0.26817107 0.00796891 -0.024456788 -0.0326632 0.012599599 -0.20271342 -0.105129085
0.15054566 0.073559366 0.020665025 -0.051915713 -0.13814583 0.061051432 -0.07524117 0.05226657
0.32587734 0.08292733 0.032093715 0.11062632 0.061214916 -0.108901545 0.119131826 -0.037311044
0.09327562 0.20863399 0.14010172 -0.050386433 -0.09855538 -0.027067315 0.031066064 -0.20381552
0.12681271 -0.27511758 0.011232715 -0.23237768 -0.36389568 -0.10763431 -0.1358719 -0.18089275
-0.067340545 0.10054 -0.03888027 -0.058441002 0.073774524 0.054902356 0.09927135 0.03704603
0.28962272 0.052244745 0.022737607 -0.27130386 -0.36841068 0.12547551 0.046191003 0.24334116
-0.05204159 -0.06637762 -0.038366504 -0.016550872 -0.24827304 -0.19229649 0.1552299 -0.17229183
-0.09613165 0.15182346 0.05582768 -0.030558027 0.03404516 -0.15512492 0.09803477 -0.061904304
-0.060568176 0.2361128 0.10311576 -0.21826282 -0.13861917 -0.05179278 0.11593149 -0.13611434
-0.29918605 0.017037867 -0.11669375 -0.22096168 -0.06319819 -0.16837196 -0.08966377 0.00935405
0.027893249 0.10014026 -0.13927674 0.13102277 -0.1572109 -0.04606191 0.22594897 0.11754072
-0.12722456 -0.13017857 -0.06266875 -0.0001639638 0.1997945 -0.14356789 0.0698553 -0.01247599
0.11832565 -0.08147771 -0.20404387 -0.07133565 -0.055377327 0.14136286 0.024094263 -0.17006956
-0.14874329 0.07631694 -0.16738531 0.16364333 0.109644726 0.05205709 -0.0072920965 -0.12798344
0.18053682 -0.18219317 -0.058583 0.10219393 0.003408274 0.17655051 0.0813127 -0.04969742
-0.1632995 -0.21999969 0.16028385 -0.07206362 -0.21633343 0.16668305 0.026299652 -0.06270695
-0.013080523 -0.0665391 -0.09104403 -0.10811629 -0.03233952 -0.044676546 -0.13923481 0.032661926
0.005383057 -0.013810644 0.07859016 0.025889486 -0.08979589 0.04062963 0.010915419 0.12786973
0.2333404 0.08584036 -0.13338083 0.1874485 0.103103645 -0.22697698 -0.071898706 -0.0822253
00000000: f3d4 193d e787 993c e4f8 103e 542b b3bd
00000010: 1d02 dcbd 4745 1d3d 3d19 4cbd 0376 6b3d
00000020: 535d 28be 5f6f b4bd 2971 433e 10c0 db3b
00000030: 7e9b 1dbd fb36 143e 673e 313e dfa9 763d
00000040: 0cd9 033e adc5 2e3d bcce 12be 51aa 3bbd
00000050: 3ccc 94bd f131 a4bd a154 0dbe fc2a 293d
00000060: 8903 2c3e c12d 163e 0f39 2f3e 4db2 38be
00000070: d210 32be e6ed f5bd 1cff 4fbd a307 a2bd
00000080: aeca e33d 3929 423d bc3e 7dbd 1d8a 2ebe
00000090: 3197 6ebd 452a bdbd 6cfe 25be 5f45 5f3d
000000a0: 0abf ed3d 6fcb 853d 70cb 52be e01f e8bd
000000b0: 1efc 883d 2543 d13d ec6a a73a c40f 1b3e
000000c0: 63cc 013e b9df c6bc 4526 8139 a9be 553d
000000d0: d01b f43c 682a 3e3e 546d e7bd f68c bd3d
000000e0: 4479 393d 2e49 ab3d 2ec5 443e 6048 293e
000000f0: 7f29 863d 48c8 583e 0022 eb3d f68c 0dbe
00000100: 0c5e 083d 4060 0abd 57aa 3fbe 4b87 363d
00000110: a30a 113d b035 1cbe 4537 dabd 4e5e 123d
00000120: b19a 253c efb6 aa3d 4772 d8bc ff7e bb3b
00000130: 4861 d1bd a93d 99bd 1025 5e3d a8f8 703c
00000140: 03a2 853b 9d5e d03c 39a4 823e d7dd 93bd
00000150: b4ca 1a3e 3eee 79bd f10f cd3d 1d3d c8bd
00000160: f52c eabc c210 47bb 38c9 e13d 6853 fabc
00000170: 4b94 50bd 3832 4fbb 9c7e dbbd 604f 7b3d
00000180: a9ed 143d b84d 89be 0890 023c 9a59 c8bc
00000190: d9c9 05bd 8c6e 4e3c 1b94 4fbe eb4d d7bd
000001a0: a428 1a3e 4ba6 963d b349 a93c 92a5 54bd
000001b0: 1a76 0dbe 1111 7a3d 0b18 9abd 7915 563d
000001c0: 65d9 a63e ced5 a93d b374 033d 0d90 e23d
000001d0: 7ebc 7a3d c607 dfbd 63fb f33d 77d3 18bd
000001e0: 4a07 bf3d 26a4 553e d376 0f3e 0162 4ebd
000001f0: 67d7 c9bd 46bc ddbc 427e fe3c 04b5 50be
00000200: 31db 013e 36dc 8cbe 6c09 383c 6af4 6dbe
00000210: 8950 babe 616f dcbd 0122 0bbe f33b 39be
00000220: d7e9 89bd eae7 cd3d eb40 1fbd d55f 6fbd
00000230: 1917 973d 4be1 603d c74e cb3d 94bd 173d
00000240: 6e49 943e 96fe 553d 3844 ba3c 57e8 8abe
00000250: 53a0 bcbe a77c 003e c732 3d3d 6d2e 793e
00000260: 9029 55bd fdf0 87bd 3226 1dbd b295 87bc
00000270: 4a3b 7ebe 5fe9 44be 96f4 1e3e 456d 30be
00000280: ace0 c4bd 9c77 1b3e 91ab 643d d454 fabc
00000290: f072 0b3d 11d9 1ebe 74c6 c83d 5e8f 7dbd
000002a0: 5616 78bd 8ec7 713e 5b2e d33d 4a80 5fbe
000002b0: 2ff2 0dbe ab24 54bd 7d6d ed3d 8f61 0bbe
000002c0: ea2e 99be ff92 8b3c 22fd eebd c743 62be
000002d0: 0d6e 81bd b369 2cbe a3a1 b7bd bb41 193c
000002e0: 6280 e43c 5616 cd3d 909e 0ebe d52a 063e
000002f0: e5fb 20be 6aab 3cbd 2b5f 673e 30b9 f03d
00000300: 2847 02be 884d 05be 7958 80bd b3ed 2bb9
00000310: ee96 4c3e 7603 13be 4c10 8f3d 1868 4cbc
00000320: b854 f23d c9dd a6bd e0f0 50be 6d18 92bd
00000330: 56d3 62bd 6dc1 103e 5561 c53c b726 2ebe
00000340: 2950 18be 0e4c 9c3d 0e67 2bbe 1e92 273e
00000350: 6a8d e03d d139 553d 8af2 eebb 170e 03be
00000360: a5de 383e d990 3abe baf4 6fbd 0d4b d13d
00000370: 595d 5f3b a8c9 343e 4687 a63d 868f 4bbd
00000380: fc37 27be 9947 61be 7321 243e 1796 93bd
00000390: 8386 5dbe f6ae 2a3e 5e72 d73c 806c 80bd
000003a0: b14f 56bc a745 88bd 4b75 babd 136c ddbd
000003b0: 7276 04bd c1fe 36bd 9293 0ebe 83c8 053d
000003c0: 5b64 b03b 0a46 62bc e1f3 a03d 3016 d43c
000003d0: e8e6 b7bd 416b 263d 96d6 323c 48f0 023e
000003e0: c9f0 6e3e 12cd af3d fc94 08be 80f2 3f3e
000003f0: 0128 d33d a76c 68be a13f 93bd bd65 a8bd

lstm.bias_ih_l0 f4 [512]
0.08288372 0.07650257 -0.14390813 0.01885773 0.05573934 -0.20550357 0.11353029 0.14307006
0.2168251 0.023151567 0.05505086 0.028629163 0.21804106 -0.09252275 -0.07167077 -0.102697454
0.08913898 -0.043201838 -0.10426798 0.098595195 0.05919272 0.11065042 -0.20575926 -0.08765196
0.06273568 0.022086833 0.014627851 0.0012918345 0.12998787 0.15275462 -0.16207477 0.13674955
0.23735459 0.03214397 -0.049760696 -0.029219123 -0.11980459 0.08041195 -0.17765816 -0.081029736
-0.056925103 0.11898718 0.16038218 -0.1963196 0.13160941 -0.037608843 0.028801588 0.12752353
-0.06284806 -0.04276654 0.043843027 0.07965376 -0.056246478 0.09470803 -0.17213602 -0.105067566
-0.024869917 -0.21160442 -0.07238134 0.068639204 -0.09853629 -0.09253751 0.18021686 0.109374136
-0.09412188 -0.1156389 -0.0774753 -0.012591025 0.03684697 0.15538721 -0.05839834 0.05304685
-0.06433102 0.08330302 0.1022028 -0.016514415 -0.17215896 0.23333599 0.012885637 -0.037044223
0.19092387 0.104511395 -0.047266185 0.11377191 0.011837476 0.015756432 -0.07391181 0.021962442
-0.18849103 0.108702056 0.048880268 0.00042195397 0.018171547 0.04274335 0.024386717 -0.1723895
-0.024571346 0.034790862 0.12722221 0.009997771 -0.09994026 -0.13268735 0.0789791 0.015662303
0.041299626 -0.012059897 0.056130316 0.06357954 0.042176202 -0.10653714 -0.052406486 -0.13459513
-0.008497741 0.008548966 -0.115426935 0.09516795 -0.011000999 0.18092215 0.1254807 0.07225847
0.09565095 -0.003980973 -0.06725292 -0.039292257 0.084587775 -0.03169356 -0.038066924 0.018315885
0.006441148 -0.051140647 -0.21892668 -0.15942007 0.22801134 0.23201643 0.117917195 -0.04696448
-0.15620561 0.16384052 0.023749659 0.08909903 0.071638405 -0.1586093 0.22308996 -0.07361356
0.072874464 -0.07159586 -0.17759396 0.0828754 0.0012118148 -0.029955674 -0.14249273 -0.06194376
-0.18827322 0.0018986488 -0.022582008 0.026303727 -0.024076374 -0.08827936 -0.16990232 -0.0296283
0.119234405 -0.08605108 -0.10282962 -0.16967046 -0.08940984 -0.054160584 -0.03420686 -0.019395018
-0.08264213 0.026527954 0.07170173 -0.12035078 0.13792413 -0.10956232 0.003595351 -0.07382125
0.049122762 0.21532933 -0.03310773 -0.018710293 -0.044177596 0.01527935 -0.24415958 -0.045620374
-0.19204359 -0.09902556 0.12563653 -0.014274701 -0.116170615 0.07427515 0.0854605 -0.30196086
0.15086877 0.018739104 0.08970627 -0.22679704 -0.095733844 0.059673253 -0.16485122 0.02892881
-0.0050375815 0.02601413 0.031632595 0.0790475 -0.012929925 -0.091503516 0.1257228 -0.057960127
-0.02746319 0.1327804 -0.11715237 0.09813938 0.079703264 0.12777077 -0.11669484 -0.09619569
0.09416576 -0.08488105 -0.15722576 -0.029782128 -0.11508727 0.022275627 0.007974267 -0.13810985
-0.032626245 0.015209904 0.0125638135 0.20647338 0.00462904 0.012227676 -0.22840953 0.08649482
-0.13438337 -0.03651202 0.045259476 -0.10469492 -0.06995959 -0.07141707 0.03057167 -0.016319983
0.06434291 0.075740784 0.0038956893 0.04761521 -0.12977432 0.12340123 -0.11345713 -0.061307542
-0.08901627 0.06589 -0.10608311 -0.1345641 -0.18047243 0.0014385264 -0.2513056 -0.002393557
00000000: f1be a93d 61ad 9c3d a75c 13be 877b 9a3c
00000010: ef4e 643d 876f 52be 9282 e83d f580 123e
00000020: 6607 5e3e 5ba8 bd3c 037d 613d b587 ea3c
00000030: 2846 5f3e 917c bdbd 20c8 92bd 0b53 d2bd
00000040: 7f8e b63d 69f4 30bd 738a d5bd 47ec c93d
00000050: 1174 723d b09c e23d 8eb2 52be df82 b3bd
00000060: 907b 803d 72ef b43c a7a9 6f3c c652 a93a
00000070: 8a1b 053e b56b 1c3e eef6 25be 1308 0c3e
00000080: 150d 733e 65a9 033d dfd1 4bbd f15c efbc
00000090: 1c5c f5bd 05af a43d 05ec 35be ebf2 a5bd
000000a0: 4c2a 69bd 8daf f33d 3a3b 243e 0108 49be
000000b0: 9ec4 063e bb0b 1abd 4ff1 eb3c 8795 023e
000000c0: 7cb6 80bd f82b 2fbd bf94 333d 8321 a33d
000000d0: b562 66bd 49f6 c13d 6d44 30be aa2d d7bd
000000e0: ffbb cbbc d4ae 58be ab3c 94bd b692 8c3d
000000f0: 65cd c9bd 4e84 bdbd c58a 383e 8cff df3d
00000100: f9c2 c0bd 16d4 ecbd 5fab 9ebd 964a 4ebc
00000110: d9ec 163d d31d 1f3e 1933 6fbd a747 593d
00000120: fbbf 83bd c69a aa3d b44f d13d 3d49 87bc
00000130: 704a 30be a1ef 6e3e 471e 533c afbb 17bd
00000140: 8c81 433e 120a d63d 309a 41bd 3f01 e93d
00000150: f9f1 413c a213 813c 135f 97bd 94ea b33c
00000160: cb03 41be 2f9f de3d ad36 483d b439 dd39
00000170: 7fdc 943c a713 2f3d a7c6 c73c e086 30be
00000180: d949 c9bc dd80 0e3d 8a46 023e b1cd 233c
00000190: 7bad ccbd 31df 07be cbbf a13d 3b4e 803c
000001a0: cc29 293d e096 45bc e7e8 653d fd35 823d
000001b0: f4c0 2c3d 2530 dabd 2fa8 56bd 4ed3 09be
000001c0: 1c3a 0bbc f610 0c3c f564 ecbd 6ae7 c23d
000001d0: 893d 34bc a843 393e 037e 003e 40fc 933d
000001e0: a5e4 c33d d272 82bb e6bb 89bd ebf0 20bd
000001f0: 5b3c ad3d 1bd1 01bd 10ec 1bbd 320b 963c
00000200: 4410 d33b db78 51bd 512e 60be 043f 23be
00000210: ce7b 693e b795 6d3e 927e f13d d45d 40bd
00000220: 5df4 1fbe cfc5 273e a58e c23c 8d79 b63d
00000230: 28b7 923d 7a6a 22be b271 643e b5c2 96bd
00000240: 353f 953d daa0 92bd 31db 35be 94ba a93d
00000250: c2d5 9e3a 9a65 f5bc 9de9 11be bdb8 7dbd
00000260: b2ca 40be 15dc f83a e7fd b8bc ea7a d73c
00000270: d13b c5bc cfcb b4bd e0fa 2dbe 0cb7 f2bc
00000280: 2b31 f43d 8c3b b0bd 5698 d2bd 18be 2dbe
00000290: 821c b7bd 7dd7 5dbd 7e1c 0cbd 4de2 9ebc
000002a0: 4740 a9bd 2751 d93c 5bd8 923d 787a f6bd
000002b0: fc3b 0d3e 3662 e0bd fb9f 6b3b 982f 97bd
000002c0: f334 493d 4b7f 5c3e f99b 07bd 5446 99bc
000002d0: 91f3 34bd 3d56 7a3c f804 7abe 6edc 3abd
000002e0: 13a7 44be eacd cabd dda6 003e 6fe0 69bc
000002f0: dcea edbd 921d 983d ea05 af3d 9d9a 9abe
00000300: 587d 1a3e c082 993c ecb7 b73d 7c3d 68be
00000310: 1b10 c4bd f16b 743d c2ce 28be 1dfc ec3c
00000320: 4c12 a5bb 961b d53c 2e91 013d a8e3 a13d
00000330: 09d8 53bc 3266 bbbd 7abd 003e 9967 6dbd
00000340: 7cfa e0bc 96f7 073e 95ed efbd 4dfd c83d
00000350: 773b a33d 57d6 023e b4fd eebd 3f02 c5bd
00000360: fad9 c03d 1ed6 adbd caff 20be a6f9 f3bc
00000370: e0b2 ebbd 607b b63c 80a6 023c ab6c 0dbe
00000380: 19a3 05bd f632 793c 74d8 4d3c c26d 533e
00000390: 34af 973b 9756 483c 30e4 69be 3224 b13d
000003a0: cb9b 09be a18d 15bd 0062 393d 4a6a d6bd
000003b0: f946 8fbd 1d43 92bd 7071 fa3c 7cb1 85bc
000003c0: 37c6 833d fc1d 9b3d d24e 7f3b 2b08 433d
000003d0: 8fe3 04be c9b9 fc3d 365c e8bd 9e1d 7bbd
000003e0: 2a4e b6bd 56f1 863d 1a42 d9bd 2ccb 09be
000003f0: c4cd 38be f08c bc3a 21ab 80be 39dd 1cbb

lstm.bias_hh_l0 f4 [512]
0.077392526 0.18144213 -0.24809389 -0.09183279 0.033936422 -0.09508995 0.009473002 0.19224697
0.06488851 -0.0165866 -0.05634911 0.008490296 0.1439366 -0.033160247 0.05257794 -0.18082786
0.14214326 0.030332692 -0.093115054 0.07397154 0.13613796 0.093645595 -0.071152225 0.08055643
0.012476232 0.105256535 0.026939688 0.0042855693 0.078806624 0.16923924 -0.15259728 0.05004859
0.10433029 0.020934524 0.03839267 -0.1257064 0.0058021024 -0.015926559 -0.15958935 0.011840498
0.042232107 0.021611003 0.06504022 -0.07258452 0.16145201 -0.17186129 0.113467366 0.11180098
-0.020283347 -0.032712627 0.20316476 0.011240557 -0.054791123 0.104140244 -0.07436026 -0.038437832
-0.09678062 -0.13377754 -0.099178776 0.09420379 0.04687706 -0.040633716 0.18963224 0.033181846
-0.13369876 -0.0958078 -0.059684202 0.027888399 0.013318 0.1414277 0.01942587 -0.03938989
-0.067659155 -0.08360996 0.17731154 0.09635109 -0.012341712 0.23619728 0.03295879 -0.08624933
0.27992883 0.1536158 -0.06771221 0.08231043 0.032806765 0.054076467 -0.07241872 0.0144935
-0.11346506 0.10884397 0.0059483675 0.05048142 0.008008359 -0.030370275 -0.076129265 -0.03641772
0.02878559 0.11840183 0.049597062 0.029052611 -0.014153507 -0.08474709 -0.0009453981 -0.0987488
0.11698992 -0.06017545 0.06774719 -0.03655545 -0.029510204 -0.062728874 -0.10008611 -0.13274643
-0.05229528 0.041843846 -0.107811466 -0.035035364 -0.12392116 0.07661303 0.09337556 0.072519556
0.00068020873 0.09540658 -0.07559079 -0.13238245 -0.05857262 0.08094632 0.025340026 0.12309357
-0.08809477 0.03120655 -0.13310914 -0.111759774 0.21078771 0.1247623 0.16196512 -0.009326836
-0.055767287 0.10289121 -0.08016085 -0.0069631357 0.063563146 -0.16742979 0.33844483 -0.09223312
0.090192474 0.07436643 -0.16004722 -0.054132234 -0.079920664 0.018704806 -0.13683514 0.046352703
-0.2678073 -0.09667399 0.024086233 -0.04669231 0.025018217 0.02637605 -0.08984323 -0.00057037413
0.12229097 -0.1397146 -0.07733878 -0.07438837 -0.22856452 -0.08748743 -0.11020739 0.06537006
-0.11524095 0.026319033 0.062482487 -0.18269452 0.034607757 -0.06793068 -0.0018534656 0.05371701
-0.006780018 0.12118519 -0.02691275 -0.022775643 0.014833946 0.014171283 -0.11910084 0.06595295
-0.12773675 -0.14998993 0.069730006 0.01668424 -0.17353415 0.05100006 -0.031362113 -0.18678269
0.18093513 0.045120545 0.028633704 -0.14964083 -0.068479344 0.036339328 -0.16267802 0.08610557
-0.07425608 0.027029814 0.107857324 0.020655133 -0.09856295 -0.08180646 -0.02422834 0.01024416
0.08347815 0.04392367 0.020060496 0.04893322 0.14159799 0.040922157 -0.075099394 -0.050497424
0.014867314 -0.060051862 -0.06624568 -0.062885545 0.03732862 0.07145383 -0.16171218 -0.16174333
0.051979873 0.0507019 0.044257343 0.18805747 -0.03848648 -0.08971068 -0.0724319 0.0625527
-0.06630686 -0.08885769 0.029932585 0.0038860063 0.07144778 -0.17656474 -0.06751533 -0.04519276
0.028695973 0.07859657 -0.084883206 0.04990074 -0.21458805 0.118682995 -0.23144604 0.004122098
0.06425094 -0.0017587781 -0.18823117 -0.039492182 -0.03196639 0.024427285 -0.110674955 -0.11747764
00000000: f97f 9e3d f7cb 393e 530c 7ebe d412 bcbd
00000010: eb00 0b3d 85be c2bd a634 1b3c 64dc 443e
00000020: 44e4 843d 9fe0 87bc 53ce 66bd e21a 0b3c
00000030: 1e64 133e 0ad3 07bd f75b 573d f02a 39be
00000040: 018e 113e 447c f83c 1bb3 bebd 647e 973d
00000050: c067 0b3e 43c9 bf3d 42b8 91bd c5fa a43d
00000060: 1c69 4c3c bd90 d73d 9fb0 dc3c f66d 8c3b
00000070: 5e65 a13d 0d4d 2d3e 7642 1cbe c0ff 4c3d
00000080: 1eab d53d e17e ab3c a241 1d3d 2eb9 00be
00000090: 901f be3b 6a78 82bc 646b 23be a6fe 413c
000000a0: 93fb 2c3d 8f09 b13c cf33 853d 31a7 94bd
000000b0: ad53 253e 68fc 2fbe 9461 e83d eaf7 e43d
000000c0: 4329 a6bc adfd 05bd 6c0a 503e 502a 383c
000000d0: a86c 60bd 7b47 d53d 314a 98bd fd70 1dbd
000000e0: eb34 c6bd fbfc 08be 3e1e cbbd ebed c03d
000000f0: 2902 403d 8a6f 26bd f42e 423e b0e9 073d
00000100: 54e8 08be e136 c4bd 6c77 74bd 3676 e43c
00000110: be33 5a3c 6cd2 103e 0123 9f3c 4b57 21bd
00000120: e290 8abd b33b abbd 2891 353e b853 c53d
00000130: e434 4abc b3dd 713e ccff 063d 7da3 b0bd
00000140: d552 8f3e 764d 1d3e b3ac 8abd 5f92 a83d
00000150: 6360 063d 497f 5d3d 4450 94bd 2576 6d3c
00000160: 5f60 e8bd 96e9 de3d 86ea c23b 9bc5 4e3d
00000170: 7e35 033c 15cb f8bc a9e9 9bbd bf2a 15bd
00000180: c2cf eb3c a97c f23d 4a26 4b3d beff ed3c
00000190: 1ce4 67bc e28f adbd 98d4 77ba d03c cabd
000001a0: 6998 ef3d 887a 76bd 0abf 8a3d 2bbb 15bd
000001b0: 62bf f1bc ff77 80bd f2f9 ccbd aeee 07be
000001c0: 9333 56bd 7464 2b3d 42cc dcbd 3e81 0fbd
000001d0: 61ca fdbd 4be7 9c3d b03b bf3d 2285 943d
000001e0: 0950 323a 8664 c33d 58cf 9abd 448f 07be
000001f0: d8e9 6fbd 2fc7 a53d e395 cf3c 7b18 fc3d
00000200: 086b b4bd e1a4 ff3c c34d 08be 4fe2 e4bd
00000210: bcd8 573e 6083 ff3d 2fda 253e 96cf 18bc
00000220: 3d6c 64bd a0b8 d23d 5f2b a4bd 042b e4bb
00000230: 652d 823d b772 2bbe a448 ad3e b8e4 bcbd
00000240: d5b6 b83d 6d4d 983d 6be3 23be c3b9 5dbd
00000250: 72ad a3bd d23a 993c 831e 0cbe 55dc 3d3d
00000260: 0a1e 89be 03fd c5bd 7e50 c53c 7040 3fbd
00000270: 01f3 cc3c 9612 d83c baff b7bd 2985 15ba
00000280: b073 fa3d 5811 0fbe cb63 9ebd ee58 98bd
00000290: d10c 6abe 9c2c b3bd 69b4 e1bd bde0 853d
000002a0: 7203 ecbd 039b d73c a3ed 7f3d 4614 3bbe
000002b0: ddc0 0d3d 3e1f 8bbd fcef f2ba 5e06 5c3d
000002c0: ea2a debb f12f f83d 2178 dcbc fc93 babc
000002d0: 140a 733c ab2e 683c 24eb f3bd 5712 873d
000002e0: 6ccd 02be f696 19be 9bce 8e3d 63ad 883c
000002f0: f0b2 31be 70e5 503d 8f75 00bd f643 3fbe
00000300: 0f47 393e 52d0 383d 3b91 ea3c 723b 19be
00000310: e63e 8cbd 8cd8 143d 1195 26be 1e58 b03d
00000320: 9213 98bd a16d dd3c 4de4 dc3d f434 a93c
00000330: 5fdb c9bd 258a a7bd 837a c6bc 1fd7 273c
00000340: 98f6 aa3d 4ee9 333d e955 a43c 336e 483d
00000350: 10ff 103e fe9d 273d b6cd 99bd 63d6 4ebd
00000360: 0996 733c f1f8 75bd d1ab 87bd 23ca 80bd
00000370: e5e5 183d 6356 923d e197 25be 0ba0 25be
00000380: d9e8 543d ccac 4f3d 3047 353d 2392 403e
00000390: 00a4 1dbd 3cba b7bd 2d57 94bd a11b 803d
000003a0: e4cb 87bd 05fb b5bd 2e35 f53c 5eac 7e3b
000003b0: 3753 923d 63cd 34be 7a45 8abd 0b1c 39bd
000003c0: d113 eb3c 3df7 a03d 3fd7 adbd b864 4c3d
000003d0: f8bc 5bbe 1210 f33d 3100 6dbe aa12 873b
000003e0: ff95 833d cd86 e6ba acbf 40be 8ec2 21bd
000003f0: 30ef 02bd bb1b c83c 8da9 e2bd 1e98 f0bd

fc_forecast.weight f4 [34, 128]
0.12454456 0.0060418053 -0.096064 0.36952057 0.0134006115 -0.07395091 0.028140737 0.041073974
0.053875376 -0.025334863 -0.048721742 0.007190303 0.002339777 -0.09802136 0.06775749 -0.093400516
-0.078076735 -0.25868973 0.26112595 0.07031948 0.2528668 0.13003594 0.1975621 0.046617348
-0.036311794 0.033141196 -0.049429093 0.1477148 0.06309297 0.08990656 0.18690646 -0.15947418
0.016890414 -0.07941179 0.051019784 -0.094227225 0.024853125 -0.03457292 -0.05851844 -0.060557634
-0.204285 0.12165886 -0.047863167 0.14705436 -0.0714364 -0.06627388 0.07541449 0.022339383
0.011789342 -0.08396362 0.029219987 0.03141863 -0.0867718 0.016818153 -0.13488321 0.016672488
0.2774993 0.17814946 -0.07038022 -0.11993193 -0.051888157 0.15404378 0.022108579 0.08964425
-0.023962209 0.02684295 0.17783524 -0.11984539 -0.08371936 0.039949708 0.10229826 -0.31606215
0.1420867 -0.10199996 0.00783783 -0.096959226 -0.03656952 0.07382483 -0.032536637 -0.014007864
-0.34110147 0.10366398 -0.0346876 0.012430014 -0.13272026 0.031633444 0.04555173 0.1321099
0.057163972 0.05016178 -0.052232716 -0.09260932 -0.018196238 0.09979912 0.2666311 -0.20171896
0.026775965 0.15669586 0.20378163 -0.20039493 0.07900156 -0.10106003 0.12791646 -0.05287174
-0.11135459 -0.0159279 -0.25445718 0.101183504 0.1805969 0.051414598 -0.18998098 -0.05120676
0.16599698 -0.080880605 0.20241703 -0.050651047 0.45503628 0.14364304 -0.14591046 -0.044564415
0.1473353 -0.30240077 -0.26405722 -0.074247554 -0.024800217 -0.3496189 0.11919684 0.18383099
0.14918494 0.100255124 0.017179903 0.3770957 -0.01690949 0.008535666 0.06013468 0.06459113
0.12467569 0.0133360475 0.051898636 0.04817766 -0.11328125 -0.089546606 0.102042414 -0.30385184
-0.21340898 -0.06607641 0.09497682 -0.013436124 0.16476457 0.1438938 0.047762055 0.38132894
-0.1335344 -0.06815273 -0.074856885 -0.14009959 0.018159883 -0.0030149373 0.36850786 -0.15235388
-0.030288178 -0.16071457 -0.004092412 -0.21328513 -0.2724965 0.0049089342 -0.17363986 0.015717365
-0.38112882 0.19002983 -0.14748284 -0.0025403954 0.024580315 -0.08176313 0.076507665 -0.073835105
-0.04836319 -0.05720656 0.04676124 0.09246633 -0.13341607 0.024325412 0.37010157 0.023477817
0.076257765 -0.18386129 -0.0060339533 0.0100317495 -0.16583873 0.11239053 0.03764316 -0.15130799
0.009373043 0.10204815 0.3362898 -0.19573595 -0.1041835 0.14705892 0.03578649 -0.2878002
-0.043856647 -0.08846105 -0.028657446 -0.10248222 -0.0071922876 0.04431654 -0.051329084 -0.04260634
-0.36065698 0.06311143 -0.07170198 -0.004182495 -0.018066956 -0.062310252 0.1159244 0.15825826
0.085112646 0.15097007 -0.19096203 -0.3017927 -0.06410116 0.28833213 -0.44257897 -0.3819512
0.056234207 0.1495886 0.19867854 -0.16763113 0.0634008 0.080338314 -0.14463572 0.037061945
0.2850586 0.047805194 0.028268244 -0.05663974 0.119034916 0.025921684 0.199045 -0.052377626
0.08743456 -0.29054764 0.05203293 0.063675635 0.26063803 0.3128466 -0.17057604 -0.07374359
-0.074596696 0.20533618 -0.23298764 0.20978366 -0.031585213 0.087215394 0.09388956 0.24920659
00000000: 3811 ff3d 56fa c53b 34bd c4bd cd31 bd3e
00000010: 3d8e 5b3c 9373 97bd 6787 e63c 2f3d 283d
00000020: 6dac 5c3d 0f8b cfbc 7390 47bd a29c eb3b
00000030: f256 193b 6cbf c8bd 70c4 8a3d c548 bfbd
00000040: b2e6 9fbd fb72 84be 4db2 853e a903 903d
00000050: c277 813e 2428 053e b84d 4a3e d5f1 3e3d
00000060: adbb 14bd 10bf 073d 2976 4abd 8c42 173e
00000070: e336 813d ee20 b83d 6864 3f3e 334d 23be
00000080: c45d 8a3c a6a2 a2bd 1ffa 503d 34fa c0bd
00000090: c898 cb3c 569c 0dbd 08b1 6fbd 480b 78bd
000000a0: 1630 51be 4828 f93d 2b0c 44bd 6b95 163e
000000b0: 3f4d 92bd 9aba 87bd ea72 9a3d 1501 b73c
000000c0: 1628 413c 1ef5 abbd c15e ef3c d2b0 003d
000000d0: 6ab5 b1bd 39c6 893c d31e 0abe be94 883c
000000e0: 6314 8e3e d06c 363e 8123 90bd df9e f5bd
000000f0: ad88 54bd a7bd 1d3e 0d1d b53c 6897 b73d
00000100: 654c c4bc bfe5 db3c 711a 363e 8071 f5bd
00000110: 0e75 abbd 4ea2 233d c081 d13d e6d2 a1be
00000120: 2d7f 113e 5be5 d0bd 3e6a 003c 8f92 c6bd
00000130: ecc9 15bd 7931 973d 2345 05bd 3d81 65bc
00000140: daa4 aebe c84d d43d 9614 0ebd 42a7 4b3c
00000150: d2e7 07be 1292 013d 7394 3a3d d147 073e
00000160: c524 6a3d 7076 4d3d f9f1 55bd f5a9 bdbd
00000170: 4710 95bc 7b63 cc3d df83 883e 6a8f 4ebe
00000180: 4559 db3c e174 203e 22ac 503e 5434 4dbe
00000190: 92cb a13d 90f8 cebd 88fc 023e 0a90 58bd
000001a0: e00d e4bd 3a7b 82bc 3648 82be 4c39 cf3d
000001b0: 65ee 383e 1d98 523d 608a 42be 2ebe 51bd
000001c0: 1dfb 293e bba4 a5bd 6946 4f3e 7977 4fbd
000001d0: 84fa e83e 2917 133e 8d69 15be 2d89 36bd
000001e0: 11df 163e 46d4 9abe 8232 87be 1a0f 98bd
000001f0: d329 cbbc 4001 b3be 791d f43d 313e 3c3e
00000200: f0c3 183e 8f52 cd3d debc 8c3c b012 c13e
00000210: c585 8abc 2ed9 0b3c c84f 763d 5b48 843d
00000220: f855 ff3d 707f 5a3c aa93 543d f055 453d
00000230: 0000 e8bd 3664 b7bd 9dfb d03d 7892 9bbe
00000240: e287 5abe 1253 87bd 3583 c23d 3023 5cbc
00000250: 0bb8 283e e558 133e 25a2 433d 8c3d c33e
00000260: 3ebd 08be a993 8bbd 914e 99bd 4476 0fbe
00000270: 09c4 943c 4196 45bb 10ad bc3e a802 1cbe
00000280: ea1e f8bc 5c92 24be a419 86bb 6b67 5abe
00000290: a984 8bbe 20db a03b a6ce 31be b4c1 803c
000002a0: 5123 c3be 2e97 423e be05 17be c37c 26bb
000002b0: a85c c93c 6e73 a7bd 0db0 9c3d dc36 97bd
000002c0: 7b18 46bd 6d51 6abd b788 3f3d fd5e bd3d
000002d0: 399e 08be 1646 c73c f47d bd3e 8d54 c03c
000002e0: 082d 9c3d 2246 3cbe 78b8 c5bb 355c 243c
000002f0: a1d1 29be 022d e63d b72f 1a3d 7bf0 1abe
00000300: 6491 193c 9ffe d03d 2d2e ac3e 016f 48be
00000310: 295e d5bd 9d96 163e db94 123d 8c5a 93be
00000320: 07a3 33bd 112b b5bd 05c3 eabc 33e2 d1bd
00000330: 48ad ebbb 4385 353d 723e 52bd fc83 2ebd
00000340: 08a8 b8be 9140 813d 7dd8 92bd 500d 89bb
00000350: 2701 94bc 0939 7fbd c669 ed3d 740e 223e
00000360: 8a4f ae3d e697 1a3e 8d8b 43be 9384 9abe
00000370: 7847 83bd 45a0 933e b699 e2be 1c8f c3be
00000380: d755 663d c12d 193e 6372 4b3e 7fa7 2bbe
00000390: 47d8 813d 6a88 a43d 631b 14be 44ce 173d
000003a0: 33f3 913e 61cf 433d ce92 e73c 12ff 67bd
000003b0: 94c8 f33d b659 d43c 74d2 4b3e ec89 56bd
000003c0: e410 b33d a9c2 94be 7b20 553d 5f68 823d
000003d0: 5972 853e 6e2d a03e 7cab 2ebe e106 97bd
000003e0: 27c6 98bd a643 523e 5094 6ebe 87d1 563e
000003f0: 7f5f 01bd fc9d b23d 2b49 c03d 0330 7f3e

fc_forecast.bias f4 [34]
0.3983829 0.33230984 0.39685866 0.32054207 0.3909535 0.32584485 0.38940847 0.32329673
0.3833897 0.3194439 0.40160277 0.34914568 0.3641 0.3696615 0.41351885 0.4307078
0.3575676 0.45934197 0.43444166 0.48337445 0.3687053 0.50938565 0.39561284 0.4589778
0.3806 0.45901105 0.41510206 0.57545847 0.40469825 0.58331907 0.41958538 0.6476199
0.39164525 0.65933436
00000000: d8f8 cb3e 8424 aa3e 0f31 cb3e 171e a43e
00000010: 0f2b c83e 23d5 a63e 8c60 c73e 2687 a53e
00000020: a84b c43e 278e a33e e19e cd3e 39c3 b23e
00000030: 516b ba3e 4644 bd3e beb8 d33e bc85 dc3e
00000040: 1a13 b73e df2e eb3e 236f de3e db7c f73e
00000050: f1c6 bc3e 1967 023f c48d ca3e 23ff ea3e
00000060: 01de c23e 7f03 eb3e 4288 d43e 3f51 133f
00000070: 9c34 cf3e 6654 153f e5d3 d63e 6bca 253f
00000080: ba85 c83e 23ca 283f

fc_class.weight f4 [2, 128]
0.50772184 -0.39240947 -0.0738619 -0.051254384 -0.43054336 0.035282224 -0.383368 -0.24134749
1.1705611 0.18532827 -0.66042095 -0.5308644 0.48316744 -0.5744376 -0.062269878 -0.19370288
0.059339777 0.38074812 0.42661753 -0.30423957 -0.3303838 0.500061 -0.0022456453 0.36131254
-0.878776 -0.2695679 -0.7957879 0.376952 -0.14295228 -0.12836955 0.11969291 -0.17192164
-0.8059548 -0.2448645 0.27788535 0.565212 -0.16424854 -0.2583417 0.20529817 -0.058208514
0.6093613 0.35525322 0.6037284 0.010467458 -1.0907832 0.39235443 0.6304585 0.16116433
-0.47889432 0.13969135 -0.11694318 0.8083305 0.14141431 -0.74780023 -0.5008852 -0.20487554
-0.4145482 -0.37770975 -0.049909513 0.2973454 -0.33512366 0.16242912 0.32035658 0.79454696
-0.18705246 0.09841576 0.23930207 0.75590473 0.13499252 -0.53014696 1.0212368 -0.09483329
0.054482564 0.23731655 -0.42787462 -0.3093499 0.21962206 0.33069047 -0.57313246 -0.56618035
0.5597263 0.7952498 0.32518363 0.1435221 -0.029187439 0.03157042 -0.20956656 -0.19854051
0.32753754 -0.18970641 0.24638027 0.332951 0.8081613 0.5379302 0.4737452 -0.4086929
-0.44889897 -0.022358935 -0.008044122 0.10962091 -0.71767074 0.24611188 -0.30228704 1.1579361
-0.7949713 -0.058704596 -0.21665747 -0.07180184 0.5192703 -0.8619996 -0.087792695 -0.4182632
-0.4846249 -0.33818877 0.16510066 0.35752848 -0.07803063 0.42776012 -0.46621346 -0.73264915
0.17237908 0.21308802 -0.32938758 0.30700287 0.34506136 -0.28234467 -0.54277694 -0.27469108
-0.4423606 0.43501386 -0.01865659 0.10460096 0.49320787 0.03755016 0.38977262 0.13417701
-1.2142475 -0.13474055 0.6993952 0.52472275 -0.4379648 0.5402694 0.15366532 0.2335348
-0.21147169 -0.35036615 -0.42031947 0.28380463 0.4072729 -0.6042903 0.12274543 -0.3164446
0.8439721 0.36261863 0.84341854 -0.49824923 0.28570828 0.06554398 -0.25915104 0.043578874
0.81452423 0.28680837 -0.16357313 -0.50233376 0.26838 0.24438947 -0.15050994 0.19133632
-0.7149357 -0.3057019 -0.5443204 -0.13641304 1.0268891 -0.45017314 -0.7301539 -0.25001615
0.5414564 -0.07017163 0.09241827 -0.8579128 -0.27946037 0.69000494 0.43494022 0.20658325
0.4471319 0.32101458 0.04489401 -0.36230582 0.454274 -0.072613515 -0.2023674 -0.718567
0.16564278 -0.078736834 -0.24086006 -0.80131435 -0.20065373 0.5723003 -0.92550313 0.024983615
-0.10147758 -0.19464706 0.59293276 0.2805773 -0.10409038 -0.24909681 0.54033697 0.6376463
-0.58253306 -0.7091808 -0.2771928 -0.04757241 0.04932356 0.046225447 0.3070949 0.24713333
-0.27494442 0.115087576 -0.13033691 -0.34730712 -0.86380655 -0.54780436 -0.40340072 0.4466299
0.4331039 0.1586918 -0.16069956 -0.14751703 0.6311312 -0.26900464 0.31053832 -1.2384589
0.7819063 0.09963983 0.36367562 0.095195465 -0.4775775 0.87806654 0.13950191 0.4074934
0.40566242 0.33645648 -0.092501014 -0.3572206 0.07118548 -0.4613442 0.44733956 0.6503699
-0.24876326 -0.16864882 0.34791443 -0.28271753 -0.26271865 0.33671978 0.5854751 0.37442073
00000000: 0ffa 013f e5e9 c8be e844 97bd 1ef0 51bd
00000010: 2e70 dcbe 1884 103d cf48 c4be cc23 77be
00000020: f2d4 953f b2c6 3d3e 5911 29bf bbe6 07bf
00000030: b961 f73e 580e 13bf b30e 7fbd 0c5a 46be
00000040: 440e 733d 6bf1 c23e 9d6d da3e 4ac5 9bbe
00000050: 1128 a9be ff03 003f ad2b 13bb f5fd b83e
00000060: 77f7 60bf ce04 8abe c1b8 4bbf daff c03e
00000070: 1562 12be 4f73 03be 8e21 f53d 3a0c 30be
00000080: 0e53 4ebf c2bd 7abe fd46 8e3e bcb1 103f
00000090: c530 28be 5d45 84be af39 523e 0d6c 6ebd
000000a0: 1aff 1b3f c0e3 b53e f28d 1a3f b37f 2b3c
000000b0: c99e 8bbf aee2 c83e ba65 213f 4308 253e
000000c0: a331 f5be 400b 0f3e e87f efbd bfee 4e3f
000000d0: eace 103e d66f 3fbf 033a 00bf e5ca 51be
000000e0: a93f d4be 2c63 c1be eb6d 4cbd a83d 983e
000000f0: 5495 abbe d253 263e c705 a43e 6e67 4b3f
00000100: ae8a 3fbe 348e c93d 9a0b 753e f982 413f
00000110: 7b3b 0a3e b6b7 07bf e3b7 823f f537 c2bd
00000120: 1c29 5f3d 1c03 733e 6212 dbbe 1c63 9ebe
00000130: 9be4 603e 4350 a93e cfb8 12bf 32f1 10bf
00000140: 394a 0f3f 7e95 4b3f 787e a63e 75f7 123e
00000150: 7f1a efbc fc4f 013d 9e98 56be 344e 4bbe
00000160: 00b3 a73e 6642 42be 1c4b 7c3e 8e78 aa3e
00000170: a9e3 4e3f cbb5 093f bb8e f23e 3240 d1be
00000180: 16d6 e5be 162a b7bc 7ecb 03bc ed80 e03d
00000190: 45b9 37bf c104 7c3e 5ec5 9abe 4037 943f
000001a0: 3d83 4bbf 3b74 70bd 75db 5dbe d80c 93bd
000001b0: e6ee 043f 01ac 5cbf a8cc b3bd 9826 d6be
000001c0: c120 f8be 1427 adbe 2610 293e f90d b73e
000001d0: 86ce 9fbd 6003 db3e 88b3 eebe e58e 3bbf
000001e0: 2484 303e bf33 5a3e 7da5 a8be 7b2f 9d3e
000001f0: e2ab b03e 7b8f 90be 6ef3 0abf 4fa4 8cbe
00000200: 177d e2be 23ba de3e b4d5 98bc 0739 d63d
00000210: be85 fc3e 32ce 193d 4790 c73e b365 093e
00000220: 766c 9bbf 6df9 09be 900b 333f 3b54 063f
00000230: ec3c e0be 184f 0a3f 715a 1d3e bf23 6f3e
00000240: 098c 58be 3163 b3be 1d34 d7be d74e 913e
00000250: 1386 d03e c5b2 1abf f561 fb3d 0705 a2be
00000260: 8e0e 583f 26a9 b93e 47ea 573f 861a ffbe
00000270: 5b48 923e ec3b 863d 72af 84be c37f 323d
00000280: a984 503f 8cd8 923e b77f 27be f298 00bf
00000290: 1a69 893e 3c41 7a3e 471f 1abe abed 433e
000002a0: 0706 37bf f684 9cbe 9558 0bbf dcaf 0bbe
000002b0: 1a71 833f 187d e6be 5eeb 3abf 1e02 80be
000002c0: e39c 0a3f 25b6 8fbd ca45 bd3d 2ca0 5bbf
000002d0: 6e15 8fbe 2aa4 303f 7cb0 de3e 8f8a 533e
000002e0: 79ee e43e 065c a43e c8e2 373d 2680 b9be
000002f0: 9a96 e83e 65b6 94bd 6639 4fbe 02f4 37bf
00000300: 439e 293e c740 a1bd 05a4 76be f022 4dbf
00000310: 2c78 4dbe 4682 123f c6ed 6cbf 70aa cc3c
00000320: 7ad3 cfbd 8f51 47be 71ca 173f d4a7 8f3e
00000330: 562d d5bd 3c13 7fbe 8653 0a3f ca3c 233f
00000340: e320 15bf df8c 35bf 37ec 8dbe 4adb 42bd
00000350: 8007 4a3d e556 3d3d 8b3b 9d3e 8510 7d3e
00000360: 84c5 8cbe 09b3 eb3d 0a77 05be 3dd2 b1be
00000370: 6d22 5dbf e83c 0cbf 8a8a cebe adac e43e
00000380: cbbf dd3e 1a80 223e 6d8e 24be b40e 17be
00000390: d091 213f faba 89be e1fe 9e3e d285 9ebf
000003a0: 032b 483f f80f cc3d b133 ba3e d7f5 c23d
000003b0: 0a85 f4be f8c8 603f 97d9 0e3e faa2 d03e
000003c0: fcb2 cf3e 0644 ac3e 2c71 bdbd 9ee5 b6be
000003d0: b1c9 913d 4f35 ecbe b109 e53e a47e 263f
000003e0: ccbb 7ebe 47b2 2cbe d721 b23e 5ac0 90be
000003f0: 0f83 86be 8966 ac3e b2e1 153f 13b4 bf3e

fc_class.bias f4 [2]
0.16945288 -0.04624925
00000000: 0e85 2d3e db6f 3dbd
