code/models/lstm_500.pt (torch, 357540 bytes, 8 tensors)

lstm.weight_ih_l0 f4 [512, 34]
00000000: 6eb5 39be ce42 8ebd f624 74bd 6397 50be
00000010: 3cc6 12be a7cc 04be a161 30be bba3 76be
00000020: b728 63be 33f4 65be d78c 84bb e571 47be
00000030: 26cb 81be 5802 7dbe 9469 0e3d 1865 dd3d
00000040: cc18 8dbe 6970 30bc 6e71 2cbe 12ce 743d
00000050: 4854 88bd de55 ffbd c2ae 58be d907 e2be
00000060: 5918 87be 74a4 aebe 5fda 53be 5eb9 b3bd
00000070: 5e9f 04bf 540b 59be 5821 afbc 2ab2 c83d
00000080: 5a0e 74be 6287 d3bb dedd 61be e8ca 40bd
00000090: 2101 3dbe e2d1 dfbd c38c 49be b52c 273c
000000a0: aa84 6bbe 0ad8 f1bd 1a1c 89be 34dc b5bd
000000b0: 7dc9 8abe f686 14be 5643 97be 299b 0fbe
000000c0: e0e7 90be 6eb0 763d 5db1 f5bd 9d88 d6bc
000000d0: ae27 8bbe 0265 c83d 2cdd 0fbe efc9 bbbd
000000e0: b00b 99be 5185 b7be 6fb4 b6be 51d1 8cbe
000000f0: e440 d6be 4ffd b13b 61e4 c1be dfe9 99bd
00000100: 5b22 54bd b820 be3d ddb0 f5bd afad 3d3e
00000110: 16a5 c33e 1180 3e3e 427b 943e 0e5e 893d
00000120: 314b b13e cc22 4b3e a1f0 a93e c1c3 3e3e
00000130: 6c95 933e 7b34 ee3d ca17 953e ab9e 273e
00000140: 6288 7b3e 03ca 523e 719c 8a3e 64c3 c73e
00000150: 419d 313e e239 873e d1b6 403e 0231 ac3e
00000160: eb7e 453e 01b8 ad3e 2a6a 3f3e a1be 693d
00000170: b592 3a3e 198c 553e 89d0 dcbc c4c3 173e
00000180: 8d9a 883c 3843 693e 9e4d 2b3c 6d7b 873e
00000190: 751e d7bd 818c 1a3e 09a4 9d3e f97a 84bc
000001a0: 1ccc 803e 3921 5d3c d3b9 493e b452 353d
000001b0: 11a7 513e 4d59 2cbe 72ea 413e 13c0 5dbd
000001c0: 3a1f bd3e ca82 e7bd 3853 f63d a352 cfbd
000001d0: 00cc 473e 5622 e23d 68c3 fdb9 460f 97bb
000001e0: 7e31 f13d 5b58 6c3e 73d3 a4bd a9e5 863e
000001f0: 9e6d 943c 63c4 9fbe 7981 a7bd 383a 64be
00000200: 268b 1cbe 2bea cc3c eb69 8abe 38a9 313e
00000210: 6e31 acbd 2a83 913e 7298 74be 11a8 6f3e
00000220: 9620 afbb 5808 11bd f71d fbbc 56dc 9f3d
00000230: 0776 7e3b 044e ba3d f670 89bd ff0a ffbd
00000240: 4ebc 1cbe 89f2 98bd 4013 043e 287b 95bd
00000250: c718 0ebe e81b e4bd 6c16 753d f2e7 55bc
00000260: acc9 f6bd df09 f23c 778a a0bd ff45 b4bd
00000270: 3751 0c3c 09d4 25bd 9073 cabd ffb7 c9be
00000280: 24c7 94be d88a d2be bc0d 53be beda 8fbd
00000290: 2314 ddbe 0db7 e3bd 0e04 06bd ea52 d5bc
000002a0: 0b86 25be 32da 193d d2c7 1bbe f7ae 8bbd
000002b0: 0b5c a4bd b3c8 b53d 6f23 28be 50aa 813b
000002c0: daea 9abd 1302 a8bd a124 0cbe 17c0 1fbd
000002d0: 3b5c 83be 1350 b4bd fb47 3fbd a288 823c
000002e0: 4475 83be a6da 323d 06ca aabd 427d 8abd
000002f0: a87b a4be c767 f8ba 46f8 98bc 2e4e 80bc
00000300: f687 abbe 9c16 d6be 1192 81be 57e8 dfbe
00000310: 50a5 04bf b67a 3bbe e9fe 05bf 6c4c 67be
00000320: ef9c b3be 38b1 12be 97f9 c4be 0b71 d53c
00000330: f24c ad3d a6f5 ab3d a291 fb3d 3c9d 5e3d
00000340: d623 873d bb41 ca3d 71ee 5d3e 98ee e23b
00000350: b8b7 123e 89fe d3b9 3974 0d3d 1a0f 4d3c
00000360: 2f66 f73d 5434 e9bd 0136 6ebd f287 a5bd
00000370: fe22 ba3d c2af 82bd a2c9 ecbc 2279 7ebb
00000380: 9cfc fa3d 9167 b5bc c844 f73c c29c b0bd
00000390: ac1b 5b3d 2483 b8bd 3088 5cbd 54e6 b53d
000003a0: b30e ed3d 3a75 95bd a286 70bd 773c 673d
000003b0: a0bf 6c3d a03e 403d aef5 82be a80b 73bd
000003c0: 8e15 85be edde 40bd ea8d 81be ee46 cabd
000003d0: 7638 9bbe 1fe8 9bbc 1b4f 4dbe 9f2b 2abe
000003e0: 45a7 8dbe 9459 04bd faad 69be 2611 1dbe
000003f0: 2125 c3be c711 94bd 3cd8 47be a406 efbd
-0.18135616 -0.06946336 -0.05960556 -0.2037025 -0.14333433 -0.12968694 -0.17224742 -0.24085896
-0.221835 -0.22456436 -0.0040451097 -0.19477041 -0.25350302 -0.24707925 0.034768656 0.10810298
-0.2755798 -0.010768988 -0.16840145 0.059766836 -0.066567004 -0.1246755 -0.21160415 -0.44146612
-0.26385763 -0.34109843 -0.2068877 -0.0877559 -0.51805675 -0.21195728 -0.021378204 0.09799607
-0.238336 -0.006455348 -0.22057292 -0.047068506 -0.18457462 -0.10928704 -0.19682603 0.01020353
-0.22999826 -0.11808784 -0.26779252 -0.08879891 -0.27106848 -0.14504609 -0.2954356 -0.14024033
-0.28301907 0.06022685 -0.1199672 -0.02618819 -0.2717871 0.09784891 -0.14049214 -0.09169375
-0.2989173 -0.358439 -0.35684535 -0.27503446 -0.41846383 0.005431808 -0.37869552 -0.075153105
-0.051790576 0.09283584 -0.119966246 0.18523286 0.38211888 0.18603541 0.29000288 0.06707393
0.3462768 0.19837493 0.33191398 0.18629362 0.28824937 0.116311036 0.29119712 0.16369121
0.24563745 0.20584874 0.2707248 0.3901626 0.17345144 0.2641135 0.18819739 0.3363114
0.19286697 0.33929446 0.18692842 0.057066564 0.18220027 0.20854224 -0.026954906 0.14820772
0.016675258 0.22779548 0.010455517 0.26461354 -0.10503856 0.1509266 0.3078921 -0.01617192
0.25155723 0.01349669 0.19699793 0.044268325 0.20473887 -0.1683094 0.1893709 -0.054138254
0.36937886 -0.11304243 0.120275915 -0.101231836 0.19511414 0.11041705 -0.0004840151 -0.004609975
0.11777018 0.2308058 -0.08048143 0.26347092 0.018118676 -0.3120452 -0.08178992 -0.22287834
-0.15287456 0.025014004 -0.27033934 0.17349708 -0.084078655 0.28420383 -0.23886278 0.23403956
-0.0053444607 -0.035408348 -0.030653937 0.078056976 0.0038827674 0.090969115 -0.06710999 -0.12453269
-0.15306208 -0.07468135 0.12897968 -0.07298881 -0.1387664 -0.11138135 0.059835836 -0.013055788
-0.120501846 0.029545723 -0.0783891 -0.08802413 0.008564285 -0.040485416 -0.09885323 -0.3939819
-0.29058182 -0.41121554 -0.20610708 -0.07024144 -0.43179426 -0.111188985 -0.03271871 -0.026040513
-0.16164415 0.037561603 -0.15212944 -0.06820481 -0.08025368 0.08876171 -0.16419767 0.0039570704
-0.07564326 -0.082035206 -0.13685848 -0.03900155 -0.25656304 -0.088043354 -0.046699505 0.015934292
-0.25675404 0.04366555 -0.08339314 -0.06762172 -0.32125592 -0.0018951826 -0.018673074 -0.015662279
-0.33502167 -0.41814125 -0.25306752 -0.4373195 -0.51814747 -0.1830853 -0.5234209 -0.22587746
-0.35080668 -0.14325416 -0.38471672 0.02605488 0.08461942 0.08396463 0.12283637 0.05434917
0.06598632 0.09875818 0.2167299 0.0069254152 0.14327896 -0.000404347 0.034534667 0.0125158075
0.12080037 -0.11386934 -0.05815697 -0.0808257 0.090887055 -0.063811794 -0.02890474 -0.0038829525
0.12255213 -0.02214411 0.030184165 -0.08623649 0.053493187 -0.09009388 -0.053840816 0.08881822
0.11575069 -0.0729775 -0.058722146 0.05645415 0.057799935 0.046934724 -0.25578064 -0.05933729
-0.25993007 -0.0470876 -0.25303584 -0.0987681 -0.30316514 -0.019031582 -0.20049708 -0.16618203
-0.2766668 -0.03231199 -0.22820273 -0.15338573 -0.38114265 -0.07229953 -0.1951608 -0.116711885

lstm.weight_hh_l0 f4 [512, 128]
00000000: 825c 24be eb92 0f3e 2eba cd3d b951 4b3e
00000010: 7305 593d 6cbd ba3d 7deb 613d 2619 623e
00000020: 3fef 2b3e 301e cb3c 12b2 24be 3d6f 3f3e
00000030: 3203 d6bd ef80 2f3d 86c8 f1bc a368 203e
00000040: 3fcd 13bc 4fc4 40bd b1b0 05bd 8b7d a23b
00000050: 438a 383d f90e 94bd 81be c6bd 2c0a 2cbd
00000060: 1fe5 bdbe e0d2 cc3d a382 d93d 406d 933e
00000070: 506a 213e 8299 b1bd 4f6b 263e 93fb 13be
00000080: a92d 403c d17f 123e 86b1 dcbb ad4c 25bd
00000090: 3f5e 173e 265d d63c 9fd0 983c c2f5 0bbe
000000a0: 5428 ecbc 6ddd 25bd 9460 ca3d d0e0 94bd
000000b0: a2ca 39be fd1f 13bd 2fbf 043e 0e3b bd3c
000000c0: 8842 0f3e c374 19bd f371 8dbb 7f96 e33d
000000d0: 6e20 133d 3cd8 dd3d 0c92 233e e1e6 2d3d
000000e0: 0c12 47bd f125 683d 7e65 243e e86b 973e
000000f0: a95b 44bd 209e 843e db42 ac3d 9920 493e
00000100: 2a1f 0e3d 49cc 373c 3b33 38bd b367 123d
00000110: be1a 28bc 7045 213e 821e 2b3e 0666 81bd
00000120: 4c8b 9c3d a4cb d73d 0f5a 263e 3755 933c
00000130: 50ba e03d d13a e6bd c26d ba3d f2b1 923c
00000140: 98da be3d 7fe8 0e3d fe58 363e d308 943d
00000150: 6ee4 fd3e 5933 283b 5f57 1f3d d3e5 91bd
00000160: 710a 8a3d bf97 d0bc 902a 1f3e 3390 b13a
00000170: ec1a c43d 24d0 18be a32f 96bd 80c4 683e
00000180: 885e 763d 15ca 033e 6a82 f1bd 31c7 fbbd
00000190: 0723 5b3b d73e f23d 568e f73d 77a3 0bbe
000001a0: 302d 11be acd6 9f3d 87a3 9f3d ce1b 203d
000001b0: a2df c53d a47e 32bd 9b71 a83c 34ae b3bb
000001c0: 927c 073c bd2b 353d dfee 20be ba6d 29be
000001d0: f5b8 afbd d09c 21bd b970 52be 5f52 98bd
000001e0: 9160 f8bd 98a3 9dbe 2af0 073d ef7d 10be
000001f0: 4615 0c3e 137a 04bd cfdf 343d 68d0 253e
00000200: 102e b6bc 905d a23d 50d6 94bd dcc2 453e
00000210: f843 ae3d 2802 913c 9e73 66bd 1f9d 9e3d
00000220: fe3d 0e3e 98bf 00bd 77db 6ebd 662e ca3d
00000230: 74ae 213d ccab a7bd 3fee ffbd 1c15 123d
00000240: 8ea2 a4bc 18ec 01be c1fb cc3b 2ed9 cc3c
00000250: 554c 06bd 29e3 95bd aa71 4e3d 142b 2f3c
00000260: bbf7 c53d 03fd e23e c475 613d 37e9 8e3d
00000270: 2090 2a3d b6de 043d 8e3a 393e 2c7a e9bd
00000280: b82d 79bd 983c 533e 4ca5 383d 437b 0cbe
00000290: 1516 623c e870 7d3d c52a 65bc 26ba 18be
000002a0: c544 703d 1213 f7bc f979 c9bb fbae b139
000002b0: 7430 88bd 5c1f 303d fb87 a13b 807e 8f3d
000002c0: 1bcd cabc c483 7f3d 630f 2fbe 6728 203d
000002d0: 50be 003b 4f0e 6d3e be7a 053d c177 97bc
000002e0: 12d6 bf3d a3a4 89be 3b72 f93d bea6 b43d
000002f0: c8c4 72bc 9a2e 80be dbb6 61bd 514f 243d
00000300: a380 f53d af16 1abe 5bb4 a2bd 8434 d53c
00000310: 91ee e1bc 4b8d 43bd 6330 683e dd9c debd
00000320: 8f7b 313e b850 ad3d 0c90 083e a720 f83d
00000330: 1afa 55bd 6b6c 343d b395 093d 99a1 553e
00000340: 7cd4 1a3d bc46 ab3d d530 de3d 1de0 1d3e
00000350: 7605 143e 3bd5 d5bd 586d 293e 37df 26bc
00000360: db21 133d 6898 14bd 5890 9f3e b8db ddbb
00000370: ad78 313e 724c 0fbe 346e 533d 1315 893e
00000380: ca7d a5bd b5da 303d 2511 59be abf6 dbbe
00000390: 1c7f ff3c 8dcd f0bd 151c afbc ae12 98bc
000003a0: 85b5 a0bd a7ec 9e3d 8bdb 033c e97e 96bd
000003b0: ca1a 88bc 92b4 b53d 7303 ecbd ca4d cbbd
000003c0: fff6 923c c407 e23c 7943 08be 719b 113d
000003d0: 705e 9ebd 0243 813d 94ba e2bd b315 1f3c
000003e0: 7f04 66bc bebf 45be 7a98 513c 5ead 2bbe
000003f0: ebd3 ad3d 209b b33c 1a47 273c a80c 72bc
-0.16050914 0.14020889 0.100452766 0.19855393 0.052983712 0.091181606 0.05515622 0.22079906
0.16790484 0.024794668 -0.16083553 0.18694778 -0.10449828 0.04284757 -0.029514562 0.15664916
-0.009021102 -0.047062214 -0.03263921 0.0049588135 0.04505373 -0.07229418 -0.097043045 -0.04200189
-0.37088868 0.10001159 0.1062062 0.2879429 0.15763211 -0.086718574 0.16251872 -0.14451437
0.011729636 0.1430657 -0.0067350296 -0.040356327 0.14782046 0.026167464 0.018654166 -0.13667968
-0.028827824 -0.04049437 0.09881702 -0.07269442 -0.18143705 -0.03591918 0.12963556 0.023099449
0.13990223 -0.03746487 -0.0043165623 0.11112689 0.0359196 0.10832259 0.15973681 0.04245651
-0.048601195 0.05667681 0.16054341 0.29574513 -0.047938976 0.2590189 0.08411189 0.19641341
0.03469769 0.011218139 -0.044970732 0.035743427 -0.010260282 0.15749145 0.16710857 -0.063182876
0.07643756 0.10536888 0.16245292 0.01798497 0.10973036 -0.11241687 0.09102966 0.017907117
0.09319037 0.034889694 0.17807385 0.072282456 0.4958834 0.0025665371 0.038901683 -0.071239136
0.06740273 -0.025462983 0.1554358 0.0013547003 0.095754474 -0.1492315 -0.07333305 0.22731209
0.060148746 0.12870057 -0.11792453 -0.12293852 0.0033437626 0.11828392 0.12087695 -0.13636576
-0.14177394 0.07804617 0.07794862 0.039089017 0.09661795 -0.043577805 0.020561984 -0.005483413
0.008269446 0.044231165 -0.15716122 -0.16545764 -0.085802 -0.03945619 -0.20550813 -0.07437586
-0.121277936 -0.30788875 0.033188023 -0.1411054 0.1367999 -0.03234298 0.044158753 0.16192782
-0.022238761 0.07928002 -0.07267439 0.19312614 0.08509058 0.017701223 -0.056262605 0.07744812
0.13890836 -0.031432718 -0.058314767 0.09872131 0.039473012 -0.081870645 -0.12496614 0.035664663
-0.020097043 -0.12687719 0.0062555973 0.025005903 -0.03278764 -0.07318718 0.050401367 0.010691423
0.096663915 0.44333658 0.05504395 0.06978076 0.041641355 0.032438956 0.18088743 -0.114002556
-0.060834616 0.20628583 0.045079514 -0.13718896 0.01379921 0.061875254 -0.013987248 -0.1491476
0.058659334 -0.03016046 -0.0061485735 0.0003389044 -0.06649867 0.042998657 0.00492954 0.0700655
-0.024756005 0.06238152 -0.17095713 0.03910103 0.0019644685 0.2314999 0.03258776 -0.01848972
0.093670025 -0.2688342 0.12179991 0.08820866 -0.014817424 -0.25035554 -0.055106025 0.040114705
0.11987426 -0.15047716 -0.07944556 0.026026018 -0.027579578 -0.04774217 0.22674708 -0.10869763
0.1733229 0.084626615 0.133362 0.12115603 -0.05224047 0.044048708 0.03359003 0.20862426
0.037800297 0.08363101 0.10849158 0.15417524 0.14455208 -0.10441061 0.16545618 -0.0101850545
0.03592096 -0.03627816 0.31164813 -0.0067705773 0.1733119 -0.13994005 0.05161877 0.2677389
-0.08080633 0.043177325 -0.21197946 -0.4296163 0.03118854 -0.11757956 -0.021375695 -0.018563595
-0.07847122 0.077599816 0.008047949 -0.07348425 -0.016614337 0.08872332 -0.115240954 -0.099269465
0.017940043 0.027591594 -0.13306989 0.03554863 -0.07732856 0.06311609 -0.11070743 0.009709763
-0.014039158 -0.19311425 0.012792701 -0.16765353 0.08487686 0.021924555 0.010209823 -0.014773525

lstm.bias_ih_l0 f4 [512]
00000000: 9ebf 293e 83d9 0a3e 6679 603e bf5e 5b3e
00000010: 8a81 563e ac66 7d3c 26b1 7bbd 3dea dcbd
00000020: adbb 203e 7956 783e 32b2 23bd 517b 803e
00000030: e4b9 893e 69f3 813e 95a9 823c bd1b 4fbe
00000040: ddc3 f93d 3a9e 3ebe 9341 273d 2b01 91bd
00000050: 15de 933d 1782 5ebd 4dc7 a93d f180 e4bd
00000060: c683 0b3e 1467 48bd 1ce4 563d fd55 663c
00000070: fa0f 443e 1f13 483d f3f6 00be 376d 77bb
00000080: 1d48 7d3e f7ec cf3e 4242 193d 09cf 903e
00000090: 1afd 9cbd 7073 4ebe 3c4e a43d ad45 75bd
000000a0: f8e2 bebb 38f6 d23d d19b 2a3e 923e d6bb
000000b0: 64bf a43c cd24 b8bc 866b a63e 2f39 073d
000000c0: 75ab 6c3e b4bd b5bd 0e3b 65bd de99 36be
000000d0: 6e99 a6bc 11dc 863d d5f2 3bbe b833 993e
000000e0: 6ad6 a73d eb12 c5bd 0b14 cb3c 6176 d73d
000000f0: ae58 43be 30f6 0c3e 3121 39be 35c7 713e
00000100: b1b9 633e 78cf 03be 7839 463e f7e3 153e
00000110: 6a43 0b3e 88db dabd 2c3d 20bd f55b 1abe
00000120: 6ac8 c5bd 0ac1 ed3d 2a19 39bc 9212 60be
00000130: 5a80 50bd 6b8b b4be 4e8f 6f3c fdab ddbd
00000140: f1c2 85bd 4866 f0bd 024e 0b3e bc81 1c3d
00000150: 9af5 f83e 3a84 783c 75fa 9dbe e3c5 8f3d
00000160: 76cf 263d efc1 723e 48d2 3e3d 1682 c0be
00000170: 30e9 8a3c b68a b43d ea75 8a3d 3449 fa3b
00000180: a64b 133d 11ce aa3e 6571 bfbc 79b2 723c
00000190: 8ae2 933e acb2 4abe 156f 2b3d a88d 48bd
000001a0: 6587 af3e 305e b53d 45a2 353e 9847 ff3d
000001b0: 4bbd 0abe e0db c43d 84bd 273d 6d05 953d
000001c0: 9e5d a53d d3bc aabd eac4 26be a3b1 353e
000001d0: 6638 db3b c6d7 1b3e 07d1 bdbd 484c a8bd
000001e0: 0eff 303e 6463 04be 6d23 433d 57af 8dbd
000001f0: b007 383c 2ac9 93bd 578c 3e3e 0cea 22be
00000200: 9108 a8bd e4ed 8e3c 3e14 3bbd 6422 e23d
00000210: a771 393d 7c29 48be d295 bd3d 1bfa 66be
00000220: 0d88 7b3d 13c3 3abd 2e33 8a3e c446 d5bc
00000230: 154b 5fbc e285 04bd e90e acbe 7a54 fc3d
00000240: 9467 fe3d 60e1 a9be 7e53 8ebb 1f20 60be
00000250: f60b 27be c11b 31be 2705 a73d 0889 35be
00000260: 550a a8bd f94f 20bd 704a d2be 5f14 6abe
00000270: faef 13bd 6a73 d6be 9f74 59bd 2032 da3d
00000280: 4667 d63d 2097 173e 2422 fbbc aa73 933d
00000290: bfe0 373e c884 b6be 788e bfbe ed3d 74be
000002a0: 2061 ed3d 5cad b43d 5c91 ca3d 22de 953d
000002b0: 9a99 4dbe 5ece 35be 9ea3 87be 5cb8 b8bd
000002c0: 8d05 df3c 4f5b 563c 76fd 83be 345e 7cbe
000002d0: a0bf 633c c851 94be 849a 0b3e 633b 0f3e
000002e0: 235b 0e3d 56c8 d9be b479 da3e b547 b1be
000002f0: a29e 96be a0d7 82bc 64d4 82be edeb afbd
00000300: 0fb4 0e3e 9fb6 97b9 6c37 1abd 4408 d03d
00000310: 07f6 053e 4231 5cbe 29a4 48be 9538 85be
00000320: eed8 b4be 9c27 d5be dfbe 18be fb48 f1bd
00000330: e145 1fbd d0d2 7fbe 961c 2b3d 1e0d 25be
00000340: 449b 49be b900 bfbe 4c24 f03c 4e78 ddbe
00000350: 29d1 3a3e a2ed fb3d 8045 9cbe 36fa 023d
00000360: 48a0 7fbd 0a5c e1ba 237b 6f3e 3f20 f6bd
00000370: d693 f4bc 9788 e33d 4b14 0b3e bf0c 8e3e
00000380: 0458 a2bd a25d 0b3e f8c9 8ebe 01a5 6d3d
00000390: f8c2 db3c 3260 60bd b72c 51bc 89f4 2f3a
000003a0: 553f 2c3e c92a 903c 3ef7 f1bd 3310 a13d
000003b0: bc04 5ebe 3014 623d e663 8a3d a754 91bd
000003c0: 1ee8 b4bc f0bd acbe ef90 943c a8cf 27be
000003d0: cdc3 263d b046 19bd 2db3 06be e33d 99bd
000003e0: bd6f 69bd ceb7 143e 5d32 cebe 3272 b8be
000003f0: d474 c4be db39 70be 91f9 71be 2a83 6bba
0.16577002 0.13559537 0.2192131 0.21422862 0.20947853 0.015466373 -0.06144824 -0.10786865
0.15696593 0.24251737 -0.039964862 0.25094083 0.26899636 0.2538102 0.015950004 -0.20225425
0.12195561 -0.18615046 0.04083402 -0.07080301 0.07220093 -0.054323282 0.08289967 -0.11157406
0.13624486 -0.048926428 0.052463636 0.014058587 0.1914672 0.04884636 -0.12594204 -0.0037754306
0.2473454 0.40610477 0.037416704 0.28282955 -0.07665463 -0.20161223 0.080227345 -0.0598809
-0.0058253966 0.10300869 0.16661002 -0.0065382207 0.020110793 -0.022478485 0.3250391 0.03301352
0.2311228 -0.088740736 -0.055964522 -0.17832133 -0.020336833 0.06584943 -0.18354352 0.2992227
0.08195193 -0.09622749 0.02478983 0.10520626 -0.19076797 0.13765788 -0.18079068 0.23611148
0.22238804 -0.12872112 0.1935786 0.14637743 0.13599935 -0.106864035 -0.039120838 -0.15074141
-0.096573666 0.11609085 -0.0112975035 -0.21882084 -0.050903656 -0.35262617 0.014621569 -0.1082382
-0.06531323 -0.117382586 0.13603976 0.03820966 0.4862488 0.015168244 -0.30855146 0.07020166
0.040725194 0.23706792 0.04658726 -0.37599248 0.016956896 0.088155195 0.067607716 0.007638121
0.035960816 0.3336034 -0.0233695 0.014813059 0.28883773 -0.1979472 0.041853983 -0.04896322
0.34282985 0.088558555 0.17737682 0.12464827 -0.13548772 0.0961225 0.04095222 0.072764255
0.08074497 -0.083367966 -0.16286054 0.17743544 0.006690073 0.1521903 -0.092683844 -0.082176745
0.17284796 -0.1292854 0.047641207 -0.06918209 0.011232302 -0.072161034 0.18608223 -0.15909594
-0.08204759 0.01744742 -0.0456736 0.11041716 0.045274403 -0.19547075 0.092570916 -0.22556345
0.061409045 -0.045596194 0.26992172 -0.02603472 -0.013628741 -0.032354243 -0.33605126 0.123208
0.124221 -0.3317976 -0.004343449 -0.21887253 -0.16313156 -0.17295744 0.081552796 -0.17728055
-0.08205096 -0.039138768 -0.41072416 -0.22859333 -0.03611753 -0.4188493 -0.053089734 0.10654092
0.104689166 0.14803743 -0.030655928 0.071997955 0.17956828 -0.3564818 -0.37413383 -0.23851748
0.11590791 0.08822128 0.09891006 0.07317759 -0.20078126 -0.17754504 -0.26492018 -0.09019539
0.027224327 0.013083293 -0.25779313 -0.2464531 0.013900667 -0.28968644 0.13633162 0.13987498
0.034754883 -0.42535657 0.42670977 -0.3462502 -0.29417902 -0.015971959 -0.25552666 -0.08589921
0.13935874 -0.00028937028 -0.03765051 0.101578265 0.13082133 -0.21503165 -0.19593872 -0.2601973
-0.35321754 -0.41631782 -0.14916562 -0.11781498 -0.038885 -0.24982762 0.04177531 -0.16118285
-0.19688135 -0.3730524 0.029314183 -0.43255848 0.18243851 0.12301184 -0.30521774 0.0319769
-0.062408715 -0.0017193567 0.23386817 -0.12017869 -0.02985565 0.11110037 0.1358196 0.277441
-0.07926944 0.13609937 -0.27888465 0.058018688 0.026826367 -0.05477924 -0.0127670085 0.0006712159
0.16821034 0.017598527 -0.11814736 0.07864418 -0.21681494 0.055195034 0.06757335 -0.07096224
-0.022083338 -0.3373866 0.018135516 -0.16387808 0.040714074 -0.03742093 -0.13154288 -0.07482507
-0.056991328 0.14523241 -0.402728 -0.36024624 -0.38370383 -0.2345957 -0.23630358 -0.00089840835

lstm.bias_hh_l0 f4 [512]
00000000: dd68 0a3e b6e4 5b3e 2a97 223e 66f5 443e
00000010: 7edd bc3d 1b57 60bd bbae 063c 1d3f 77be
00000020: ee2a 233e 634d 933e a4b4 f6bd da68 9e3e
00000030: ed71 0f3e e3b8 293e af12 903d 1346 59be
00000040: 2a4a 353e 7a8b 0dbe 0bfc 54bd bcdc 453d
00000050: 714a 553d c9b7 9bbb 3721 ac3d c3db 09be
00000060: 90dc f33d 6eed e3bd 4671 d43c 6adb 0ebe
00000070: 71a0 033e aaba ccbc 7620 dfbd 257a 9bbd
00000080: 0c35 223e 23ca ce3e c970 633d 08a5 c63e
00000090: 728f 2cbd 6c93 67bd 3414 0a3e e8a8 da3b
000000a0: 54e2 a03a 9b8c 1a3e ae68 513e 0617 a93b
000000b0: bcad 383d f141 993c baff 863e fd11 36ba
000000c0: 070d 5e3e 3307 4ebd 6cf6 1bbe d9a4 74bc
000000d0: 7504 f5ba a4b4 60bc daeb 13be e2ab 6f3e
000000e0: 3b91 143e 407a 1ebe cee5 bd3c 34e3 2fbd
000000f0: 10bc 9abe 3171 46bc 7884 ccbd 6e4d 813e
00000100: a6d8 873e 26ab d3bd a891 5a3e a87f 0f3e
00000110: 1ad1 093e aa64 733c 339e f2bd 8d94 9fbd
00000120: 52b8 a4bd e9b5 673b 4420 02be b175 74be
00000130: f024 d5bc 99c9 83be 719c e83c a351 d5bd
00000140: 22ec d2bd 6dcb 5abd e2a4 f13d 1e24 a6bd
00000150: d495 ff3e 5633 c53c fad3 adbe 3ddc 4ebc
00000160: f2be 51bd 2614 013e 2b26 893c f949 9bbe
00000170: 2b9d a03d 5339 353e 8d3b 023e 8120 f3bd
00000180: b552 a4bd 9313 b93e 5a18 cfbd af98 533d
00000190: 258a 973e fed5 03be a3c0 84ba c921 acbd
000001a0: 88ec 8b3e 7529 63bd 992c a43d 0866 503e
000001b0: 70f2 60bd 6041 173e baf9 27bc f58e 033e
000001c0: fd9e 643c 6701 483d 2349 40be 1ea2 413e
000001d0: 8dae b63c bbc3 8b3e ffb7 b1bb 2dda acbd
000001e0: 8c60 973d 36fa 0dbe f5cd 003e 3b81 17be
000001f0: 5112 04be 2d9e 27bd 7262 283e d7e7 15be
00000200: a4e4 fcbc 40de cf3c c3fa ea3c e723 093d
00000210: 0c77 18bc 0f24 42be d112 dc3d fdf7 35be
00000220: 3bdb 263e b8bd 18bc e10f 963e 9143 ce3a
00000230: 4032 2ebc 76cd a3bd 9484 b1be e136 163e
00000240: 0482 ec3d bb81 6bbe 5070 db3b a4b2 e3bd
00000250: d579 6ebd a2c9 b5bd a959 483e 6fa1 afbd
00000260: 93f0 3bbe 7fbd e0bd e464 dabe 2b5e 80be
00000270: 835e ca3d 0bdc b4be e29e fbbb 5890 d43d
00000280: c702 e53d 9b84 223d a9aa a8bd 61e2 273c
00000290: 4b90 493e 9fa5 d2be f12a c2be 26ee 9ebe
000002a0: 7e8a 9f3d 1734 b63d 9563 f33c d4a1 71bd
000002b0: 4b54 92be 97dd 9dbd 8767 59be 4adb ddbd
000002c0: 6279 9cbd 261f 743d 38cc 73be 5027 58be
000002d0: 742b ee3d ae64 9abe b835 953d ff49 223e
000002e0: 1b02 4d3c 90c9 d6be c09e eb3e 5ee8 88be
000002f0: 8b97 a1be 8e9f 583d 73ac 7cbe 44b8 663c
00000300: 1b60 c63d c7e1 83bd 8d34 2bbe abd2 2a3e
00000310: 4a0e 6b3d 4e45 88be 2f90 20be 1f05 33be
00000320: 2ef6 aabe de7f b4be c194 dfbc dfc2 17be
00000330: 73d6 073d 0038 63be 6472 723d ae65 48bd
00000340: 55b3 a2be c9ef 76be 92ea 033e 1a7f ddbe
00000350: a58d 4c3e 8fbd a73d 8896 97be 62cc e73d
00000360: 0f94 cdbd 50e8 6fbd 8b1b 4d3e 9a97 56be
00000370: d0bd f4bc 73cf e63d 1bf3 393d 175c 943e
00000380: e3ea 11be 3168 633e 8571 7dbe a072 69bd
00000390: d205 1c3d 6602 32be 3281 4cbd 70cb cd3d
000003a0: 14d9 a93d ca58 b1bd 9b80 18be ff19 3bbc
000003b0: 932f 96be 8485 6b3d ba64 e13d ca1e a13d
000003c0: cb1b 013c 7828 cdbe 2842 8fbd 3bfc 53bd
000003d0: 6d2b 2a3d 3c55 94bd 5df3 b8bd 480c 32be
000003e0: 9872 ecbd b2e8 e73d bfec ccbe 3daf afbe
000003f0: f4a8 d5be 0384 96be 9362 45be ae29 52bd
0.13516565 0.21473965 0.15877977 0.19234237 0.09221934 -0.05477057 0.00822037 -0.2414517
0.15934345 0.2876998 -0.12046173 0.3093937 0.14008303 0.16574435 0.070348136 -0.21218137
0.17704073 -0.13822737 -0.05199818 0.04830621 0.052072946 -0.0047521335 0.08404773 -0.13462739
0.11907303 -0.111292705 0.02593292 -0.13950887 0.12854172 -0.024991352 -0.10894863 -0.075916566
0.15840548 0.40388593 0.055527482 0.38797784 -0.042128988 -0.056537077 0.1348427 0.006672967
0.0012274482 0.15092699 0.20450088 0.0051602153 0.04508756 0.018708201 0.2636698 -0.00069454295
0.21684657 -0.050299834 -0.15230721 -0.014931881 -0.0018693345 -0.013714943 -0.14445439 0.23405412
0.14508526 -0.15476322 0.023180868 -0.042941287 -0.30221605 -0.012111948 -0.09986204 0.25254387
0.26532477 -0.10335378 0.21344626 0.1401354 0.13458672 0.014855543 -0.1184658 -0.07792006
-0.08042969 0.003535623 -0.12707621 -0.2387302 -0.02601859 -0.25739744 0.02839491 -0.104159616
-0.10298945 -0.05341666 0.11799027 -0.081123576 0.49918997 0.02407233 -0.33950788 -0.012625751
-0.05120749 0.12605342 0.016741833 -0.30329874 0.078424774 0.17697649 0.1271803 -0.11871434
-0.080235876 0.36147746 -0.101120666 0.051659282 0.29597583 -0.128746 -0.0010128211 -0.084048815
0.27328897 -0.05545946 0.08016319 0.20351422 -0.054918706 0.14771032 -0.010252411 0.12847503
0.013953921 0.048829462 -0.187779 0.18909499 0.02230003 0.27297768 -0.0054235454 -0.08440051
0.07391462 -0.13864979 0.12578566 -0.14795391 -0.12897612 -0.040922333 0.16443804 -0.14639221
-0.030870743 0.025374532 0.028684026 0.033481505 -0.009305727 -0.18959068 0.107457764 -0.17770381
0.16294567 -0.009322576 0.2930899 0.0015736689 -0.010632098 -0.07998173 -0.34671462 0.14669372
0.11548236 -0.22998707 0.0066967383 -0.11118057 -0.058221657 -0.08876349 0.19565453 -0.08575713
-0.1835349 -0.109736435 -0.42655098 -0.25071844 0.09881308 -0.3532413 -0.0076788524 0.10379094
0.1118217 0.039677244 -0.08235676 0.010246844 0.1968395 -0.41141984 -0.37923387 -0.31041068
0.07790087 0.08896654 0.02971057 -0.058992222 -0.28579935 -0.077082805 -0.21230899 -0.10832842
-0.076403394 0.059600018 -0.23808372 -0.21108747 0.11629382 -0.30154938 0.07285637 0.1584854
0.012512709 -0.41950655 0.46019554 -0.26739782 -0.3156093 0.05288654 -0.24675159 0.014082018
0.096862994 -0.06439548 -0.16719265 0.16681926 0.057386674 -0.26615375 -0.15680002 -0.17482422
-0.33390945 -0.35253805 -0.027292611 -0.14820431 0.0331635 -0.22189331 0.059191123 -0.048925094
-0.31777444 -0.24114908 0.1288245 -0.43261033 0.19975908 0.08190452 -0.29607034 0.1131828
-0.100380056 -0.05857116 0.20030038 -0.20956269 -0.029875666 0.112700365 0.04539786 0.2897651
-0.14249758 0.22207715 -0.24750336 -0.05699408 0.03809149 -0.17383727 -0.049927898 0.10048568
0.082933575 -0.08659513 -0.14892809 -0.011419772 -0.2933317 0.057500377 0.1100554 0.07867201
0.0078801615 -0.40069938 -0.0699504 -0.051754218 0.04154532 -0.0724282 -0.09030793 -0.17387497
-0.115452945 0.1132368 -0.40024373 -0.34313384 -0.41730464 -0.29397592 -0.19275884 -0.05130928

fc_forecast.weight f4 [34, 128]
00000000: 2e68 18bd decf 6c3a db67 69bd 07db 0c3e
00000010: ecd0 8c3d 61c2 e03d ddb5 5d3d 29a9 1b3d
00000020: fb07 583d f3d1 acbd ef3f 38bd 6f71 973d
00000030: 4000 e63d 5086 283b 8baa b1bd bcff ca3c
00000040: 1f3e 78bd fff2 963d 6c3d 613d b14f c8bd
00000050: 1973 2fbd a1e7 e33c 4b7c 243e 9159 b5bd
00000060: 73b1 213c 9161 12bc e244 83bb 92f6 083f
00000070: 47fa 623e b0a5 143e 7e0a 243d 03d0 54bd
00000080: 339b 3b3d 04b8 5dbd 9d61 4dbe bb82 403e
00000090: 402b 813c f6fe 013e 0521 82bd 7207 453f
000000a0: fe0b 083d 4404 6ebd 6768 76bc 88d2 893e
000000b0: 4cd8 a73e 5df9 0dbc 0228 57bd 37b1 ebbd
000000c0: 2e8c 19bf 604f efbd cb4a aa3d c9da 1e3d
000000d0: abcd 233d 6e41 993d 4dc8 37bd 42c2 103d
000000e0: 4504 76bd a223 aabe 61ec 7abd 8985 f9bd
000000f0: df65 9fbd 1a35 133d 3edb f33d 405b 743d
00000100: 20a1 113d f239 e03d 4daa fb3d ad95 943d
00000110: 4c39 793d 3814 263d 0875 d53c b11c e6be
00000120: 1d9c 2bbf 4a21 d0bc 9377 483d c52a bebd
00000130: 396a 41bd 0ee9 d13e 49ea 69bd f98c bbbd
00000140: 1d3d 5e3e 4d50 e6be a6a5 c03d eadf 0abe
00000150: 0e4e babe d55b 733c 8b8f c9be 3e7b 50bd
00000160: 52eb dfbd 3206 91bc 7799 d23d 8237 42bf
00000170: 7da4 92be 5971 f5bd 2b27 9cbd d25e e83d
00000180: fed1 be3c c420 81bd 5ab5 053e fad7 6ebd
00000190: 6dbe c33d 794b be3c 2651 4dbd 86df 85bc
000001a0: e15a 86bb d83f 41bd de46 11bf 085a 3ebd
000001b0: b8fe 96bd 295a 26bd 916b 68bc 547b adbc
000001c0: d55c 80ba ca8e d23e 75a8 78bd ab83 a8bd
000001d0: 144f a3bd 2b84 09be 86d1 a9bd 5b75 a5bd
000001e0: 780a 243e eff7 953c 4425 21be aa60 1c3e
000001f0: c733 88bc 037d 30be 1458 853b 6666 54bd
00000200: 38e6 193d e1d8 7cbd 60fa 75bd 7414 f23d
00000210: 66d2 21bd ae50 8f3d f7e9 9f3e 7bb4 3f3d
00000220: e634 873e 6368 fbbc 9aa3 aa3d eeff 2d3d
00000230: a9c9 f63d b95a 283c 93bb 89bd 803e a03c
00000240: ecc7 513c 601c 963d 85af bbbc 9f12 aabe
00000250: 4907 7cbe 81f2 e23b 7b22 4d3e 2330 afbd
00000260: b960 13be e19c 9e3d fb9a 103d 8556 1b3f
00000270: 032e 293e fda7 143d 065f 2abb 3882 39be
00000280: c0a0 633d 8d04 b03c 6020 143e dc23 623e
00000290: e2e6 c7bd bba7 8e3e f878 fcbd 32a9 933e
000002a0: dadc 253d dba9 933d 0491 70bd 0ad9 08be
000002b0: ec2c 123f b751 fbbc 7c02 81bd eb6b fb3d
000002c0: 78ad bebe 00ad dbbd cd3c b83d f573 d2bc
000002d0: 9fa9 35bd 6762 fd3c 1a2f 753d c73d c33d
000002e0: 0aae cabd 7931 b63e 4f29 81bd ea38 dabe
000002f0: f8f5 f13c cc2b 05bd 0e4c 443e 691f 973d
00000300: d00b 113e 97db c9bc 0b66 50be b0c0 b33c
00000310: 0cf1 03be 16e5 b23d 6e56 9d3d 991d 8b3e
00000320: 9ad5 28be dac4 d1bc 4cb9 3fbe d298 1bbe
00000330: 9941 3bbc de68 0a3f ca5d 26be 5f49 d03e
00000340: f956 32bd ca0c 093d c922 e23d 806a 22be
00000350: af8b efbe bb19 f13d 586b dfbe 097f 7fbd
00000360: c2ee 43be 322e 38bd 3313 973d fa35 84be
00000370: 54ae 7cbe 17f7 abbc 5c75 07be 98b7 173e
00000380: a5df 6cbb 3638 83be 19b1 dcbe 3ae1 2fbd
00000390: 1f68 ed3d e95c 9a3c 9d1b 5bbd 6fc2 9cbd
000003a0: 4521 c6bd 7a02 26be 5d63 2dbe a957 cdbd
000003b0: c47e 0f3f af3b d6bc afd1 1abe 2aba 36be
000003c0: c180 793d e752 0c3f c323 0dbc c5e3 013e
000003d0: e513 b73c ebec 8dbc 3d2d 14be cc73 dcbd
000003e0: 9b62 443e 772d e5bc 6b17 c5bd b4e6 91bd
000003f0: 46c9 1e3d d6e7 9bbe bd78 863b d385 09bd
-0.03720873 0.000903366 -0.05698381 0.13755427 0.06875786 0.10974575 0.054128516 0.03800312
0.052741986 -0.08438482 -0.044982847 0.073946826 0.112305164 0.0025714822 -0.086751066 0.024780147
-0.06060612 0.073705666 0.054990217 -0.09780825 -0.042834375 0.02782041 0.16063039 -0.08854974
0.009868967 -0.008934394 -0.004006014 0.53501236 0.22165786 0.1451633 0.04004907 -0.051956188
0.045802306 -0.05413057 -0.20056768 0.1879987 0.015767694 0.12694916 -0.06353954 0.76964486
0.03321456 -0.058109537 -0.01503954 0.26918435 0.3278221 -0.00866541 -0.05252839 -0.115084104
-0.5997952 -0.116850615 0.08315047 0.03878287 0.039991062 0.07483183 -0.044868756 0.03534151
-0.060062665 -0.3323031 -0.061260585 -0.12183673 -0.07783102 0.035939313 0.119070515 0.059657335
0.03555405 0.10948552 0.12288342 0.07255111 0.06084566 0.040546626 0.026056781 -0.44943765
-0.67035085 -0.025406498 0.04894216 -0.092855014 -0.047220442 0.4099812 -0.057108197 -0.09157748
0.21703 -0.4498314 0.09406595 -0.13561979 -0.36387676 0.014853437 -0.39367327 -0.050898783
-0.10933556 -0.01770315 0.10283177 -0.7586595 -0.2864112 -0.1198451 -0.07624658 0.113462105
0.023293491 -0.06305078 0.13057461 -0.05831144 0.09557805 0.023229348 -0.050126217 -0.016341936
-0.004100189 -0.047180027 -0.5674876 -0.04647258 -0.073728025 -0.040613327 -0.014185802 -0.021176971
-0.0009793291 0.41124564 -0.06070753 -0.08228239 -0.07974067 -0.13429324 -0.082919165 -0.080790244
0.16019619 0.0183067 -0.15736872 0.1527125 -0.016626252 -0.17235188 0.0040693376 -0.051855467
0.03757307 -0.06173027 -0.06005323 0.118203074 -0.039507292 0.0699781 0.3123319 0.04680298
0.26407546 -0.030689424 0.08331986 0.0424804 0.12050182 0.010275536 -0.0672523 0.019561052
0.012804013 0.07329631 -0.022910843 -0.33217332 -0.24612154 0.0069258814 0.20032685 -0.08554103
-0.14392366 0.07744766 0.03530405 0.60678893 0.16521458 0.03629302 -0.002599658 -0.18116081
0.055573225 0.021486545 0.14465475 0.22083992 -0.09760834 0.27862343 -0.123277605 0.28840023
0.040493824 0.07210132 -0.058732048 -0.13364044 0.57099795 -0.030678613 -0.06299302 0.12276443
-0.3724172 -0.107263565 0.08995972 -0.025690058 -0.044351216 0.030930711 0.059859373 0.095332675
-0.098964766 0.3558462 -0.06306707 -0.42621547 0.029536232 -0.03251247 0.19169638 0.07379038
0.14164662 -0.024640841 -0.20351426 0.021942466 -0.12884921 0.08735101 0.07682501 0.2717102
-0.16487733 -0.025606561 -0.18723029 -0.15195015 -0.011429214 0.54066265 -0.16246715 0.40680978
-0.043539975 0.033459462 0.11041791 -0.15860939 -0.46786258 0.11772486 -0.43636584 -0.06237701
-0.19134048 -0.04496593 0.07376709 -0.2582243 -0.24675876 -0.020991845 -0.13228363 0.14816129
-0.0036144045 -0.25628823 -0.43103865 -0.042939402 0.11592125 0.018843131 -0.05349313 -0.07654273
-0.096743144 -0.16211882 -0.16932435 -0.100264855 0.56052804 -0.026151506 -0.1511905 -0.17844453
0.060913805 0.54814 -0.008614483 0.12684543 0.022348354 -0.017324885 -0.14470382 -0.10764274
0.1917824 -0.02797578 -0.09623607 -0.07124081 0.038766168 -0.30450314 0.0041037486 -0.03357489

fc_forecast.bias f4 [34]
00000000: ceb0 e13e 51b5 c13e 60b9 e13e 700a be3e
00000010: ea7b df3e 20fc bd3e 4781 df3e d517 c23e
00000020: 28b8 dc3e 9e0b c33e fc7e e33e 7a62 e03e
00000030: b422 d63e d0f4 e03e 3ddb ee3e 7357 023f
00000040: 80d1 d83e 961d 043f 3ee9 f33e bb11 093f
00000050: bb26 e13e a1d3 0c3f 682d ea3e 702a 143f
00000060: ac24 e33e 485b 153f f5ab f33e ca56 253f
00000070: 099d ef3e 9010 263f 9a54 fc3e 4211 3b3f
00000080: c192 fb3e 27dc 3b3f
0.44080204 0.37833646 0.44086742 0.37117338 0.43649226 0.3710642 0.43653318 0.37908807
0.4310925 0.380948 0.4443282 0.43825132 0.4182335 0.43936777 0.4665164 0.50914687
0.42347336 0.51607645 0.47638887 0.5354268 0.43974862 0.5501042 0.45737767 0.57877254
0.44363916 0.5834241 0.4759213 0.64585555 0.46799496 0.6486902 0.49283296 0.7307321
0.49135402 0.733828

fc_class.weight f4 [2, 128]
00000000: c7cd a5be 0c32 d73e bce3 f4be ce77 0f3f
00000010: 53e7 a73c 5c99 e43d 542e ddbe 8847 b6be
00000020: 6665 a9be 933b 5ebe 356b d13e 7fd5 5a3e
00000030: ab59 903e 3cfd 90bf 1b17 eb3f 9a36 163f
00000040: ad71 84be 24bc 97bf c53e 3bbe 612c 19bf
00000050: 85bb 863d f3da b93f 4abf 2fbf 69bf 5cbe
00000060: e30a 1cbf d463 8abc dc8a acbf 8843 513f
00000070: 7bb4 f53e 23f9 2d3f 34b5 ce3e d8de 7a3f
00000080: 9fd8 643f f5ea b93e ee55 eabe b773 c0be
00000090: 226b b1be cda9 a93f 69ba eb3d 112e fd3e
000000a0: f226 37bf bbb9 073f 6e13 1c3f b7e0 66bf
000000b0: d9cd 57be 1942 083d f3da e9bf a55b 17bf
000000c0: 0b3b e03e 71ce 29bf d000 99bf 02f8 92bf
000000d0: acfe 683f 9124 883f a2fd 323e d64e b7bf
000000e0: 6024 b33c 5f0b ccbe e38f 82be 5065 3b3e
000000f0: 961a 58bf d40c ec3e b69a 87bf 43da 9a3e
00000100: 252f cd3e b83d 873e e5b0 a5bc c994 b1be
00000110: 984c 86be 2923 abbf 893a 24bf 5d2e ea3e
00000120: 56cb 23be ae04 60bf 9d90 bebe 73c8 763f
00000130: 2b0d c23e a26e d4be 6ab4 50bf 018c edbd
00000140: b650 3b3f a98e 19bf 6700 c03e cf91 9dbd
00000150: f68b e93d be39 2a3e 7937 2bbf 82bb 2bbf
00000160: 0b7a 6cbf 7f05 ed3f abf7 82be 7d27 0a3e
00000170: 97d5 00bf 3f48 07bf c373 e0bc ba4d 08be
00000180: f2b8 22bf b90e 0a3f e6f1 0a3f 4842 323e
00000190: 2869 c73e 6554 663e 430e 6d3f 5c48 4b3f
000001a0: 1fb9 c3be e6e9 ff3e 3abd 593e 1f8f 393f
000001b0: e9f9 7b3e 0c31 9ebe d549 803e 9443 1abf
000001c0: 9f83 003f d84d 863f 0371 92be 0816 e3be
000001d0: 3a09 1e3f ec15 64be 806c 493e b843 203e
000001e0: 689e a1be 812d a0be 6a0c f3bf 582b 97be
000001f0: fc00 743f f7f6 763f f6a2 e9bf bfd1 2a3f
00000200: 87cb 963e abbe b5be 921b e33e 684a 0dbf
00000210: 5d71 38be 76eb 64be b60d f73e d524 aa3e
00000220: 6261 cf3e bb25 4a3e 7afa cebe 9a58 81bd
00000230: 0eef 99be 2283 8c3f 37c3 ddbf ecc1 19bf
00000240: db9c 553e 5458 a03f 592e 773e 8905 1e3f
00000250: ec35 3ebb 29ef b3bf 5ec3 123f ece9 0d3e
00000260: 98a6 403f 1028 e4bd df9f ba3f 9e2f 3fbf
00000270: c601 eebe d74c 31bf 4ce7 9abe b03c 87bf
00000280: 5327 68bf 6da4 d1be 4740 e73e cbeb b53e
00000290: 9bbd dc3e 2dfa a8bf cde1 bbbd 4e1b 15bf
000002a0: fbf4 283f 9b1a f9be cc65 08bf 00e9 613f
000002b0: 2b57 783d 377d 08bd 1496 f23f 6bdd 043f
000002c0: d801 a3be cdab 323f 1970 a13f eb01 843f
000002d0: aec7 64bf 6149 80bf 9dfb 05be ad9b b13f
000002e0: f9ff 08be 00c4 ef3e 1f45 5c3e 8918 9ebe
000002f0: 9852 603f 860c ecbe 0f23 6b3f b7ef 80be
00000300: 2d3e 8bbe 4e4e a5be 0099 33bc 5c49 993e
00000310: e7eb 8e3e 9729 a43f ce4e 433f 2ed2 03bf
00000320: 5aa6 5a3d 96a4 513f 5edf bb3e 9c9d 6dbf
00000330: a525 b9be 4730 da3e a839 573f dd08 b33d
00000340: 767f 33bf 7ac1 373f b545 ccbe 7f08 713d
00000350: 5930 53be 02ed 80be 63f8 463f 45c5 303f
00000360: 5717 803f b228 e8bf 6281 843e 3df2 7dbe
00000370: cdc5 dd3e 8895 023f 5fe5 6ebd af22 b23d
00000380: ed5c 073f fc46 00bf 5d8d 16bf 18f1 d1bd
00000390: cda7 cfbe 491c 9abe 04ee 60bf b6a9 50bf
000003a0: fcbb cb3e 1ed4 c1be 83c1 53be 5dea 4cbf
000003b0: 19ee 4fbe 1422 933e fb1f acbe ec1f f93e
000003c0: e6c6 17bf c3d1 87bf b679 613e 463d 013f
000003d0: a529 20bf f859 493e 4e86 44bd e7ae 25be
000003e0: 27d5 453e 13c1 b13e 19af f13f b0ee d43e
000003f0: eba9 76bf 1727 70bf 3249 f53f 5f4e 2fbf
-0.32383558 0.4203037 -0.47829998 0.5604218 0.020496046 0.111620635 -0.43199408 -0.3560145
-0.33085173 -0.21702413 0.40902105 0.21370505 0.2819341 -1.1327281 1.8366426 0.58677065
-0.25867978 -1.1854291 -0.18285663 -0.5983334 0.06578735 1.4519943 -0.6865126 -0.21557392
-0.6095411 -0.016893305 -1.3479877 0.8174367 0.47989258 0.6795828 0.40372622 0.9799628
0.8939304 0.3631207 -0.45768684 -0.37588283 -0.34652048 1.3254944 0.11510164 0.49449208
-0.715438 0.5301778 0.6096715 -0.9018664 -0.21074618 0.03326616 -1.8269943 -0.59124213
0.43795046 -0.6633063 -1.1953373 -1.1481936 0.910136 1.0636159 0.17479566 -1.4320934
0.02186793 -0.39852425 -0.25500402 0.18300366 -0.84415567 0.46103537 -1.0594089 0.30244645
0.4007503 0.26414275 -0.020225951 -0.34683827 -0.2623031 -1.3370105 -0.6415182 0.45738497
-0.15995535 -0.8750714 -0.37219706 0.9639961 0.3790067 -0.41490656 -0.8152529 -0.11598969
0.7317003 -0.5998331 0.37500307 -0.076938264 0.114036486 0.1662359 -0.6688152 -0.6708299
-0.9237372 1.8517302 -0.2557958 0.13491626 -0.5032591 -0.52844614 -0.02739895 -0.133109
-0.63563454 0.53928715 0.5427536 0.17408097 0.38947415 0.22493131 0.92599887 0.79407287
-0.38227174 0.49983138 0.2126359 0.7248401 0.24607052 -0.30896795 0.2505633 -0.60259366
0.5020084 1.0492506 -0.28601846 -0.44352746 0.6173283 -0.22273988 0.19670296 0.15650833
-0.31566167 -0.31284717 -1.8988163 -0.29525256 0.95314 0.9647059 -1.8252857 0.667263
0.29452154 -0.3549703 0.44356972 -0.5519166 -0.18011995 -0.22355446 0.48252648 0.33231226
0.40503985 0.19740956 -0.40425473 -0.063157275 -0.30065197 1.0977519 -1.73252 -0.60061526
0.20860617 1.2526956 0.24138774 0.61727196 -0.002902384 -1.4057361 0.57329357 0.13858765
0.752542 -0.11140454 1.4580039 -0.74682033 -0.46485728 -0.69257873 -0.3025459 -1.0565395
-0.90685004 -0.4094576 0.45166227 0.35531458 0.43113407 -1.3201348 -0.091739275 -0.5824479
0.6599881 -0.4865311 -0.5328033 0.88246155 0.060630005 -0.03332254 1.895205 0.51900357
-0.31837344 0.697934 1.2612334 1.0313085 -0.8936719 -1.0022393 -0.13084264 1.3875633
-0.13378896 0.46829224 0.21510743 -0.30878094 0.8762603 -0.46103305 0.9185037 -0.25182888
-0.27195874 -0.32286304 -0.010961771 0.2993878 0.27914354 1.2825192 0.7629212 -0.51492584
0.0533813 0.81891763 0.36693853 -0.9281862 -0.36161533 0.42614958 0.8407235 0.08741925
-0.70116365 0.71779597 -0.39896932 0.058845993 -0.20623912 -0.25180823 0.7772276 0.6905101
1.0007123 -1.8137419 0.2587996 -0.24799438 0.43314973 0.51009417 -0.058324214 0.086980216
0.5287617 -0.50108314 -0.58809453 -0.10251063 -0.4055771 -0.30099705 -0.87863183 -0.8150896
0.39791858 -0.37857145 -0.20679288 -0.8004511 -0.20305671 0.28736937 -0.3361815 0.48657167
-0.5928787 -1.0610889 0.22019085 0.5048412 -0.62563545 0.19663227 -0.047979645 -0.16180001
0.19319592 0.34717616 1.888156 0.41588354 -0.96353024 -0.93809646 1.9162962 -0.6847896

fc_class.bias f4 [2]
00000000: ec42 b73c af03 21be
0.022370778 -0.15724061
