code/results/saved_models/lstm_1000.pt (torch, 357551 bytes, 8 tensors)

lstm.weight_ih_l0 f4 [512, 34]
0	0x3dccf26d	0.100071765
1	0x3bd80574	0.006592447
2	0xbd0ce187	-0.034394767
3	0x3d70a831	0.05875415
4	0x3d9711ce	0.07376443
5	0x3d9aa7e0	0.07551551
6	0xbd196ffe	-0.03746032
7	0x3da4425f	0.08020472
8	0x3d884c42	0.0665517
9	0x3d855bbe	0.06511639
10	0x3d83ad99	0.064295955
11	0x3cfb1d33	0.030653572
12	0xbc9ac360	-0.01889199
13	0x3da522ff	0.080633156
14	0xbc0678dc	-0.008207526
15	0xbb03975e	-0.0020079236
16	0x3de09aab	0.109670006
17	0xbce4fbd3	-0.02795211
18	0xbd7c971a	-0.06166754
19	0x3de0d3bd	0.10977886
20	0xbb061064	-0.0020456547
21	0x3dd0b656	0.10191028
22	0xbda76c87	-0.08174997
23	0xbcbc34cc	-0.022974394
24	0xbcf37876	-0.029720526
25	0x3c8e5436	0.01737414
26	0xbdaccebf	-0.08437871
27	0x3cb9c59d	0.022677237
28	0xbc7e2c3a	-0.015513474
29	0xbd0eb58d	-0.03484111
30	0xbd6561a2	-0.056001313
31	0x3d8cae15	0.06869141
32	0xbdaf1672	-0.08549203
33	0xbc98452f	-0.018587677
34	0x3d59406e	0.05303996
35	0x3e1920cf	0.14953922
36	0x3d8226cf	0.063550584
37	0x3d8356a2	0.06413008
38	0x3e019a97	0.12656628
39	0x3e18259e	0.148581
40	0x3c7c417e	0.015396474
41	0x3dff14f6	0.1245517
42	0x3db40d24	0.08791569
43	0x3e07faba	0.13279238
44	0x3dd86f3d	0.10568092
45	0x3e1ce38c	0.15321177
46	0x3d5c66e2	0.053809054
47	0x3e253855	0.1613477
48	0x3d6b71c1	0.05748153
49	0x3c3a3ed7	0.011367521
50	0x3d25d451	0.040485684
51	0x3e03cc2b	0.12870853
52	0x3de9e448	0.11420494
53	0xbc28a2e1	-0.01029274
54	0x3cd0e606	0.025500309
55	0x3bf0c5df	0.007347807
56	0x3bbd9723	0.005785839
57	0x3d29a7c8	0.041419774
58	0x3e098dda	0.13433018
59	0xbbfaa54a	-0.0076490985
60	0x3e30e825	0.17276056
61	0x3d87e7e2	0.06636025
62	0x3d82e586	0.06391434
63	0x3dd773f6	0.10520165
64	0x3d1523ec	0.03641121
65	0xbaddd0ad	-0.0016923152
66	0x3e206b41	0.15665914
67	0xbbf4fa5f	-0.0074761356
68	0xbba8593b	-0.00513759
69	0x3d9c49e6	0.076312825
70	0x3dd06b1e	0.10176681
71	0x3d6c6762	0.05771578
72	0x3da212f9	0.07913775
73	0x3d51ab3d	0.051188696
74	0x3e020a16	0.1269916
75	0x3daa27bc	0.0830836
76	0x3da71230	0.08157766
77	0xbc16b05a	-0.009197319
78	0x3d976665	0.07392577
79	0x3e08c547	0.13356505
80	0x3e106835	0.14102252
81	0x3e1b7ac3	0.15183549
82	0x3d3f6890	0.046730578
83	0x3dc06d63	0.09395864
84	0x3cdd3341	0.027001979
85	0x3e0452d9	0.12922229
86	0x3e1fe5de	0.15615031
87	0x3e42d6b6	0.19027218
88	0x3d6cdf9d	0.05783044
89	0x3e28a411	0.16468836
90	0x3dae2bf3	0.085044764
91	0x3dd783b5	0.10523168
92	0x3d7db067	0.06193581
93	0x3dfab76f	0.122420184
94	0x3d826f71	0.06368912
95	0x3e1674b7	0.1469296
96	0x3dda05a5	0.10645608
97	0x3e19629a	0.1497902
98	0x3e3db675	0.18526633
99	0x3e0e00d3	0.13867502
100	0x3de1920a	0.11014183
101	0x3e26b40c	0.1627962
102	0x3d182e8c	0.037153766
103	0x3e3a616e	0.18201229
104	0x3dc874bc	0.0978789
105	0x3e08a984	0.13345915
106	0x3d3586b3	0.044317912
107	0x3e2e55f2	0.17024973
108	0x3e151d72	0.14562014
109	0x3e4d51f7	0.20050798
110	0x3e40ebf7	0.18840013
111	0x3e4acca0	0.1980462
112	0x3dd68f82	0.10476591
113	0x3ddb4760	0.10706973
114	0x3db7f8b0	0.0898298
115	0x3be2b01d	0.006917967
116	0x3d4c1e1f	0.049833413
117	0x3debd75d	0.11515687
118	0x3deb7ca8	0.11498386
119	0x3e026a96	0.12735972
120	0x3d620252	0.055177994
121	0x3dac6a7a	0.08418746
122	0x3e003a65	0.12522276
123	0x3e31a7d9	0.17349185
124	0x3d0902ac	0.033449814
125	0x3dbaba10	0.0911752
126	0x3e202f11	0.15642954
127	0x3dcde081	0.10052586
128	0x3e2d0d38	0.16899574
129	0x3e32b5ad	0.17452116
130	0x3e0deefc	0.13860697
131	0x3e069f49	0.131467
132	0x3e0804e1	0.13283111
133	0x3e7eb156	0.24872336
134	0x3e64177d	0.22274585
135	0x3e84bc1b	0.25924763
136	0x3d998452	0.07495941
137	0x3e0c0f3c	0.13677686
138	0x3dded6c4	0.10880807
139	0x3ac9c3d1	0.0015393441
140	0x3df02276	0.11725323
141	0x3d602722	0.05472482
142	0x3db91e11	0.09038938
143	0x3db452fa	0.08804889
144	0x3cc6d337	0.024270637
145	0x3cb36d45	0.02190269
146	0x3dbc6be9	0.0920027
147	0x3db87633	0.0900692
148	0x3decc293	0.115605496
149	0x3e49a6b4	0.19692498
150	0x3e34dfb3	0.1766346
151	0x3e26fdd8	0.16307771
152	0x3d928b87	0.07155519
153	0x3d21d7b9	0.03951237
154	0x39239dc0	0.00015603658
155	0x3e140ef0	0.14458823
156	0x3bc5fd82	0.0060421834
157	0x3d35a314	0.044344977
158	0x3d64acc5	0.05582883
159	0x3e3fdbb3	0.18736152
160	0x3d4baff8	0.049728364
161	0x3d19d115	0.03755291
162	0x3d8b90c4	0.06814721
163	0x3e0d97df	0.13827465
164	0x3e0abb6b	0.13548057
165	0xbbc072c4	-0.005873056
166	0x3dbe1e9d	0.09283183
167	0xbd95f9f3	-0.07323065
168	0xbcebe61f	-0.028796254
169	0xbd1f251c	-0.03885375
170	0x3df97c6f	0.12181937
171	0x3e063d4d	0.13109322
172	0x3df5b254	0.11996904
173	0x3d07e2f1	0.033175413
174	0x3dd60362	0.10449864
175	0x3dc8004d	0.09765682
176	0x3db7349c	0.08945581
177	0x3c5d5249	0.013508388
178	0x3cc5b31d	0.02413326
179	0x3da6223b	0.08111998
180	0x3d754fec	0.059890673
181	0x3e0db9c6	0.13840398
182	0x3d45b537	0.048268523
183	0x3c7a4d61	0.015277238
184	0x3e38a282	0.18030742
185	0x3e0209f1	0.12699105
186	0xbd458032	-0.04821796
187	0x3d57d07a	0.052689053
188	0x3d8357de	0.06413244
189	0x3e1af4cc	0.15132445
190	0x3dccf38f	0.100073926
191	0x3dd2f551	0.10300697
192	0x3e0e08db	0.13870566
193	0x3e1207ea	0.14260831
194	0x3c8e92bd	0.017403955
195	0x3dbaed85	0.091273345
196	0x3dc7ba3e	0.0975232
197	0x3e272d37	0.16325842
198	0x3dd64394	0.10462108
199	0x3bea5db4	0.0071522836
200	0x3d00d616	0.03145417
201	0x3b2373ae	0.0024940777
202	0x3d5232dc	0.051318035
203	0x3dd225c2	0.10261108
204	0xbcb6f322	-0.022332732
205	0x3d4d09ba	0.050058104
206	0x3d48f2b6	0.049059592
207	0x3d1546b0	0.036444366
208	0xbd5f4a51	-0.054514233
209	0x3c23f81a	0.0100078825
210	0xbce9b33d	-0.02852785
211	0x3d2791ef	0.040910657
212	0xbd8e3164	-0.06943014
213	0x3c4982e5	0.012299274
214	0xbcc97072	-0.02458975
215	0xbc888a70	-0.016667575
216	0xbc4212c9	-0.011845299
217	0xbcd38cd0	-0.02582398
218	0x3e05eb8b	0.13078134
219	0x3d12e858	0.03586611
220	0x3d3ad504	0.045613304
221	0x396290b9	0.00021606953
222	0x3e0be5d0	0.13661885
223	0xbd27fa99	-0.041010473
224	0x3a8a4bff	0.0010551213
225	0x3d86ab6d	0.065756656
226	0x3dc95071	0.09829796
227	0x3d1c7888	0.038200885
228	0x3c56ae26	0.013103044
229	0x3cf3455b	0.029696157
230	0x3bfe73b7	0.007765259
231	0x3dd0b64f	0.101910226
232	0x3d0a6f9f	0.033797856
233	0x3ddc1344	0.10745862
234	0x3e454250	0.19263577
235	0xbc4333da	-0.011914218
236	0x3e19cccf	0.15019535
237	0xbd23d7dc	-0.04000078
238	0xbda8105d	-0.08206246
239	0x3d2a439d	0.041568387
240	0x3c8b818c	0.017029546
241	0x3e0f95b4	0.14021951
242	0x3d2e249b	0.04251538
243	0x3bcf0e80	0.006318867
244	0x3d9c0233	0.07617607
245	0x3d95614e	0.0729395
246	0xbd8649e5	-0.06557063
247	0x3d38e748	0.045142442
248	0xbddccd6a	-0.10781367
249	0x3da4ae32	0.080410376
250	0xbd486028	-0.048919827
251	0xbd515c74	-0.05111356
252	0xbd832fe5	-0.064056195
253	0xbccc1b66	-0.024915408
254	0xbd9c31ce	-0.07626687
255	0x3d754861	0.05988348

lstm.weight_hh_l0 f4 [512, 128]
0	0xbd3f67a6	-0.046729706
1	0xbdad9a17	-0.08476656
2	0x3d0f0581	0.03491736
3	0xbdce199b	-0.100634776
4	0xbddea35e	-0.108710036
5	0x3c89f389	0.01683976
6	0xbd218b28	-0.03943935
7	0xbc756f6e	-0.01498018
8	0x3c5e5e80	0.013572335
9	0x3c5db748	0.013532467
10	0xbd704279	-0.058657143
11	0x3d93b710	0.07212651
12	0xbdd8f86a	-0.10594256
13	0x3d06067d	0.03272103
14	0x3d965737	0.07340854
15	0x3d3c0b9f	0.04590952
16	0xbd7e9634	-0.062154964
17	0x3c94ae00	0.018149376
18	0xbd64a226	-0.0558187
19	0xbd63d3ce	-0.055621915
20	0x3c952c7a	0.018209685
21	0x3c8f9d0c	0.01753094
22	0x3d970444	0.073738605
23	0x3ba8c618	0.0051505677
24	0x3d964ec2	0.073392406
25	0x3bbcec26	0.005765456
26	0xbbf47295	-0.0074599483
27	0x3db4fc44	0.08837178
28	0x3d9c6e49	0.07638223
29	0x3c1caec9	0.009563156
30	0x3d3b0b96	0.045665346
31	0x3e01e535	0.12685092
32	0xbc74c146	-0.014938658
33	0x3cc4c6ba	0.024020541
34	0xbd806cd7	-0.062707596
35	0x3c774640	0.0150924325
36	0x3d8ec2f3	0.06970777
37	0xbb8a68dc	-0.004223926
38	0xbc83e01f	-0.01609808
39	0xbd07187b	-0.03298233
40	0xbd8d750c	-0.069070905
41	0xbd72578e	-0.05916553
42	0x3b99d461	0.004694507
43	0xbd0c0f53	-0.0341943
44	0xbdba6ddd	-0.09102986
45	0xbd8833c1	-0.06650496
46	0xbd9f8977	-0.07789891
47	0xbd8d4c42	-0.06899311
48	0x3d8e677e	0.06953333
49	0x3cb8d4db	0.022562435
50	0xbd7a3cb0	-0.061093032
51	0xbd3ae382	-0.045627125
52	0xbde7d2b9	-0.11319489
53	0xbd2bee28	-0.04197517
54	0xbc20d94a	-0.009817431
55	0x3cb15a6d	0.021649564
56	0x3d97f547	0.0741983
57	0x3ce7dada	0.028302599
58	0xbd1ac46c	-0.03778498
59	0xbd47590f	-0.048668917
60	0x3d6f530b	0.058428805
61	0x3d51d7a5	0.051231045
62	0x3d73c2c2	0.059511907
63	0xbcbdc43e	-0.023164865
64	0xbc24f270	-0.010067567
65	0x3d297c2b	0.04137818
66	0xbbb479da	-0.00550769
67	0x3da0e084	0.07855323
68	0xbd6ff643	-0.058584463
69	0x3d4e28cd	0.05033188
70	0x3d5e47df	0.05426776
71	0x3e013483	0.12617688
72	0xbbad1e87	-0.00528318
73	0x3d4f88ef	0.0506677
74	0x3daba6db	0.083814345
75	0x3c8fa5ae	0.017535057
76	0xbdaa8aba	-0.08327241
77	0xbd3fb143	-0.04679991
78	0xbd2607ac	-0.04053466
79	0xbd05a7ff	-0.032630917
80	0xbcb8fb8d	-0.022580886
81	0x3ce653f0	0.028116196
82	0xbd9455b9	-0.07242913
83	0xbd22ee89	-0.039778266
84	0x3cc3085f	0.023807703
85	0x3be47162	0.006971524
86	0xbc858160	-0.016297042
87	0x3dad78d9	0.084703155
88	0x3e08b15f	0.13348912
89	0xbbcabeaa	-0.0061872797
90	0xbd8ef26d	-0.06979833
91	0x3dd0fa29	0.10203964
92	0x3dc41b87	0.09575563
93	0xbde6c871	-0.112687
94	0xbd03da20	-0.032190442
95	0xbde045a9	-0.109507866
96	0xbd1e080b	-0.03858189
97	0x3dcb3e65	0.0992401
98	0x3c8b1ee0	0.016982496
99	0x3d8f6019	0.07000751
100	0xbd9d8c91	-0.076928265
101	0xbd26f747	-0.040763166
102	0xbd6dea3d	-0.058084715
103	0x3d703a7b	0.05864952
104	0xbca11949	-0.019665377
105	0xbcd0460c	-0.025424026
106	0xbc5aedda	-0.013362372
107	0x3b362374	0.0027792128
108	0xbcac1dac	-0.021010242
109	0xbd845602	-0.06461717
110	0x3cd2c877	0.025730355
111	0x3cc0f770	0.023555487
112	0xbca0b393	-0.019616878
113	0xbc717cf8	-0.0147392675
114	0x3d689656	0.056783997
115	0xbd170302	-0.036868103
116	0xbdbb3577	-0.09141057
117	0xbd937ece	-0.072019204
118	0x3dce6c2e	0.100792274
119	0xbd7315f0	-0.059347093
120	0xbdc1b8fc	-0.09459111
121	0x3d52e9f0	0.05149263
122	0x3d7ef6da	0.062247135
123	0xbd0b8df3	-0.03407092
124	0xbd920f68	-0.07131845
125	0xbd0ca14e	-0.03433352
126	0x3df19d23	0.117975496
127	0xbdead30c	-0.11466035
128	0xbc48b364	-0.012249801
129	0x3d07f1aa	0.033189453
130	0x3d286cf2	0.041119523
131	0xbda69604	-0.08134082
132	0x3d9cd447	0.07657676
133	0xbe1e179c	-0.15438694
134	0x3bf6228a	0.0075114416
135	0x3c7acf75	0.015308251
136	0xbd89f095	-0.067353405
137	0xbdafb271	-0.08578957
138	0xbda57259	-0.08078451
139	0xbd850d30	-0.06496656
140	0xbde7258d	-0.11286459
141	0x3d7ab6fc	0.061209664
142	0x3d085a23	0.033289086
143	0x3be847b7	0.007088627
144	0xbbbe2a3d	-0.005803375
145	0xbd98431b	-0.07434674
146	0x3dc2a543	0.095041774
147	0xbd9f2c31	-0.07772101
148	0xbd1c01d5	-0.038087685
149	0x3d1e579e	0.038657777
150	0xbd53ff11	-0.051756922
151	0xbdc42b4b	-0.0957857
152	0xbd80ee18	-0.06295413
153	0x3daf9cfd	0.08574865
154	0x3e020480	0.12697029
155	0xbdbe12a1	-0.09280897
156	0x3d2772c1	0.040880922
157	0x3ba77cd5	0.0051113167
158	0x3d79d5f7	0.06099507
159	0x3ddce11e	0.10785125
160	0xbd2533d3	-0.040332627
161	0xbba977cb	-0.005171751
162	0xbd742d88	-0.059613734
163	0xbd5fc5cd	-0.054631997
164	0x3d6d1ba4	0.05788769
165	0x3d2ae7a4	0.041724816
166	0x3d3b5450	0.045734704
167	0xbcbb89cf	-0.02289286
168	0x3d180090	0.03710991
169	0xbca14ebc	-0.019690864
170	0x3c27d118	0.010242723
171	0xbc467831	-0.012113617
172	0xbdc1a8c9	-0.09456021
173	0xbbbb1e2d	-0.0057103843
174	0x3cbd3201	0.023095133
175	0x3cbc8272	0.02301142
176	0x3d19c7ca	0.03754405
177	0xbd57a047	-0.052643087
178	0x3cc587e5	0.024112651
179	0xbdf07e0f	-0.11742794
180	0x3d895e25	0.0670741
181	0xbdab091a	-0.08351345
182	0x3deb33e4	0.11484507
183	0x3d7e2700	0.062048912
184	0x3cd87faf	0.026428072
185	0xbcd9901d	-0.026557976
186	0xbc0b103d	-0.008487758
187	0xbda1b502	-0.078958526
188	0x3df316fd	0.11869619
189	0x3cce589d	0.025188738
190	0xbdf0f1a0	-0.11764836
191	0x3cc82913	0.024433648
192	0xbd4901da	-0.04907403
193	0xbb1e3f9d	-0.0024146803
194	0x3d2bb6ca	0.041922368
195	0x3cb268ac	0.021778427
196	0xbd500325	-0.05078425
197	0x3d446233	0.047945213
198	0xbd53d2ab	-0.05171458
199	0x3b6a2503	0.0035727627
200	0xbdbc4f09	-0.09194762
201	0x3e14530e	0.14484808
202	0xbccd1695	-0.025035182
203	0xbd5c9f11	-0.053862635
204	0xb9a0f595	-0.0003070055
205	0x3d0bd2ca	0.03413657
206	0x3d2c8c6f	0.042126115
207	0x3ca3cbfe	0.019994732
208	0x3d501d35	0.050809104
209	0xbc9ca599	-0.019121932
210	0xbdb497fe	-0.08818053
211	0xbd4ab124	-0.04948534
212	0xbc95b592	-0.018275056
213	0xbc2ba601	-0.01047659
214	0x3d75f068	0.060043722
215	0xbd901fb3	-0.07037296
216	0x3d6e1f94	0.058135584
217	0x3c4ca9bd	0.012491641
218	0x3e182813	0.14859037
219	0x3d92e19d	0.071719386
220	0xbcebd041	-0.028785827
221	0xbcaab10c	-0.020836376
222	0xbdd33e8f	-0.103146665
223	0xbd428064	-0.047485724
224	0xbd204a4e	-0.039133362
225	0xbd891abb	-0.066945516
226	0xbdb55774	-0.08854571
227	0xbb1f8cae	-0.0024345326
228	0x3d839893	0.064255856
229	0x3d12ec25	0.035869736
230	0x3d469469	0.04848138
231	0x3d4293f4	0.04750438
232	0x3db1db2d	0.086843826
233	0xbd188078	-0.037231892
234	0x3d0bd802	0.034141548
235	0x3dd50011	0.10400403
236	0xbd620b60	-0.05518663
237	0xbc9ff54d	-0.019526148
238	0xbd0ccb82	-0.034373768
239	0x3d1b12d6	0.03785976
240	0xbbe2b8ed	-0.0069190175
241	0xbd9d8257	-0.07690876
242	0x3d0143b5	0.03155871
243	0xbcdc4dbb	-0.026892534
244	0x3ccd73db	0.025079658
245	0xbd3b2bd5	-0.0456961
246	0xbc5197c5	-0.012792532
247	0xbdc6b80c	-0.09703073
248	0x3d3da0e3	0.04629601
249	0x3d878034	0.0661625
250	0x3d1ccf48	0.038283616
251	0x3d738886	0.05945637
252	0xbbcda67e	-0.006275951
253	0xbd8f3e96	-0.06994359
254	0x3dd58bec	0.104270786
255	0x3ddb0c90	0.106957555

lstm.bias_ih_l0 f4 [512]
0	0xbd213816	-0.03936013
1	0x3d41469f	0.04718649
2	0x3e253a5e	0.16135547
3	0x3e0f5a58	0.13999307
4	0xbc08efea	-0.008357981
5	0x3c4e613a	0.012596423
6	0xbc76cb34	-0.015063096
7	0xbcb39554	-0.021921791
8	0x3c798410	0.01522924
9	0xbd9a7dc7	-0.075435214
10	0xbd0c17f0	-0.034202516
11	0xbcfa1b32	-0.030530546
12	0xbd0b42a5	-0.033999104
13	0xbd7d5532	-0.061848827
14	0xbd15f418	-0.03660974
15	0x3d8b4486	0.06800179
16	0x3deaea29	0.11470444
17	0xbd7a1c23	-0.06106199
18	0x3d962105	0.07330517
19	0x3e1bb39c	0.15205234
20	0x3e009d27	0.12559949
21	0x3dd076a9	0.10178883
22	0x3bd631a3	0.006536679
23	0x3dceaa6c	0.10091099
24	0xbda4fc3a	-0.08055921
25	0xbc893ecc	-0.016753577
26	0x3d84e16c	0.06488308
27	0xbd9a66ef	-0.07539164
28	0xbc3ca730	-0.01151447
29	0x3d5555f3	0.05208392
30	0xbdb7ed0d	-0.08980761
31	0x3e207376	0.15669045
32	0x3daa9a85	0.083302535
33	0x3d838fb8	0.064238966
34	0xbb9e7635	-0.0048358687
35	0xbd59cb01	-0.053172115
36	0x3d518d9f	0.05116045
37	0x3ddc32bf	0.107518665
38	0x3d2aefb8	0.04173252
39	0x3b8fd2e5	0.0043891543
40	0x3bd6c316	0.006554018
41	0x3dc6d260	0.097080946
42	0xbcc3cfd8	-0.023902819
43	0x3c8f7757	0.01751296
44	0x3d33f832	0.04393787
45	0xbd12b4ac	-0.035816833
46	0xbcbb29b9	-0.022847043
47	0x3d8c53df	0.06851935
48	0xbafda6e8	-0.001935211
49	0x3ed451d9	0.41468695
50	0xbd099279	-0.033586953
51	0x3ccb6c9f	0.024832068
52	0x3d5b04ca	0.053471364
53	0xbd63b59c	-0.055593118
54	0x3d50989b	0.050926786
55	0xbc487855	-0.012235721
56	0x3de80fc9	0.11331136
57	0xbd3e91d5	-0.046525795
58	0x3d8dfa5d	0.06932519
59	0x3cc1ed4b	0.02367272
60	0x3cdd4e64	0.027014919
61	0xbd82c9d7	-0.06386154
62	0x3e146e11	0.14495112
63	0xbdd318aa	-0.10307439
64	0x3d27b205	0.040941257
65	0xbab6284d	-0.0013897509
66	0x3e30193c	0.17197126
67	0x3de46344	0.11151746
68	0x3dcc6cf3	0.09981718
69	0x3d842d4f	0.064539544
70	0x3c1ba3e8	0.0094995275
71	0x3d5c8901	0.053841595
72	0x3e1cb4b3	0.15303306
73	0x3d279f79	0.04092357
74	0x3d93e337	0.07221072
75	0x3d8dc8a8	0.06923038
76	0xbd4bd34c	-0.049762055
77	0xbd6cdde7	-0.05782881
78	0x3a6d14c4	0.0009043927
79	0x3d089490	0.033344805
80	0x3d357e32	0.044309802
81	0x3d1d41e4	0.038392916
82	0x3da8bcad	0.08239112
83	0x3de21d55	0.11040751
84	0x3d9ef230	0.07761037
85	0x3d378cec	0.044812128
86	0xbcd1bd75	-0.025603035
87	0x3d97de59	0.07415456
88	0x3d540a5c	0.051767692
89	0xbd736953	-0.059426617
90	0xbc83800d	-0.01605227
91	0x3dc80957	0.097674064
92	0x3dde14ff	0.108438484
93	0x3d93eea8	0.072232544
94	0x3cc4aea4	0.024009056
95	0x3dc4c4b0	0.09607828
96	0x3e101c99	0.14073409
97	0xbc88f8f7	-0.016720278
98	0x3e0a8edf	0.13531063
99	0x3d549a2e	0.05190485
100	0x3d87d408	0.066322386
101	0x3d779fe3	0.060455214
102	0x3d0c85ee	0.034307413
103	0x3dcc8c22	0.09987666
104	0x3caa6d30	0.020804018
105	0x3dd27549	0.102762766
106	0xbcf8d384	-0.030374296
107	0xbd32a60f	-0.043615397
108	0x3d5afdd6	0.053464733
109	0x3ce6ab1c	0.028157763
110	0x3dbd0637	0.09229701
111	0x3dda86d4	0.10670248
112	0xbd9b6a71	-0.075886615
113	0x3d5a6c73	0.05332608
114	0xbcc1d770	-0.023662299
115	0xbd5af6ee	-0.053458147
116	0xbd6513cf	-0.055927094
117	0x3da6f4ed	0.08152185
118	0x3e00e512	0.12587383
119	0xbd356091	-0.044281546
120	0x3da57976	0.080798075
121	0x3cf18a9d	0.029485041
122	0x3d971d90	0.073786855
123	0xbbdc3ae3	-0.006720887
124	0xbcd317c9	-0.025768178
125	0x3d848eab	0.06472524
126	0x3ddd8cd5	0.10817877
127	0xbd3af2a7	-0.045641568
128	0x3db156ec	0.08659157
129	0x3da3f772	0.08006181
130	0x3e35662c	0.17714757
131	0xbcfa1d3c	-0.030531518
132	0xbbc1c72a	-0.005913635
133	0x3cacebc1	0.02110851
134	0x3ddafda1	0.10692907
135	0x3cdb38cb	0.02676048
136	0x3b5d6d4d	0.0033787072
137	0xbc0ca871	-0.008585081
138	0xbd31517b	-0.043290596
139	0x3cc129f4	0.023579575
140	0x3daa8d63	0.083277486
141	0xbcbc3f8d	-0.022979522
142	0x3d66fb64	0.05639209
143	0xbd69da11	-0.05709273
144	0x3dc89bab	0.09795316
145	0x3dbaaeb7	0.091153555
146	0x3df29c9d	0.11846278
147	0x3c4e50ec	0.0125925355
148	0xbd9c6cf9	-0.076379724
149	0x3d85cd7a	0.06533332
150	0x3d1a85e2	0.037725337
151	0x3def1a2b	0.11674913
152	0x3c7d8862	0.015474411
153	0x3ca5ef67	0.020255757
154	0x3da94c37	0.0826649
155	0x3ca2d829	0.019878464
156	0xbca6f746	-0.020381581
157	0xbd129d73	-0.035794687
158	0xbdc8255e	-0.09772752
159	0x3da7dbcb	0.08196219
160	0x3d2e2bab	0.042522114
161	0x3d8b515b	0.06802627
162	0x3d30e6ea	0.043188967
163	0xbc6472cc	-0.013943385
164	0x3b8326bf	0.0040024216
165	0xbd0e6045	-0.03475978
166	0x3da53312	0.080663815
167	0x38c1a824	9.234276e-05
168	0xbd433ffe	-0.04766845
169	0x3c23c675	0.009996046
170	0x3c8aad67	0.016928388
171	0x3dacd8c5	0.08439783
172	0xbd4b9298	-0.04970035
173	0xbd42cccc	-0.04755859
174	0xbdb6cf53	-0.08926263
175	0xbd2b53d3	-0.041827988
176	0x3d825a62	0.063648954
177	0x3dc8d007	0.09805303
178	0x3d2fe598	0.042943567
179	0x3cf41d98	0.029799268
180	0x3cfc11cd	0.030770207
181	0x3dc420a9	0.09576542
182	0x3da8d9dc	0.082446784
183	0xbd59ffd9	-0.05322251
184	0xbd613935	-0.054986198
185	0xbcf5100e	-0.029914882
186	0xbbfe9715	-0.007769475
187	0x3d3d9d0b	0.046292346
188	0xbda0851a	-0.07837887
189	0xbdb04ff0	-0.08608997
190	0x3da2c6d0	0.07948077
191	0x3dc43af9	0.09581561
192	0x3d19837a	0.0374789
193	0x3cce43db	0.02517884
194	0xbd4087f2	-0.047004648
195	0xbc5d5f40	-0.013511479
196	0x3c577dbb	0.013152535
197	0x3bbf6ba8	0.005841691
198	0x3d85eaa5	0.065388955
199	0x3d6ec7e5	0.058296103
200	0xbba6b19e	-0.0050870916
201	0x3ddd440c	0.108039945
202	0xbd54a83d	-0.051918257
203	0xbd47397a	-0.0486388
204	0xbd0cfebf	-0.034422632
205	0x3dc29e1a	0.09502812
206	0x3d7765ac	0.060399696
207	0x3b08a99a	0.0020853044
208	0x3dab222a	0.08356126
209	0xbc1eead4	-0.009699542
210	0xbc3b162c	-0.01141886
211	0xbceee5df	-0.029162345
212	0x3d707ad7	0.0587109
213	0xbd71d324	-0.05903925
214	0x3da7f01f	0.08200096
215	0xbd29495f	-0.041329738
216	0x3de53723	0.11192157
217	0xbd6a1b55	-0.057154972
218	0xbd274a5b	-0.040842395
219	0x3d513328	0.051074177
220	0x3d09b329	0.033618126
221	0x3db90461	0.09034038
222	0x3d35663a	0.044286944
223	0x3bad088f	0.0052805613
224	0xbda182c0	-0.07886267
225	0x3bd0df87	0.006374303
226	0xbd4312c8	-0.047625333
227	0xbcb4b5d7	-0.022059364
228	0x3ce977e0	0.028499544
229	0xbd60b452	-0.054859467
230	0xbd41c4c5	-0.047306795
231	0xbc9a29e7	-0.018818809
232	0xbd079f51	-0.03311092
233	0x3b67759e	0.0035317908
234	0xbb97def1	-0.004634731
235	0xbc57462c	-0.013139289
236	0xbda90629	-0.08253128
237	0x3da168b1	0.078812964
238	0x3d22875d	0.039679874
239	0x3d945634	0.072430044
240	0xbc2b8f15	-0.010471125
241	0x3dac7b00	0.08421898
242	0x3bc41c91	0.0059848507
243	0x3cf78cfd	0.030218596
244	0x3d188b0f	0.03724199
245	0x3d4a9d03	0.049466144
246	0x3d01561b	0.031576257
247	0xbc8e94e3	-0.01740498
248	0xbd9bd1ae	-0.076083526
249	0xbd8a4431	-0.06751288
250	0x3d138f7d	0.036025513
251	0xbdba2998	-0.09089965
252	0xbdb87514	-0.09006706
253	0x3c896fff	0.016777037
254	0xbad0336f	-0.0015884469
255	0x3c443d5e	0.011977522

lstm.bias_hh_l0 f4 [512]
0	0x3d4fc05b	0.050720554
1	0x3d35747b	0.044300538
2	0x3debcf71	0.11514176
3	0x3e0ce44d	0.13758965
4	0x3d67d0ad	0.056595493
5	0x3d7f5dc8	0.062345296
6	0x3d359b7e	0.044337742
7	0x3d0069c3	0.031350862
8	0x3b05717f	0.0020361838
9	0xbd56bb14	-0.052424505
10	0x3c91a358	0.017778084
11	0x3a858fd6	0.0010189961
12	0xbd2ba7e5	-0.041908164
13	0x3d22ee1f	0.03977787
14	0xbba0a682	-0.004902662
15	0x3df3973a	0.118940786
16	0x3dfa9577	0.122355394
17	0x3c00c0e1	0.007858486
18	0x3da06f42	0.07833721
19	0x3dd01dbb	0.10161921
20	0xbbf43086	-0.0074520735
21	0x3d6aa206	0.057283424
22	0x3dde12df	0.10843443
23	0x3dbd6129	0.092470475
24	0xbcece405	-0.028917322
25	0xbc8085a9	-0.015688734
26	0xbd66e709	-0.056372676
27	0x3d32588c	0.043541476
28	0x3d9a024d	0.0751997
29	0xbd6b8541	-0.057500128
30	0x3d1ed3a6	0.038776062
31	0x3d2f714d	0.04283266
32	0xbc837cd8	-0.016050741
33	0x3d0f97f0	0.03505701
34	0x3d35eeb7	0.04441711
35	0xbd5064d0	-0.050877392
36	0x3d4c7fd1	0.049926583
37	0x3b7e4184	0.0038796375
38	0xbc3ae64d	-0.011407447
39	0x3d8f662f	0.07001912
40	0x3de676a1	0.112530954
41	0x3ca7f475	0.020502308
42	0xbd4a1d17	-0.04934415
43	0x3d1310a9	0.03590456
44	0x3ca91809	0.020641344
45	0x3e017c23	0.1264501
46	0xbba7b93a	-0.0051185163
47	0xbd35efc5	-0.044418115
48	0x3ddd8f4e	0.10818349
49	0x3eabeeac	0.3358053
50	0xbc638e5f	-0.013888924
51	0xbd78ecae	-0.06077259
52	0xbc6ce079	-0.014457815
53	0xbd249c70	-0.040188253
54	0x3df9b153	0.12192025
55	0xbc83029b	-0.015992453
56	0x3ddbe1b2	0.10736407
57	0x3cab527c	0.020913355
58	0xbd265713	-0.040610384
59	0x3de1244c	0.10993251
60	0x3d951d59	0.07280988
61	0xbcf1546a	-0.029459197
62	0x3d4bacd0	0.049725354
63	0xbcb58fbc	-0.022163264
64	0x3dc5e969	0.0966366
65	0xbce87053	-0.028373873
66	0x3dbbcf61	0.09170414
67	0x3dacff4c	0.084471315
68	0xbd768653	-0.060186695
69	0x3d0aab89	0.033854995
70	0x3daa1d82	0.083064094
71	0x3df6bee7	0.120481305
72	0x3d5e82ae	0.054323845
73	0x3dcd674b	0.10029467
74	0x3ad5f46c	0.0016323454
75	0x3cffe016	0.031234782
76	0xbd6e44d9	-0.058171127
77	0x3cc15040	0.023597836
78	0xbd251fc2	-0.04031349
79	0xbc61b104	-0.013775114
80	0xbb411352	-0.0029460979
81	0x3d55f3f4	0.052234605
82	0x3c192d66	0.009349203
83	0xbcc11fa8	-0.023574665
84	0x3dd937c4	0.106063396
85	0xbc9d5517	-0.019205613
86	0x3cba2bdd	0.022725994
87	0xbd3202b0	-0.043459594
88	0x3e1bef01	0.15227892
89	0xbc831029	-0.015998917
90	0x3d5c1e1c	0.053739652
91	0x3e10606a	0.14099279
92	0x3d52820a	0.051393546
93	0xbcb923c8	-0.02260007
94	0xbd85e5de	-0.06537984
95	0xbc8688bd	-0.016422624
96	0x3d919918	0.071092784
97	0x3d406dcb	0.046979707
98	0x3e2e1812	0.1700137
99	0xbd1f6be8	-0.038921267
100	0x3ce62940	0.028095841
101	0x3c4fde70	0.012687311
102	0x3d142001	0.036163334
103	0x3db6fee8	0.08935338
104	0x3d16a89e	0.0367819
105	0x3df83750	0.12119925
106	0xbc901863	-0.017589753
107	0xbb934b42	-0.0044950554
108	0xbcadf4f2	-0.021234963
109	0x3cfacfb9	0.030616628
110	0x3d6887ed	0.056770254
111	0x3ce82de5	0.028342197
112	0x3ca73963	0.020413106
113	0x3a8a1ea5	0.0010537697
114	0x3d3aff8c	0.045653865
115	0xbd9a47ef	-0.075332515
116	0x3be17a88	0.006881062
117	0x3b0f2259	0.002184054
118	0xbcf512b7	-0.02991615
119	0x3deea428	0.11652404
120	0x3e14c298	0.14527357
121	0x3da2b75d	0.0794513
122	0x3b6587ba	0.0035023526
123	0x3d522018	0.05130014
124	0x3ca45efa	0.02006482
125	0xbc1a6500	-0.009423494
126	0x3d3aaf08	0.04557708
127	0x3d64848e	0.055790477
128	0x3d56b77e	0.052421086
129	0xbb1342a1	-0.0022470134
130	0x3e19cf76	0.15020546
131	0xbd0029b6	-0.03128978
132	0x39fe4ee4	0.00048505433
133	0x3da890c7	0.08230739
134	0x3ca2bf16	0.019866508
135	0x3da4603a	0.08026166
136	0x3d189406	0.03725054
137	0xbd0ecf3a	-0.034865595
138	0xbd04ae01	-0.032392506
139	0x3d977fff	0.0739746
140	0xbc929d6b	-0.017897328
141	0xbd363e19	-0.044492815
142	0x3d03b07a	0.032150723
143	0xbb8ae1ec	-0.004238358
144	0xbd275a4a	-0.04085759
145	0xbac92b63	-0.0015348013
146	0x3defb6fd	0.11704824
147	0x3e00dc6b	0.12584083
148	0x3c352204	0.011055473
149	0x3db363c2	0.08759262
150	0xbcc9692d	-0.024586285
151	0x3c3e51f2	0.011616217
152	0xbcddbb0f	-0.027066736
153	0x3d857af7	0.06517594
154	0x3c36f8c4	0.011167709
155	0x3db4e1bf	0.0883212
156	0xbd0f2b47	-0.034953382
157	0xbd82176e	-0.06352125
158	0x3d0ebe7e	0.034849636
159	0x3d664599	0.056218717
160	0xbd1f50a5	-0.038895268
161	0xbda90b72	-0.08254136
162	0xbcbe5cec	-0.023237668
163	0xbd5fe5ca	-0.054662503
164	0xbda0e143	-0.07855465
165	0xbd49cc00	-0.049266815
166	0x3d56e729	0.052466545
167	0x3d883cdc	0.06652233
168	0xbd9ba163	-0.075991414
169	0x3ccce275	0.025010327
170	0xbcbc3298	-0.022973344
171	0x3d764dc4	0.060132757
172	0xbd9d8c12	-0.07692732
173	0xbd5d5a5c	-0.05404125
174	0xbc9a43f2	-0.018831227
175	0x3d42dbab	0.047572773
176	0x3d865afa	0.06560321
177	0xbd69baf1	-0.057063047
178	0xbccc7f09	-0.024962919
179	0xbda2f634	-0.07957116
180	0x3e12bb36	0.14329228
181	0x3d017ff5	0.03161617
182	0xbb3e987e	-0.0029082592
183	0xbd0046c1	-0.031317476
184	0x3ad23fa6	0.0016040697
185	0x3d9aa7d1	0.0755154
186	0xbda5a281	-0.08087636
187	0x3d4c1925	0.049828667
188	0xbb6c353a	-0.0036042468
189	0x3cae36a0	0.021266282
190	0x3e1dcd56	0.1541036
191	0x3d995532	0.07486953
192	0xbb74eb69	-0.003737176
193	0x3d7c4689	0.061590705
194	0x3cef1b7e	0.029187914
195	0xbd45cdff	-0.048292156
196	0xbcfa0122	-0.030518118
197	0xbdcae87b	-0.099076234
198	0xbcb62ff5	-0.022239665
199	0x3dda99da	0.10673876
200	0xbd006e65	-0.03135528
201	0x3db96969	0.090533085
202	0xbca70fcd	-0.020393277
203	0xbda7e346	-0.08197646
204	0xbbff2839	-0.0077867773
205	0xbc219f19	-0.009864592
206	0x3d93fcac	0.07225928
207	0x3da0446a	0.07825549
208	0x3d8a1020	0.06741357
209	0x3dc3417b	0.09533974
210	0x3d515427	0.051105645
211	0xbc3410ac	-0.010990303
212	0x3dcc5758	0.09977597
213	0x3dacf005	0.084442176
214	0xbda8b0f3	-0.082368754
215	0x3d38a049	0.045074735
216	0xbd0feb5c	-0.035136566
217	0xbd7f660b	-0.062353175
218	0x3de3d153	0.1112391
219	0x3d3957c0	0.0452497
220	0xbcf0c758	-0.02939193
221	0x3daf90ae	0.08572517
222	0xbbdb942e	-0.006701014
223	0xbc111c60	-0.008856863
224	0x3d98a617	0.07453554
225	0xbd2017a3	-0.03908504
226	0xbd63efaa	-0.055648483
227	0x3cce8c25	0.02521331
228	0x3d60996e	0.054833822
229	0xbaa87dd3	-0.0012854881
230	0xbc276c19	-0.010218644
231	0x3bfcb1db	0.0077116317
232	0x3d87457c	0.0660505
233	0xbca845d4	-0.02054111
234	0x3c8edebd	0.017440194
235	0xbaf2b4be	-0.0018517
236	0xbd678a27	-0.056528237
237	0xb9953d9a	-0.0002846539
238	0x3d8f4311	0.06995214
239	0x3e3880a5	0.18017824
240	0xbd40d581	-0.047078613
241	0x3df542f5	0.11975662
242	0x3b34bf08	0.0027579684
243	0xbc7f767f	-0.0155922165
244	0x3dbeb35a	0.09311552
245	0xbccbe47e	-0.024889227
246	0xbcffae84	-0.031211145
247	0x3d43129c	0.04762517
248	0xbd64ec6e	-0.05588954
249	0x3dad98ea	0.08476432
250	0x3cdb1669	0.026744084
251	0xbd1c3c45	-0.038143415
252	0xbd809d57	-0.0628001
253	0x3cb9ad22	0.022665564
254	0xbd46256e	-0.04837554
255	0xba86e8cd	-0.0010292769

fc_forecast.weight f4 [34, 128]
0	0x3bdfd802	0.00683117
1	0x3cffb62e	0.0312148
2	0x3cadbe07	0.021208776
3	0x3d9a6de7	0.075404935
4	0xbd624958	-0.055245727
5	0xbd36d98c	-0.044641063
6	0x3c863703	0.016383654
7	0x3e0a28b9	0.13492097
8	0x3d090108	0.03344825
9	0xbe06751d	-0.13130613
10	0xbda34de0	-0.07973838
11	0xbda07f53	-0.07836785
12	0xbd50370a	-0.05083374
13	0x3de22d3f	0.11043786
14	0x3ec126a3	0.3772479
15	0xbdc3d71c	-0.09562513
16	0xbd9fe229	-0.078068085
17	0xbe627c2e	-0.22117683
18	0xbbe1bee0	-0.006889209
19	0xbd492840	-0.04911065
20	0x3d4c4449	0.04986981
21	0xbc2ccb2c	-0.010546487
22	0x3d964e7d	0.07339189
23	0x3b543e0e	0.003238562
24	0xbdc60f93	-0.09670939
25	0x3d22289e	0.039589517
26	0xbd00034f	-0.031253155
27	0x3d85cc89	0.065331526
28	0x3c4d9fb1	0.01255028
29	0xbd094223	-0.03351034
30	0x3e6b1792	0.2295821
31	0xbdb90979	-0.0903501
32	0xbcab69da	-0.020924497
33	0xbe806f77	-0.2508504
34	0x3e98610d	0.29761544
35	0xbdb808c6	-0.089860484
36	0x3de05185	0.109530486
37	0xbd743762	-0.05962313
38	0xbcfde22a	-0.030991632
39	0x3de47c19	0.11156482
40	0xbcf9b194	-0.030480184
41	0xbb6cb4a5	-0.0036118415
42	0xbe0bac5d	-0.1363997
43	0xbc6c88fc	-0.0144369565
44	0x3d5c7862	0.053825743
45	0x3ca42663	0.020037835
46	0xbd907242	-0.07053043
47	0x3d6f4eef	0.058424886
48	0x3cd482d6	0.025941294
49	0x3dfd6d56	0.1237437
50	0xbe287558	-0.16451013
51	0xbda808d1	-0.082048066
52	0xbcbce831	-0.023059936
53	0xbcf07ea3	-0.02935726
54	0xbd80022e	-0.06250416
55	0xbd325b11	-0.04354388
56	0xbbcb8156	-0.0062104864
57	0x3e2927cc	0.16519088
58	0xbd025fae	-0.03182953
59	0x3e7af877	0.24508844
60	0xbceb49e0	-0.02872175
61	0xbe034f82	-0.12823299
62	0xbcbc30c8	-0.02297248
63	0xbe3bca81	-0.18338968
64	0x3dcb4fb9	0.09927315
65	0xbc90b679	-0.017665135
66	0xbdb77016	-0.089569256
67	0xbba41571	-0.005007439
68	0x3e835d92	0.25657326
69	0xbed63273	-0.41835365
70	0xbd12eb8b	-0.035869163
71	0xbdabaf05	-0.08382992
72	0x3d8cad60	0.06869006
73	0xbe3e5d4a	-0.18590274
74	0xbc8052b8	-0.015664443
75	0xbe8dcfd1	-0.27697614
76	0x3dc79039	0.09744305
77	0xbd52abee	-0.051433496
78	0x3e3841cb	0.17993848
79	0x3cfbe82d	0.030750358
80	0xbd7a7e14	-0.061155394
81	0xbd1aa85b	-0.037758213
82	0xbdfb2ca7	-0.12264376
83	0x3dd671a7	0.10470896
84	0xbbaf9a0b	-0.0053589395
85	0xbd562484	-0.052280918
86	0x3db30e4e	0.08742963
87	0xbce583a0	-0.028016865
88	0xbd6d2389	-0.057895217
89	0x3d9deb33	0.07710876
90	0x3d251720	0.040305257
91	0xbd4c7424	-0.049915448
92	0x3e0de091	0.13855197
93	0xbda6033b	-0.08106085
94	0x3e292e07	0.16521464
95	0x3dae1279	0.08499617
96	0x3d8ed4ec	0.069742054
97	0x3e841155	0.25794473
98	0x3a501349	0.0007937444
99	0xbbe7fb7a	-0.007079539
100	0x3c633af6	0.013869038
101	0x3e7fa911	0.24966837
102	0x3eb2b2b8	0.34901977
103	0x3c3e79f7	0.011625758
104	0x3d46c935	0.04853173
105	0x3e04496c	0.12918633
106	0x3da78a1c	0.08180639
107	0xbea6d69b	-0.32585606
108	0xbd3be22e	-0.04587
109	0xbd8d0277	-0.06885236
110	0x3d956ae0	0.072957754
111	0xbd0f87df	-0.035041686
112	0xbd61d180	-0.055131435
113	0xbd9fe3d1	-0.078071244
114	0x3df2246c	0.11823353
115	0xbe3856b2	-0.18001822
116	0xbe03fffa	-0.12890616
117	0xbdc1ffb7	-0.09472602
118	0x3dce2151	0.10064948
119	0xbdb3d345	-0.08780531
120	0x3d0f310e	0.03495889
121	0xbcaf7ba0	-0.021421254
122	0x3dba88ac	0.09108099
123	0x3de988af	0.114030235
124	0xbdf236c2	-0.118268505
125	0xbe4b8632	-0.1987541
126	0x3d122c64	0.035686865
127	0x3e1b4dd3	0.15166406
128	0x3cb7136e	0.022348132
129	0xbd9aab60	-0.075522184
130	0xbd4900dc	-0.049073085
131	0x3c9994e8	0.018747762
132	0xbe682fee	-0.22674534
133	0x3d2fb08d	0.04289298
134	0x3d9de3de	0.07709478
135	0xbda684e8	-0.081308186
136	0x3df552b9	0.11978669
137	0x3d2dca5c	0.042429313
138	0x3e17a9ef	0.14810918
139	0x3dc02970	0.093829036
140	0xbd2142ad	-0.039370228
141	0x3dc00abe	0.09377049
142	0x3db5b984	0.08873275
143	0xbdb7feb8	-0.089841306
144	0x3d9dcf2a	0.07705529
145	0xbe115c77	-0.14195429
146	0xbd2940bd	-0.041321505
147	0xbdf8c9cb	-0.12147864
148	0x3e4c913a	0.19977275
149	0x3e1bdb02	0.15220264
150	0xbdc78015	-0.097412266
151	0x3d30852f	0.043095764
152	0xbce4559f	-0.027872859
153	0xbbbc9591	-0.0057551344
154	0x3da283cf	0.07935297
155	0xbc5d45e8	-0.0135054365
156	0x3cea0856	0.028568428
157	0xbde0c06c	-0.109742016
158	0xbd4c9a77	-0.049951997
159	0xbdcebf23	-0.1009505
160	0x3ded17c6	0.115768
161	0xbe64a702	-0.22329333
162	0x3e110ab4	0.14164239
163	0xbdabc8ec	-0.08387932
164	0xbcd0f3ca	-0.025506873
165	0xbc012b34	-0.007883836
166	0x3d826059	0.06366033
167	0xbc86e3bc	-0.016466014
168	0xbdf0e66d	-0.117627
169	0x3b0d4c38	0.0021560322
170	0xbdbd0fc9	-0.092315264
171	0xbd09405c	-0.033508644
172	0xbe21b3c2	-0.15791228
173	0xbd439502	-0.047749527
174	0xbdc1d800	-0.09465027
175	0x3d6afcac	0.057369873
176	0x3c23824f	0.009979798
177	0x3e7ce2b8	0.24695861
178	0x3c6a7537	0.014310173
179	0xbd939dde	-0.07207845
180	0xbc904ae9	-0.017613845
181	0xbdc22a4d	-0.094807245
182	0x3ca5ed9a	0.020254899
183	0xbccb4300	-0.024812222
184	0x3dc20798	0.09474105
185	0x3e9ae144	0.3024999
186	0xbd88449d	-0.06653712
187	0xbc935775	-0.017986039
188	0x3dd5611e	0.10418914
189	0xbdfd2b96	-0.12361829
190	0xbd7eb9f3	-0.062189054
191	0xbdc54eeb	-0.09634193
192	0x3d121563	0.035664927
193	0xbd98d74d	-0.0746294
194	0x3d1387e8	0.036018282
195	0x3e0f5b10	0.13999581
196	0xbc5958a0	-0.013265759
197	0x3e4c30c3	0.19940476
198	0xbb4b9bc1	-0.0031068178
199	0x3d003bde	0.031307094
200	0x3dbb3d40	0.09142542
201	0xbf00e019	-0.50341946
202	0xbcf42976	-0.029804926
203	0xbe095313	-0.13410597
204	0x3db22782	0.08698942
205	0xbd92e62b	-0.07172807
206	0x3b29dd5c	0.0025919294
207	0x3d14e12f	0.036347564
208	0xbc97a8c3	-0.018513089
209	0x3d9cc8bf	0.07655477
210	0xbc9759bb	-0.018475404
211	0x39f046a9	0.00045829013
212	0x3cc93622	0.024561945
213	0xbdaa6822	-0.08320643
214	0xbaf8646e	-0.0018950829
215	0x3d27e283	0.040987503
216	0x3c4d2409	0.0125207985
217	0x3e2488dd	0.16067834
218	0xbc9365f1	-0.017992945
219	0x3dc9899e	0.098407015
220	0x3e18cdbb	0.1492223
221	0xbd5daea5	-0.054121632
222	0x3d559e46	0.052152894
223	0x3d4f3ec1	0.050596956
224	0x3daeb0e4	0.08529833
225	0x3e18063b	0.14846127
226	0x3d4fd943	0.050744306
227	0x3c292c17	0.010325453
228	0xbc2484ac	-0.010041397
229	0x3ed2fc4a	0.41208106
230	0xbdf6d935	-0.12053148
231	0xbb0fd709	-0.002194824
232	0xbdd29416	-0.102821514
233	0xbcd04ab0	-0.025426239
234	0xbcacc034	-0.021087743
235	0x3eb7cbc9	0.35897663
236	0x3d0dda30	0.034631908
237	0xbdb5883b	-0.088638745
238	0x3e524918	0.20535696
239	0xbb9aab7a	-0.0047201486
240	0x3e015210	0.1262896
241	0xbc449832	-0.011999177
242	0x3d98d000	0.07461548
243	0x3dae3502	0.08506204
244	0x3ddfc7bc	0.10926768
245	0x3d3ce5dd	0.046117652
246	0x3db51996	0.08842771
247	0x3d870a2e	0.065937385
248	0xbdb1fb6c	-0.08690533
249	0x3d4ad949	0.049523626
250	0x3e85f57c	0.26163852
251	0xbe7c8d29	-0.24663223
252	0xbd3f018c	-0.046632335
253	0xbe34c76f	-0.17654203
254	0x3d1664d7	0.036717262
255	0x3ddcea3c	0.10786864

fc_forecast.bias f4 [34]
0	0x3e83dc21	0.25753883
1	0x3e665a29	0.22495331
2	0x3e87d571	0.2653003
3	0x3e5b4bf9	0.214157
4	0x3e851c4e	0.25998157
5	0x3e65ed64	0.22453839
6	0x3e78eae1	0.24308349
7	0x3e6b57f5	0.22982772
8	0x3e701eaa	0.23449197
9	0x3e713e91	0.23559023
10	0x3e7ebfa3	0.24877791
11	0x3e97755f	0.29581735
12	0x3e52d2eb	0.20588271
13	0x3e93a4b7	0.28836605
14	0x3e852d31	0.2601104
15	0x3ea4dfb3	0.3220192
16	0x3e6c9b2e	0.23106071
17	0x3ea3722c	0.31923044
18	0x3e8f1ee7	0.27953264
19	0x3eaa19b3	0.33222732
20	0x3e6aaade	0.22916743
21	0x3eaf7dea	0.34275752
22	0x3e84ed07	0.25962088
23	0x3ebfa150	0.3742776
24	0x3e860dd2	0.2618242
25	0x3ebfb867	0.37445375
26	0x3e95cd29	0.29258087
27	0x3ed70f37	0.42003796
28	0x3e88a881	0.26691058
29	0x3edadb92	0.42745644
30	0x3e86f155	0.26355997
31	0x3ef8247e	0.4846534
32	0x3e83843d	0.25686827
33	0x3efc6456	0.492953

fc_class.weight f4 [2, 128]
0	0x3de763d8	0.112983406
1	0x3df26b6c	0.11836895
2	0xbea580a3	-0.32324705
3	0xbeb5d91f	-0.35517213
4	0xbcd493ab	-0.02594932
5	0xbebd90dc	-0.3702458
6	0xbf0c59ba	-0.5482441
7	0x3e44391f	0.19162415
8	0x3e96b844	0.2943746
9	0x3db59681	0.08866597
10	0x3cdcd4ed	0.026957
11	0xbd86e0d7	-0.065858535
12	0x3eb29113	0.34876308
13	0x3d31eb00	0.043437004
14	0xbd84cd3f	-0.0648446
15	0x3d209e3b	0.0392134
16	0xbe64466a	-0.22292486
17	0xbe77b3c5	-0.2418967
18	0x3e374c82	0.17900279
19	0xbe6b1cdd	-0.22960229
20	0xbe92550a	-0.28580505
21	0xbe758c76	-0.23979363
22	0x3e972dee	0.2952723
23	0x3e1db66b	0.15401618
24	0xbb0edf10	-0.0021800436
25	0xbe7dc179	-0.24780835
26	0x3c98d870	0.018657893
27	0x3edbd19c	0.42933357
28	0x3e5c72c4	0.21528155
29	0x3e2cde25	0.16881616
30	0x3e1b976f	0.15194486
31	0xbe8dce10	-0.27696276
32	0xbe3b176a	-0.1827065
33	0xbe4fa329	-0.20277084
34	0xbe5637a6	-0.20919666
35	0xbe9e0748	-0.3086493
36	0x3e1f8c1a	0.15580788
37	0x3df77e70	0.12084663
38	0xbf1d8ca4	-0.61542726
39	0x3e47102b	0.19439761
40	0x3eef8775	0.46783033
41	0x3e476bd1	0.19474722
42	0x3e02d918	0.12778127
43	0x3d3eba5e	0.046564452
44	0xbe0344df	-0.12819241
45	0x3d6ca2bb	0.05777238
46	0xbd72d0ba	-0.05928109
47	0x3e4bdb65	0.19907911
48	0x3c52c155	0.012863477
49	0xbdf926a7	-0.121655755
50	0x3e96215b	0.29322323
51	0xbcf0bb44	-0.02938617
52	0x3c44bd57	0.012008033
53	0x3ce28fd8	0.02765648
54	0xbc2ac67b	-0.010423298
55	0xbeed365b	-0.46330532
56	0x3e190a15	0.14945252
57	0x3e323c47	0.17405806
58	0xbdcfb23a	-0.10141416
59	0xbe00f7f3	-0.12594585
60	0x3e44e2d7	0.19227158
61	0x3d2129d7	0.039346542
62	0x3e5d41c5	0.2160712
63	0x3ebbf64f	0.36711356
64	0xbcc3edb7	-0.023917062
65	0xbd2f92f5	-0.04286476
66	0x3eb7645d	0.3581876
67	0x3e050732	0.12991026
68	0xbd2c0992	-0.042001314
69	0x3d442b22	0.047892697
70	0x3a358a6c	0.00069252285
71	0xbe546fd7	-0.20745789
72	0xbdfb39c9	-0.12266881
73	0x3e8bc8c2	0.27301604
74	0xbe2f0b98	-0.17094266
75	0xbd8938a6	-0.06700258
76	0x3e504a62	0.20340875
77	0x3deeef81	0.116667755
78	0x3e8d4f81	0.2759972
79	0xbeab1d7d	-0.33420935
80	0xbec67413	-0.38760433
81	0x3ebfce4b	0.37462077
82	0x3e57bf03	0.21068959
83	0x3e44f214	0.1923297
84	0xbe010ba2	-0.12602094
85	0x3e664166	0.22485885
86	0x3ebad584	0.36491024
87	0xbe911124	-0.2833339
88	0xbec0b62b	-0.37638983
89	0xbe378bd1	-0.1792443
90	0xbe980e0c	-0.29698217
91	0xbf286657	-0.6578116
92	0xbea48d17	-0.32138893
93	0xbe04a454	-0.12953311
94	0xbe5c107d	-0.21490665
95	0x3f124142	0.57130826
96	0x3ee29472	0.4425388
97	0xbe94da90	-0.29073
98	0xbf584006	-0.8447269
99	0x3e9d164f	0.30681083
100	0x3e7cb982	0.2468014
101	0x3e81acfd	0.25327292
102	0xbd3b3357	-0.04570326
103	0xbd1cb28b	-0.03825621
104	0x3e24cd01	0.16093828
105	0x3d719aaa	0.05898539
106	0x3e174cc6	0.1477538
107	0x3e196a69	0.14981999
108	0xbe34885e	-0.17630145
109	0x3e56b76f	0.20968412
110	0x3c41ca3e	0.011828003
111	0x3e0e010b	0.13867585
112	0xbde2492f	-0.11049115
113	0x3da101f5	0.078617014
114	0xbf32907d	-0.6975172
115	0x3dd6d341	0.10489512
116	0x3e15a500	0.14613724
117	0xbd3bb1ec	-0.045823976
118	0xbededcc5	-0.4352781
119	0xbd51d786	-0.05123093
120	0x3f1dfcf0	0.61714077
121	0x3e9a2067	0.30102846
122	0xbc627ea8	-0.0138241425
123	0x3d67e9d5	0.056619484
124	0x3f1ce92f	0.6129331
125	0xbda7ae2e	-0.08187519
126	0x3e11066e	0.14162609
127	0xbe177b47	-0.1479312
128	0xbd008a54	-0.03138192
129	0xbafe1528	-0.0019384967
130	0x3eb30919	0.34967878
131	0x3ea4a3b7	0.32156155
132	0x3d85ffe2	0.065429464
133	0x3e90281a	0.28155595
134	0x3f0eb744	0.5574839
135	0xbddd9182	-0.10818769
136	0xbe6b0c3b	-0.22953884
137	0xbdae76b5	-0.08518735
138	0xbdf60968	-0.12013513
139	0x3e04afce	0.12957689
140	0xbe839e8e	-0.25706905
141	0xbe272279	-0.16321744
142	0x3d924b49	0.07143266
143	0x3c881ebe	0.016616222
144	0x3e7a4bd7	0.24442993
145	0x3e5a0065	0.21289213
146	0xbe32effa	-0.17474356
147	0x3e91d79c	0.2848481
148	0x3e551d56	0.20811972
149	0x3e5d7464	0.21626431
150	0xbea9db75	-0.33175245
151	0xbdfe3c09	-0.124137945
152	0xbd968dda	-0.07351275
153	0x3eb13aa6	0.34615058
154	0x3dea2102	0.11432077
155	0xbec4b723	-0.38420972
156	0xbe006011	-0.12536646
157	0xbe0261e1	-0.1273265
158	0xbe1dc5ee	-0.15407535
159	0x3e847b8b	0.25875506
160	0x3e2d3bf7	0.16917406
161	0x3e2fa2b7	0.17151915
162	0x3e7a6fc3	0.24456696
163	0x3ead038a	0.33791763
164	0xbe4aced5	-0.19805463
165	0x3cbda71d	0.023150975
166	0x3f0c3ac5	0.54777175
167	0xbe3ebd5e	-0.18626925
168	0xbed9d0a5	-0.42541996
169	0xbe0b1c23	-0.13584952
170	0xbcdbc42f	-0.026826946
171	0x3dc51d8a	0.09624775
172	0xbc5e4f1d	-0.013568667
173	0xbe084ce7	-0.13310586
174	0x3daf657a	0.08564277
175	0xbe5cd613	-0.21566038
176	0xbdb50055	-0.08837954
177	0x3bd8d465	0.0066171163
178	0xbebf93a1	-0.3741732
179	0x3bc9bdf9	0.0061566797
180	0x3d81049b	0.062997065
181	0x3b3b2127	0.0028553696
182	0xbe07f95e	-0.1327872
183	0x3ed3864b	0.41313395
184	0xbe4be9ba	-0.19913378
185	0xbe6a28df	-0.22867154
186	0x3d9ed73a	0.07755895
187	0x3e4fc548	0.202901
188	0xbe2d9155	-0.16949971
189	0x3d2a88f6	0.041634522
190	0xbe592238	-0.2120446
191	0xbecb8cd4	-0.3975588
192	0x3e2bac8d	0.16765042
193	0x3e096540	0.1341753
194	0xbedd19d4	-0.43183768
195	0xbd01fdc5	-0.031736154
196	0x3e3f501f	0.18682908
197	0xbdd31ca4	-0.10308197
198	0x3b8bc391	0.0042652567
199	0x3e46f256	0.19428381
200	0x3c685f7a	0.01418292
201	0xbe1c9b73	-0.15293674
202	0x3e7a9768	0.2447182
203	0x3e04b31d	0.12958951
204	0xbe64d076	-0.22345147
205	0xbe558cc5	-0.2085448
206	0xbe0bd1f5	-0.13654311
207	0x3e9d9399	0.3077667
208	0x3ee036e3	0.43791875
209	0xbeb1436f	-0.3462176
210	0xbe1ab6d8	-0.15108812
211	0xbdf2fce1	-0.11864639
212	0x3d7f9b30	0.062403858
213	0xbe32b32e	-0.17451164
214	0xbecdc3e4	-0.40188515
215	0x3e5e0d9f	0.21684884
216	0x3e8e959e	0.27848524
217	0x3dba2b59	0.09090299
218	0x3ebe3690	0.37151003
219	0x3f218498	0.63092947
220	0x3e8f7256	0.2801692
221	0x3e4026c3	0.18764786
222	0x3e87c1de	0.26515096
223	0xbef49c90	-0.47775698
224	0xbed6c8f6	-0.41950196
225	0x3e7f07af	0.24905275
226	0x3f607a24	0.8768637
227	0xbeee304f	-0.46521232
228	0xbe331d5e	-0.17491671
229	0xbea31586	-0.3185236
230	0xbb819c26	-0.003955382
231	0xbc1729db	-0.009226288
232	0xbe52ddce	-0.20592424
233	0xbdf85d62	-0.12127186
234	0xbdf1016f	-0.117678516
235	0xbe277413	-0.16352873
236	0x3e706d0c	0.23479098
237	0xbe8b9608	-0.27262902
238	0xbde77795	-0.11302105
239	0xbe1452f5	-0.1448477
240	0x3df9a5cd	0.12189827
241	0xbe0de1ba	-0.13855639
242	0x3f4b7074	0.79468465
243	0xbdf7411f	-0.12072968
244	0xbe167702	-0.14693835
245	0xbcf3a1a9	-0.029740172
246	0x3f00180a	0.5003668
247	0x3e081faa	0.13293329
248	0xbf1d2457	-0.61383575
249	0xbec79d40	-0.3898716
250	0xbcf53741	-0.029933574
251	0xbda5a72c	-0.08088526
252	0xbf1c2ae4	-0.61002946
253	0xbd0a9469	-0.03383294
254	0xbe74ed7f	-0.23918723
255	0x3d3fb8cd	0.0468071

fc_class.bias f4 [2]
0	0x3da68b56	0.08132045
1	0x3c0706b6	0.008241346
