code/results/saved_models/mlp_1000.pt (torch, 528929 bytes, 6 tensors)

shared.1.weight f4 [128, 510]
00000000: d70f a63d 440b dcbc 5d96 1e3d 72e9 de3c
00000010: c441 d83d 7609 da3c 220c 203d 1715 033d
00000020: 7671 3c3d 97d0 09bb dee2 f23c d701 053d
00000030: 9b8f 973d 148b 973d 9fc8 07bb 67ee b3bc
00000040: 37f4 5d3d 7c01 a7bb 8f34 41bc b77e 0abd
00000050: 8268 993c a205 bbba 0383 f1bb 8316 363d
00000060: ff9e 973d 3ece 103d d3f3 e7bc d113 06bd
00000070: 8f79 063d cf2d de3c 9d60 243c e754 aebc
00000080: 72aa 933c 26d9 d2bc 2584 c33b bb08 c33c
00000090: b3ef 94bb 1b7a d0bc 78b6 a2bc ab2f 44bc
000000a0: e455 483d 4298 853b 3805 253d 25f4 e23b
000000b0: 8337 a53d c51e 0cbd c964 703c e829 8bbc
000000c0: 457a 62bc fdda 98bd d51b 8b3d 50b6 793d
000000d0: 6d82 53bc b401 a2bd 2f9f 8fbc 305a 69bc
000000e0: b582 503d cbb6 2fbd 9055 ca3b b31f 91bc
000000f0: 4dd3 bbbc 5d73 1b3d b652 2cbd 73ad 863c
00000100: e183 a93c ba40 0b3d d808 c23d dbd9 bfbb
00000110: 55bc 49bc e159 59ba 00d5 443d 9b9b 1cb8
00000120: 48dc 423d 847a 283d e968 613c ce86 fcbc
00000130: 5ecf 543d 5ac0 97bb 58ab 3c3d 1f9f 8cbd
00000140: 0105 113c 8f56 103c 4788 853c 5881 1f3c
00000150: 401c 4c3d 4ef9 663d 2e1e c0bc da60 a5bb
00000160: baeb 803d c211 05bc e9bb 563d bab2 313d
00000170: ac06 893c 73fd 583c 3f09 d93c 0096 d3bb
00000180: c498 2bbd 66e7 e93c a543 18bc 5e96 d73c
00000190: 2de9 a53d de60 a4bc 3741 f0b9 b14b 063c
000001a0: 6c17 ddbc cb56 ef3c dcdb 523d e056 783c
000001b0: 36bd 383c c99a 92bc f4d7 4c3c 1c84 e23c
000001c0: 09ff acbc 6e56 0c3d a36d fdbb b7ac 5b3d
000001d0: b25a 62bd 6148 41ba 180b 483c 608c ac3d
000001e0: 00dd b4bd d107 15bd f4ee 5e3d 7cef a7bc
000001f0: aa1c a33c c1df d03c ff0f 9c3d 984d d53c
00000200: ccda c4bc af5d 9d3a 031d 21bd 1325 493d
00000210: 798f 8abc 71cb 083d c0fe 9f3b fe6d 633d
00000220: 7957 a03b 616a 1d3d e80e eebc 4993 5b3b
00000230: 188a 06bd b875 f4bc 1738 df3c d2a3 e8bb
00000240: f1c6 41bc a2ff e93c f9fa a238 b4aa 05bd
00000250: 13ab 5c3d a569 443c ac5d b6ba 82cb 49bc
00000260: 7cb2 063d 987e 803d eba2 f637 2d70 4cbc
00000270: 9e7a a83c 8e14 df3c 33ef 71bb 331c 183d
00000280: 7ee6 8fbb 7e8a 4f3d 3027 3cbd bdd4 99bb
00000290: 2710 83bc 2b78 04bc 0ac5 ee3c 3d52 853d
000002a0: 8c70 3dbc eec3 233d 6c32 853d 3e8f 893d
000002b0: f910 c93c cd9e cf3c 9d58 e63c 8efc 5f3d
000002c0: 874c 933d 8158 6cbc bf74 79bc 9edd fabb
000002d0: 82a7 f13b 891e ce3b 81d1 d93c 07e9 b43c
000002e0: 6a79 3c3d 6106 22bd 7e43 7e3c 7224 0f3d
000002f0: af22 70bc ee42 a0bd 2896 0cbc 3459 13bd
00000300: 230b c63c 8c44 ad3c 1450 22bd b225 dcbb
00000310: 5040 e9bc ad7c 7ebc 0a5d 5ebd fdc9 fe3c
00000320: e1c9 323d dfc2 223c a44e 803d 4409 5b3d
00000330: 5105 1cbd f4ad a23c d3bb 1c3d a0e7 303d
00000340: 383c 31bd 74cd b13c 5aea 863d 1798 17bd
00000350: bd98 7f3b 9f7e 183d 9e01 a4bb 10b6 22bd
00000360: ce86 33b9 c51a 053d 0b97 56bd ca64 063d
00000370: aa2e 8c3d bbb8 2d3d 9939 2f3b 0228 6abd
00000380: aca4 66bb 566e 9c3b bb14 9838 881e b13c
00000390: 477a 823d 1aed 033d 34c9 93bd 5e72 13bd
000003a0: 87b9 cd3c ae00 403d ac76 143d ed67 bbbb
000003b0: 4585 ef3c 794e 0b3d 9743 3fbd cadf d63b
000003c0: f065 1a3b d251 223d 5ba0 5fbc 12ac 9dbc
000003d0: e795 2e3c 8375 d5bc 08d0 a9bc 69c8 2b3d
000003e0: f781 153d 248e 4d3c 0fc9 5abd 7191 843d
000003f0: 1551 a8bc 4c14 0d3b 1eae dabc 99d7 d13d
0.0810849 -0.02686084 0.038717616 0.027210925 0.10559419 0.02661584 0.03907407 0.032002535
0.046006642 -0.002102887 0.029649194 0.032472458 0.074004374 0.07399574 -0.0020718945 -0.021964265
0.05418798 -0.0050966125 -0.011792316 -0.03381225 0.018726591 -0.0014268646 -0.007370354 0.044455063
0.07403373 0.035352938 -0.028314507 -0.032733742 0.03283077 0.027121453 0.0100328 -0.021280719
0.01802561 -0.02573831 0.0059666806 0.023807874 -0.004545176 -0.02544885 -0.019862399 -0.011974256
0.048910037 0.0040769884 0.04028818 0.006926077 0.08067229 -0.03420903 0.014672467 -0.016987756
-0.013823097 -0.07463644 0.06792418 0.060964882 -0.012909514 -0.07910481 -0.01753196 -0.014242694
0.050905902 -0.042898934 0.0061747506 -0.01771531 -0.022927905 0.037951816 -0.042071067 0.016440129
0.020692768 0.033997275 0.09474343 -0.005854828 -0.012312968 -0.0008291286 0.048054695 -3.7338217e-05
0.047573358 0.041132465 0.013757923 -0.030825999 0.051955573 -0.0046310844 0.046061844 -0.068662874
0.008851291 0.0088097 0.016300334 0.009735428 0.04983163 0.0563901 -0.02345189 -0.005046946
0.06294961 -0.00812191 0.0524253 0.043383338 0.016726814 0.013244021 0.026493667 -0.0064570904
-0.041893736 0.028552722 -0.009293471 0.026316818 0.081011154 -0.020065721 -0.00045824956 0.008196757
-0.026988707 0.02921619 0.051479205 0.015157431 0.01127558 -0.017896073 0.012502659 0.027650885
-0.021117704 0.034262113 -0.007734017 0.05363151 -0.055262275 -0.0007373151 0.012209676 0.08425212
-0.08831215 -0.036384407 0.054427102 -0.020499937 0.019911129 0.02549732 0.076202385 0.026037976
-0.024030112 0.0012006069 -0.03933431 0.049107622 -0.016914116 0.03339714 0.0048826635 0.05552482
0.00489324 0.03843153 -0.029059842 0.0033504537 -0.03284654 -0.029841289 0.027248425 -0.007099607
-0.0118272165 0.028564278 7.771509e-05 -0.0326335 0.053874087 0.011988078 -0.0013913414 -0.012316586
0.03288506 0.06274146 2.940135e-05 -0.012477917 0.02056628 0.02723148 -0.0036916255 0.037136268
-0.0043914905 0.050669186 -0.04593581 -0.00469455 -0.015998913 -0.008085291 0.02914669 0.06509826
-0.011562478 0.039981775 0.06503758 0.067167744 0.024544226 0.025344277 0.028118426 0.054684214
0.07192331 -0.014425398 -0.015225588 -0.0076558134 0.007374705 0.006290261 0.026589157 0.022083772
0.046014227 -0.039556865 0.015519021 0.034946866 -0.014656707 -0.07825266 -0.008580722 -0.035973743
0.024175232 0.02115085 -0.03962715 -0.006718361 -0.02847305 -0.015532655 -0.054287948 0.031102175
0.043649558 0.009934156 0.062649995 0.053475633 -0.038091008 0.019858338 0.03826506 0.043189645
-0.04327032 0.021704413 0.06587668 -0.03701028 0.0039000951 0.03723013 -0.0050050756 -0.03972441
-0.00017120989 0.032496233 -0.05239014 0.032810964 0.06844838 0.0424125 0.0026737212 -0.05716706
-0.0035193367 0.0047738953 7.251786e-05 0.021621004 0.06370979 0.03220854 -0.07216111 -0.03599774
0.02511288 0.04687565 0.036245987 -0.005719176 0.029238353 0.034010384 -0.046695318 0.0065574395
0.0023559295 0.03962881 -0.013649072 -0.019247089 0.010655857 -0.02605701 -0.02072908 0.041939173
0.036500897 0.012546096 -0.0534144 0.06473053 -0.020546475 0.002152699 -0.026694354 0.102462

shared.1.bias f4 [128]
00000000: 5188 643e 9d54 dabd 882d 24bf b86e 893e
00000010: 2c98 24be e5a5 673e 93cc a23e 09dc 603e
00000020: af18 49b9 7a66 393e 9134 6cbe f714 b9bc
00000030: 967e c53e d23c 4bbe 1c3c c6bc 67e4 733e
00000040: 3712 5d3e f09e 57be 9008 52be 2acf 1dbd
00000050: 342f 673e 1f0d 803e 1b91 6c3e 458e 71be
00000060: 89cb 2abe fbcc 0ebd 316f 403e bf6f 8abe
00000070: 471d 4a3e eaca 593e eb32 bdb9 d06d 1cbf
00000080: cb3c 1c3e bab3 2dbe d34c 733e a390 29be
00000090: e368 ffbc ce79 2cbe bff6 7fb9 a4c2 1fbe
000000a0: d485 763e fed8 23be 4856 1dbf 192e 5fbe
000000b0: 3e3d 5b3e a115 463e 16e8 de3e 2535 8cbe
000000c0: c3ea 74be 4555 5e3e 2ec3 583e 1342 24bf
000000d0: f3f8 8e3e 17b0 503e 0c96 093e b898 b83e
000000e0: b478 383f 90d8 48be 8b76 3ebe 2c07 813e
000000f0: 9f4a 8d3e 2945 5cbe 8d31 683e 7825 a33e
00000100: fec3 853e 9c5c ae3e 5b0e 81bc 33e3 b53e
00000110: 9dc0 78be d33a 72be dc9d 5bbe d29f 49bb
00000120: bb60 5fbe ffe4 11bc 3407 17be bd38 8c3e
00000130: b893 f8be ff40 433e 414d 9dbe 7cf1 1dbc
00000140: 3505 833e 4bc7 25be 358f 483e c4eb 62be
00000150: 1753 843e f87b 62be aa70 373e 43fb 503e
00000160: f904 5e3e e54a 89be d232 52be 028c 413e
00000170: 77d4 fc3e 4f1e 053f 96ab 013e 0415 26bc
00000180: 983d db3e e16d 21bc d479 2bbe 7b4b 97bc
00000190: c659 f8bc bf03 22be e725 593e c793 4c3c
000001a0: 3f6c 60be 4852 673e a475 2ebe f527 fe3e
000001b0: aa00 53be 279d 393e b282 183e 9543 aebc
000001c0: 4d31 51be 0450 613e f34a 563e 6b29 59be
000001d0: 3fd9 90be 75b6 32be 26db b73d 06ec 723e
000001e0: 73b7 6bbe eed2 583e d85e 13b9 1e76 113d
000001f0: 79ad 813e 3cba 77be 1143 923d cd34 7a3e
0.22317626 -0.1066067 -0.64131975 0.26842284 -0.16073674 0.22621877 0.31796703 0.21958937
-0.00019178049 0.18105498 -0.23066927 -0.022593005 0.3857314 -0.1984742 -0.024198584 0.23817597
0.2158898 -0.21056724 -0.20511079 -0.038527645 0.225766 0.2501001 0.23102228 -0.23589428
-0.16679205 -0.034863453 0.18792416 -0.2703838 0.19737731 0.21268812 -0.00036086826 -0.6110506
0.15257566 -0.16963091 0.23759775 -0.16559081 -0.031177944 -0.1684334 -0.00024410615 -0.15601593
0.24074489 -0.16000745 -0.6145978 -0.21794929 0.21410081 0.19344188 0.43536443 -0.27384296
-0.2391768 0.21712215 0.21168205 -0.6416332 0.27924308 0.20379673 0.13436145 0.36054015
0.7205918 -0.19613862 -0.18599908 0.25200784 0.27595994 -0.21510758 0.22675152 0.31864524
0.26126093 0.3405503 -0.015753916 0.35524902 -0.24292226 -0.23655252 -0.21446937 -0.0030765426
-0.21814243 -0.008904695 -0.14748842 0.27387038 -0.485502 0.19067763 -0.30723003 -0.009640094
0.2558991 -0.16189305 0.19585879 -0.2216025 0.25844643 -0.22117603 0.17914072 0.20408349
0.21681584 -0.26814952 -0.20527199 0.18901065 0.49380848 0.5199937 0.12663111 -0.010136846
0.4282043 -0.009852857 -0.16745692 -0.01846861 -0.030316245 -0.15821742 0.21205865 0.012486405
-0.21916293 0.22589982 -0.17037064 0.4963986 -0.20605722 0.18126355 0.14893606 -0.02127246
-0.20428963 0.2200318 0.20927028 -0.21207206 -0.28290746 -0.17452414 0.08977346 0.23722848
-0.23019199 0.21174213 -0.00014054345 0.035513036 0.25327662 -0.24192137 0.07141698 0.24434204

forecast_head.weight f4 [510, 128]
00000000: 05bb 03bd d9d9 31bb e068 0cbc 522b 513d
00000010: 0b35 443c 9812 803c 2a2c 433c 8bc0 d53c
00000020: b406 04bd c8d9 b93c 61ca b73d 7a74 51b8
00000030: 8906 1c3d cbb1 2a3d 79fb a6bd 9342 d4bd
00000040: eb35 a1bd aaa6 3c3c a035 98bd f9bf 60bd
00000050: e37c 963c f9d6 383c cce7 39be 02f0 56bd
00000060: 5bc4 4a3d ccd3 8a3d aa51 253d 24be dabc
00000070: bb01 dd3d 4fe6 70bd 3e1c 4dbd 1e79 893a
00000080: 734a 58bc 7a94 8fbd f37c 7739 be19 093e
00000090: b01e ec3c ee92 ecbc a51a 3bbd fe11 d23c
000000a0: 519b 063b 775a 4abd 3c91 2abb fd0e 32be
000000b0: 685c 1b3e 419b f9bb f9ae 82bb 0695 93bd
000000c0: 03ac d73d 422e 8bbd 8635 8fbd 9fbc a9bc
000000d0: 4907 623e 0508 7cbd d91a 1cbc b54f 97bc
000000e0: f0d0 503b 58e3 02bd 7270 183e 894a 493c
000000f0: f059 8c3d 7631 15bd c1dc ba3c 362c f4bd
00000100: 3579 8c3c e98a 32bd 653e 6bbd 3033 7d3b
00000110: f2eb aabb bff3 863c 6458 54bc d86d 0dbd
00000120: 6d1b b43d d2f9 1cbd f58b 0d3d f7be 0abd
00000130: 886a b2bb 217f 0c3c 64f0 df3c 9fff 2abd
00000140: db3f da3c 5e23 c0bb 930e 873d 14b7 f63c
00000150: dc90 87bd 3c14 c4bc d276 16bd 047d b8bd
00000160: 2de7 1bbd 1ca7 81bd d853 a7bb 1d43 a33d
00000170: 7883 a63c d305 803e 9334 c5ba f336 87bd
00000180: ff67 15bd 946a 9fbc 4f9f ec3c f796 6a3d
00000190: 0ff2 8f3d 29a4 023d d6fe 343b a125 9c3d
000001a0: 3f77 50bd 8c65 0c3d 9460 3e3d 0609 583d
000001b0: c85a 9abd 7581 6fbb 8325 f13d 9f1e 8dbd
000001c0: 6db3 003e 22f1 cbbc 9458 9bbd f41d da3b
000001d0: 4db4 a63d 83e0 293d 963e 033d 6105 c53d
000001e0: e597 8ebd 060f 563d 8235 84bd b18d 8b3c
000001f0: 7a54 34bc a8b0 e03c 080a 753c f253 bd3d
00000200: ea69 fc3c a715 cc3c 1839 c4bc c72d 42bd
00000210: 300e 593d 0b72 043d 9aeb fcba 8d30 ac3d
00000220: 0eed 913d 183d 35bd 1946 5a3d f97c c63c
00000230: 2a13 8a3c ebd7 34bc ecc9 043d c080 12bd
00000240: 37f5 f0bc b7aa aa3d 99c5 8cbd af6b 853d
00000250: 2a5c 1dbe 2c17 813c e956 38be 5ebb ddbd
00000260: d91a c2bd 0900 4bbd 3657 f63d 04d4 b43d
00000270: a0b9 13bd c924 153a ccb1 a8bd ef56 b23d
00000280: d20f 2dbd b8b0 d9bc 4aa2 c93d 6d1a 623d
00000290: b865 8c3c f501 7c3d 07f6 7b3d f3b7 d0bd
000002a0: 2255 21bd 0d13 17be 2b80 00bd 491f fc3c
000002b0: 65ee 0b3e 9c06 fbbc 90f7 f6bb e092 37be
000002c0: 9ec8 8a3c 2e8a 63bd 8be6 3fbd 4144 acbd
000002d0: aff1 373e aea6 a0bd b103 923d d555 5cbc
000002e0: 4055 21bc 81c9 413d 53a1 0e3e e6ca 4b3d
000002f0: 585f 213d bd15 ad3c 0132 c33d 1e4b 13be
00000300: 09e5 95bd 627f 82bd 4abd 2bbd b406 96bd
00000310: 0407 673e fdf6 293e 5c5b a73d 0772 8d3c
00000320: 50b1 c23d 24a6 45bd 584a 163d 1244 e8bc
00000330: 0351 a33c a90c aa3c e43b 083d 555b 8bbc
00000340: e585 41bb 94bf 3cbd 1ca5 41bd be24 13bd
00000350: 1044 383d 363f b6bd 3882 fd3d aa6e 5bbc
00000360: 76f6 6bbd 9364 853d 0c94 593b 1fbe b43c
00000370: aaed 283d 5dc4 4a3d c159 1fbd a3e9 1d3d
00000380: b3e4 4f3c d362 5fbd 56df e03d 62fe 813d
00000390: ac87 8c3c 7f93 903c 10cc 2bbd 6cdb 123b
000003a0: efd0 02be 492c dcbb 3b13 ad3d 5974 833d
000003b0: 98cb 8bb9 f6d3 f2bc 1454 303e dc63 b03d
000003c0: 2756 abbd 6ded 13bd a90c 133d 12a2 73bc
000003d0: 499a e73c 30c7 84bc 6597 0b3e 1289 b43d
000003e0: a77a dd3c c69d 083d da34 923c 365f 43bd
000003f0: f6e1 933d d708 17bd ab65 13bd 88e7 023d
-0.032160778 -0.0027137904 -0.008569926 0.051066704 0.011975537 0.015633866 0.011912385 0.026092788
-0.032232955 0.022686854 0.089741476 -4.993796e-05 0.03809217 0.041673463 -0.08153433 -0.103642605
-0.07871612 0.011514345 -0.07432103 -0.05487058 0.018370098 0.011281722 -0.1815483 -0.052474983
0.049503665 0.06778678 0.040361084 -0.026701994 0.10791346 -0.05881339 -0.050075762 0.0010488366
-0.013201344 -0.070107415 0.00023602303 0.13388726 0.028823227 -0.028878655 -0.045679707 0.025643345
0.0020539353 -0.04940268 -0.0026026508 -0.1738853 0.15171969 -0.0076173847 -0.0039881435 -0.07206158
0.105308555 -0.06795932 -0.06992631 -0.020719824 0.22073092 -0.061531086 -0.009527885 -0.018470624
0.0031862818 -0.031955093 0.14886644 0.012285837 0.06853092 -0.036424123 0.022810342 -0.11922495
0.01714764 -0.043589506 -0.05743255 0.0038635246 -0.005216115 0.01647365 -0.012960527 -0.034528583
0.087942936 -0.038324185 0.0345573 -0.033873525 -0.0054448284 0.008575232 0.027336307 -0.041747686
0.026641777 -0.005863591 0.06594577 0.030116595 -0.066194266 -0.02393543 -0.03673441 -0.0900822
-0.038062263 -0.06330702 -0.0051064305 0.07971785 0.020326361 0.25004444 -0.0015045576 -0.066022776
-0.03647613 -0.01946 0.028884558 0.057272878 0.07028591 0.031894837 0.0027617714 0.07624365
-0.050894972 0.03427653 0.046478823 0.05274298 -0.075368464 -0.0036545668 0.11774733 -0.06890606
0.12568446 -0.024895255 -0.07585254 0.0066564027 0.081398584 0.041473877 0.03204211 0.096201666
-0.06962565 0.05226042 -0.06455518 0.017035337 -0.011006469 0.027427986 0.014956005 0.09244527
0.030812223 0.024912668 -0.023953006 -0.047406938 0.052992046 0.032335322 -0.0019296289 0.08407698
0.07125293 -0.044247717 0.053289507 0.024229513 0.016854841 -0.011037807 0.03241913 -0.035767317
-0.029413803 0.083333425 -0.06873626 0.0651468 -0.15367189 0.01575812 -0.18001904 -0.10826753
-0.09477777 -0.04956058 0.12028353 0.08829501 -0.036065698 0.00056893803 -0.08237037 0.087079875
-0.042251416 -0.026573524 0.09845407 0.055200983 0.017138347 0.061525304 0.061513927 -0.101913355
-0.03938783 -0.14753361 -0.03137223 0.030776637 0.13665159 -0.0306428 -0.007536836 -0.17927122
0.016941365 -0.0555517 -0.046850722 -0.08411456 0.17963289 -0.078442916 0.0712961 -0.013448198
-0.009846985 0.04731131 0.13928728 0.049754046 0.039397568 0.02112853 0.09531022 -0.14384124
-0.073190756 -0.063719526 -0.041928567 -0.07325497 0.2256127 0.16598125 0.08171722 0.017266287
0.09506476 -0.048254147 0.036691993 -0.028352771 0.01993609 0.02075799 0.03326024 -0.017011324
-0.002952927 -0.04608114 -0.0472766 -0.035923712 0.044986784 -0.08898775 0.12378353 -0.013393084
-0.05760809 0.06513324 0.0033199815 0.022063313 0.04124228 0.049503673 -0.038903955 0.03855289
0.0126888035 -0.054537605 0.10980098 0.06347348 0.017154537 0.017648457 -0.041942656 0.0022408618
-0.12775014 -0.0067191464 0.084509335 0.06418676 -0.00026663835 -0.029642086 0.17219573 0.08612797
-0.08366042 -0.0361151 0.035900746 -0.014870184 0.028271811 -0.016208261 0.13631971 0.088152066
0.027036024 0.03335359 0.017847467 -0.047698222 0.07220833 -0.036873665 -0.03598563 0.031959087

forecast_head.bias f4 [510]
00000000: b226 24bd 3c14 123b 4a7a 1bbd 0336 983c
00000010: a5d6 35bd 20ea 4a3c 6153 21bd c047 7f3c
00000020: d6e6 a1bc d5e7 c53c eb0f dbbc 30c7 15bc
00000030: 85ca ae3c e32f f4bb 0b49 c7bc 86b2 9f3a
00000040: e395 32bc 7809 d7bc 5f92 52bd 2b13 583d
00000050: 9807 92bb 2f86 5bbc 226c 4d3c c7dc babb
00000060: 868a 2e3d 0ea4 62bc ef2e f53c e524 5ebd
00000070: 987b a53c 3773 64bd 4469 693c f202 1b3c
00000080: 517c 053d 6cd0 0a3b 3a8c 10bc 2b8a c33c
00000090: 86aa 2bbc c9bf 153d 84cb f7ba 3a4a ec3c
000000a0: b0d7 dfbc db59 3f3d bd23 4e3c 36c1 063d
000000b0: 7f20 3dbc 8210 713d c121 273d b469 a43c
000000c0: be0d 223a e726 a93c 6d30 153d bb1e 863c
000000d0: 9ce9 14bb 06b1 6c3d c6fd f23c 7c04 17bb
000000e0: f1cf 7f3d 9d32 6b3d 6c57 4b3d 8ddf d83b
000000f0: 0755 053d c6c4 bcbb ad19 4b3d 6a71 e8bc
00000100: ea7b 253d 3e27 cd3c da1a 993d 8db3 6d3c
00000110: 21ae 3cbd 045a 083c d35d 19bd b7f9 d93c
00000120: 6757 f6bc 8f32 c43b 1ea3 52bd 221a 243d
00000130: e4a8 aa3c e457 fc3b 9176 d5bc 4f55 a53c
00000140: 20e4 b13c de20 863b a007 0ebb 3c22 963c
00000150: 88fa 023d 68b9 b8bc 2484 f1bc 47e7 313d
00000160: 6896 aa3c c71c 353c b28e 95bc 3c19 743c
00000170: 5934 103d dd3c 7c3b 2ebd 833c 5f4e 09bd
00000180: bcb0 003d 66c9 febc b9b9 813c b774 a939
00000190: 88e6 2e3d f38c 9bbc 5bcb c9bc 7da0 f63c
000001a0: ddcd afbc f5aa 3e3c 9409 afbc 8b68 ab3c
000001b0: ecb0 15bd 24f4 3b3d 1633 b13c 0c70 ac3c
000001c0: 583a 1abc 1d5e 0e3c 4147 253c 471b 653c
000001d0: 131c a6bc 18ff b43b 367f 643c 8b2c 59ba
000001e0: fafd 34bd 0010 103d 1d15 373c 0bd6 023b
000001f0: 841a 283c 4b16 253c 9338 5c3d abaf a1ba
00000200: 4171 a23c c235 b2bc 1a2e 9a3d f73d 81bc
00000210: afdb 8a3c 41f3 0b3c 52c2 503d abaa c1bb
00000220: 3e3d 2abd e6a7 2bbc 4158 82bd fd7d 353c
00000230: 73fd 06bd a834 943c 3b1d eebc b8ea d63c
00000240: b327 9cbc fbd9 c33a 67b8 a4bc 8f9f 5c3c
00000250: f510 293b d86f be3b 9b87 0ebd e546 823c
00000260: 676e 173c e77e d5bc 19ec 5f3b c536 a43c
00000270: 83dc 33bc fde8 04bc 0a22 a73c 8059 093d
00000280: e950 1a3d 23e3 873c d685 173c 5746 37bd
00000290: ff96 263d 1769 85bd 799b 7d3c 6270 e93b
000002a0: 48d0 5a3d b2ae 913c c732 4cbd 690e dfbc
000002b0: 6cbb 52bd cf4b 19bb 4996 19bd 8293 c33b
000002c0: 04ce 80bd 9d56 b3bb 104e a8ba 2256 da3c
000002d0: eedc 9ebc 6392 0bbb 8b3c 6fbb a5f2 94bc
000002e0: b9e4 b93b ed3e b33c 11f2 a5bb 3436 89bc
000002f0: c2e6 62bc 85c7 063d c666 f9bc 6251 953b
00000300: ca18 0d3d 73ff cc3b 1ffa ac3c 2ca7 dbb9
00000310: d4c6 4bba 101e 83bd 0655 7a3c fe50 26bd
00000320: 9a20 db3c 25a5 0b3c 00a2 0f3d c682 c33b
00000330: 6785 37bd 4ea7 6d3c 1a5d 1abd 0757 f83c
00000340: 1496 19bd 792d e33c a4eb e1bc 20a1 0f3d
00000350: 7316 1b3d a3ee 893c 81d8 1bbc 0d01 d23c
00000360: b88c 163d 7460 413d b4f8 d93a 7ac7 123d
00000370: 79c4 5f3d 0eb0 40b8 719f 93bc 694e 3b3d
00000380: 3185 27bc d156 7d3c 723c 3a3c ad79 4b3d
00000390: a68a 343d fb8f 563d 9a93 b83c 8ae7 80bc
000003a0: 1913 573d 3ad1 3abd 8da1 5c3d 0812 ef3c
000003b0: 23bf 803d 5e24 ad3c 6bf2 dabc cdba f73a
000003c0: 1edf 2fbd b65d 213c d058 4bbd 1f08 353c
000003d0: 6d1a 41bd fc62 c23c 355d 86ba 9bba 4a3c
000003e0: 82d8 1ebd 9bdf c1bb c290 80bc a554 6d3c
000003f0: c540 1ebd a8cc 913c 39f7 2bbc 8148 8dbc
-0.040075965 0.0022289893 -0.03795842 0.018580442 -0.044394154 0.012384921 -0.039386157 0.015581071
-0.019763391 0.024158398 -0.026740989 -0.009141728 0.021336803 -0.0074519976 -0.024326822 0.0012183941
-0.010899994 -0.026249632 -0.05140912 0.052752655 -0.0044564717 -0.013398691 0.012537988 -0.0057025882
0.042612575 -0.013833059 0.029929606 -0.054234404 0.020200536 -0.05577394 0.014246289 0.009461151
0.03258926 0.0021181358 -0.008822495 0.023869595 -0.010477668 0.036559854 -0.0018905257 0.028843988
-0.027324528 0.046716552 0.012581763 0.032899104 -0.011543392 0.058853634 0.040803675 0.020069934
0.00061818573 0.020648433 0.036423136 0.016372075 -0.002272225 0.05778601 0.029662024 -0.0023043444
0.062454168 0.057421315 0.04964392 0.006618446 0.03255179 -0.005760762 0.049585033 -0.028374393
0.040401377 0.025043126 0.07475825 0.01450814 -0.0460645 0.008322243 -0.037442993 0.026608331
-0.030070974 0.0059874724 -0.051425092 0.040063985 0.020832486 0.007700907 -0.026057513 0.02018228
0.021715224 0.0040932735 -0.0021672025 0.018326871 0.031977206 -0.022549346 -0.029481955 0.043433454
0.020823672 0.011054224 -0.018256519 0.0148985945 0.035206173 0.0038488426 0.016081419 -0.033522006
0.031418547 -0.031101894 0.01583563 0.0003232115 0.04270032 -0.018988108 -0.0246331 0.030105824
-0.021460468 0.011637439 -0.021366872 0.020923873 -0.03654568 0.045887128 0.021630805 0.021049522
-0.009413324 0.008689431 0.010087789 0.013983554 -0.020277059 0.0055235736 0.013946345 -0.00082845305
-0.044187523 0.03517151 0.011174467 0.0019964005 0.010260228 0.010076116 0.05376489 -0.0012335678
0.019829394 -0.02175415 0.075283244 -0.015776617 0.016950456 0.008541883 0.05096657 -0.005910238
-0.04156231 -0.010477042 -0.06364489 0.011077401 -0.03295655 0.018091515 -0.029066673 0.02623497
-0.019061899 0.0014942283 -0.020107461 0.013465776 0.002579746 0.0058116727 -0.034797292 0.015902946
0.009242631 -0.026061488 0.0034167825 0.020045647 -0.010977867 -0.008112189 0.020401973 0.03353262
0.03767482 0.0165878 0.009248218 -0.044744816 0.040671345 -0.06514185 0.015478962 0.007123993
0.05342129 0.017783497 -0.049853113 -0.027228551 -0.05144827 -0.0023391133 -0.03749684 0.005968512
-0.06289294 -0.0054729716 -0.0012840647 0.0266524 -0.019392457 -0.002129697 -0.0036504592 -0.018182108
0.005673018 0.021880591 -0.005064257 -0.016749479 -0.013848962 0.03290512 -0.030444514 0.0045568207
0.03444747 0.006256038 0.02111536 -0.00041895488 -0.0007773463 -0.06402218 0.01527906 -0.040604584
0.026748944 0.00852326 0.035066605 0.005966517 -0.044804957 0.014505221 -0.037686445 0.030314935
-0.03749664 0.027731644 -0.027578183 0.03506577 0.037863206 0.016837424 -0.009512068 0.025635267
0.036755294 0.047211125 0.0016629905 0.035834767 0.05463073 -4.594033e-05 -0.018020364 0.045729075
-0.010224626 0.015462593 0.01136695 0.049676586 0.044077538 0.052383404 0.02253132 -0.015735406
0.052508447 -0.04560969 0.053865004 0.029183403 0.062864564 0.021135505 -0.026726922 0.0018900275
-0.04293739 0.009849003 -0.049645245 0.0110492995 -0.047144342 0.02372884 -0.0010251167 0.012373592
-0.038780697 -0.0059165484 -0.015694026 0.014485513 -0.038635988 0.017797783 -0.010495954 -0.017246487

class_head.weight f4 [2, 128]
00000000: 2bd1 e43d ee95 18c0 f24b cdbf 9dad c83c
00000010: 017b f2bd 311e 2b3e 0854 a33f 4788 f53d
00000020: b5c0 80bc 48ad ff3d 1883 75bd cc0c 22bd
00000030: 6005 d53e 83a0 17be e19b 923c ef9f 8c3c
00000040: 43df 243e 6de6 39be 3ff4 12be dc05 7dbd
00000050: b3b5 133e 51e1 9d3f 74fa 14bd 91d6 0cbe
00000060: 29c6 b0bd bfc9 903d 5ab7 103e 86c5 3dbf
00000070: 173f 2b3e 0f51 d33d a990 80bd 3191 e7bf
00000080: 0f08 653f f10b c8bd 2c09 293e 0f56 32be
00000090: 9e15 a8bd ff30 b1bd fb69 12bd 6175 eebd
000000a0: ace1 763d c304 a8bd a628 d4bf c959 10be
000000b0: c34e 4a3d 21dd 4b3f 3f39 b23f 3f95 5abf
000000c0: 43f6 32be b832 4b3d e9d0 a93e 298a e1bf
000000d0: 4395 143f bb01 113e 1567 e63e 2280 9d3e
000000e0: 6471 1540 93bb 46be 6fdc 23be df24 003e
000000f0: e71d f63d e449 3cbe 2464 bc3d 5289 973f
00000100: c962 483e 58ff 9c3f ec1d a43a d0c6 01be
00000110: 7ea9 b8bd 1760 12bd 9259 edbd 5289 c63c
00000120: 0410 f4bd 8d06 29bf 3643 57bf 8f7a 323f
00000130: 1bc1 a5bf e70f 543f 09cd 82bf cee8 3bbf
00000140: 556e 4a3d 72c3 f8bd 96d6 173e 72e2 27be
00000150: 10dd 433e 2719 4abe 8995 023e 3c84 9b3d
00000160: b218 043e 9958 1fbf bf0e 1bbe 81bb 2b3e
00000170: 8a66 493e 9c81 153f 94b8 133f cdb8 ddbc
00000180: 1bf7 943f 4745 a4bd 4066 19be 63b0 afbd
00000190: 1243 92bd b07a 3dbd 917b 193e e8e5 3abf
000001a0: aad9 7bbe eaba d43d 5d6f f8bd a5be 873d
000001b0: ab6b 3ebe cfee f93d e18d 063f bff2 8c3d
000001c0: e3c6 b6bd e5ff 9d3d 46c5 b93d 337a 3fbe
000001d0: 8539 65bf c39e dfbd 9a14 0cbf c8c7 183e
000001e0: e56b 34bf dd09 b63b 5894 98bd d4ad 12bf
000001f0: 93fc 233e bac9 febe e1c1 16bf 8dfb ab3d
00000200: efe3 f8bd 08c1 1640 a278 da3f 972d ebbd
00000210: b2e4 263d 90f1 4abd bb86 b9bf 9ff9 1dbe
00000220: ba03 8b3b efbc 77bd 2719 2f3e 1b9a 58bd
00000230: c56d c0be b0f3 9c3d f82c 0c3d f3d2 fabd
00000240: 52c0 67be 1fb4 f63d 0304 1e3e 37d4 4abd
00000250: 686f 25be 144c b1bf ee70 2e3e 350c 1b3e
00000260: dc8a 2e3e dc28 4c3d 5838 42bd 5c1b 1e3f
00000270: 252e cebd d2c9 bbbd 01b7 993d 927e e03f
00000280: 425f 52bf 8c2d 2e3e 89e3 07bb 3ac6 393d
00000290: 42b9 16bb c5d7 053e 1760 9c3c 31df be3d
000002a0: a363 e3bd 5f2a 203e e087 dc3f 468c 4d3e
000002b0: aada 08be 799b 5cbf 3faf a2bf 5429 433f
000002c0: e82b 203e 97c6 f4bd 2890 c6be a641 ec3f
000002d0: a8d6 0fbf f602 0fbe c5e2 06bf 4862 d6be
000002e0: dbab 0fc0 f7b6 253e fd6a 8d3d 9aca 64be
000002f0: 31a5 2cbe dcb3 503e 025e 10be 3fb6 96bf
00000300: 9882 a7bd ab80 8bbf a0f0 6e3d a5cd ad3b
00000310: 9ffc 413e 6aef 363e bfe7 073e f7a6 9e3d
00000320: 7b92 033e 45eb 4a3f a82f 383f 921b 29bf
00000330: 61fd 993f a5f6 5bbf 44b8 643f fc38 473f
00000340: 578d 16be 843d 1f3e 9782 a2bc a4e7 503d
00000350: 3842 18be d203 c73d 6e47 25bd 102c 0abe
00000360: d1cc 1cbe e232 313f f58b 3e3e 733b fcbd
00000370: 8d4d 1fbe f167 2ebf 400b 03bf 0442 803d
00000380: cd59 93bf f7fa dd3b cf43 153e b21b 86bd
00000390: a6a3 adbb 3045 313e 0702 05be 1be2 3c3f
000003a0: 6912 913e 9294 abbd 3a1a 3b3e f7b0 9dbd
000003b0: a996 033e 4f56 6cbd 916e 10bf 315a 4a3d
000003c0: 762b 143e bc6e d9bd 1354 f5bd 9c1b d23d
000003d0: 5872 733f 488a 353e d378 0a3f ae29 e6bd
000003e0: 08b7 2f3f 2e83 0ebe 91ef 843d b7b6 023f
000003f0: 05db d3bc e5dc 023f 139f 093f 153c 16be
0.11172708 -2.384151 -1.6038802 0.024496848 -0.118398674 0.16710736 1.2760019 0.119888835
-0.01571689 0.12484223 -0.059939474 -0.039562985 0.41605663 -0.14807324 0.017896594 0.017166106
0.16100793 -0.18154307 -0.14350985 -0.061773166 0.14424782 1.2334386 -0.036371663 -0.13753726
-0.08631546 0.0706973 0.14132443 -0.7412952 0.16723286 0.10318195 -0.06277592 -1.8091184
0.8946542 -0.09767903 0.16507405 -0.17415641 -0.08207248 -0.086519234 -0.035745602 -0.11643482
0.06027381 -0.08204033 -1.6574905 -0.1409675 0.04939152 0.7963429 1.392372 -0.8538398
-0.17476754 0.049608916 0.33167198 -1.7620288 0.58040255 0.14160816 0.4500052 0.3076182
2.3350458 -0.19407491 -0.16002057 0.12514065 0.12017422 -0.18387562 0.09198788 1.1838782
0.19568934 1.2265425 0.0012521124 -0.12673497 -0.09016703 -0.03573617 -0.1158935 0.024235401
-0.11917117 -0.6602562 -0.8408693 0.6971826 -1.2949556 0.82836765 -1.0218822 -0.73402107
0.049421627 -0.12146653 0.14827952 -0.16394976 0.19127297 -0.19736157 0.12752356 0.07593581
0.12900046 -0.62244564 -0.15142344 0.16770746 0.19668022 0.58400893 0.5770352 -0.027065659
1.1637911 -0.08021026 -0.14980412 -0.08578565 -0.07141699 -0.046259582 0.14988543 -0.7300706
-0.24594751 0.103872135 -0.12130616 0.066281594 -0.1859576 0.12203752 0.5256024 0.06882238
-0.089246534 0.07714824 0.0907083 -0.18698959 -0.8954089 -0.10918953 -0.54718935 0.1491996
-0.70477134 0.005555375 -0.07450169 -0.5729649 0.16014318 -0.4976328 -0.58889586 0.08397589
-0.1215285 2.3555317 1.7068064 -0.11483305 0.040745445 -0.04954678 -1.4494241 -0.15427254
0.0042423876 -0.060482915 0.17099439 -0.05288134 -0.37583748 0.07663667 0.034222573 -0.122472666
-0.22631958 0.12046074 0.15431218 -0.04951879 -0.1615578 -1.3851342 0.17035267 0.15141375
0.17045158 0.049843654 -0.047417015 0.617605 -0.10067395 -0.091693535 0.07505608 1.7538626
-0.821766 0.17009562 -0.0020734987 0.04535506 -0.0022998606 0.13070591 0.019088788 0.09319914
-0.111029886 0.15641163 1.7228966 0.20073041 -0.13364664 -0.8617473 -1.2709731 0.76234937
0.15641749 -0.119519405 -0.38781857 1.8457534 -0.56186914 -0.13965973 -0.5268977 -0.41871858
-2.2448642 0.16183077 0.06905172 -0.22342911 -0.1685989 0.20381111 -0.14098361 -1.1774367
-0.08179206 -1.0898641 0.058334947 0.0053040558 0.18944024 0.17864767 0.13271998 0.0774669
0.12848847 0.7926524 0.7194772 -0.66057694 1.203045 -0.85923225 0.8934367 0.77821326
-0.14702354 0.1555081 -0.01983766 0.05100216 -0.1486901 0.097175255 -0.040351324 -0.13493371
-0.15312506 0.69218266 0.18608077 -0.123160265 -0.15556927 -0.6812735 -0.5118904 0.062625915
-1.151178 0.006774302 0.14576648 -0.06548251 -0.0052990494 0.17311549 -0.12989055 0.7378251
0.28334358 -0.08377947 0.18271723 -0.07699769 0.12850441 -0.057699498 -0.5641871 0.04940242
0.14469704 -0.10616824 -0.119789265 0.10259172 0.9509635 0.17728531 0.54090613 -0.112384185
0.6863866 -0.13917229 0.06491006 0.5106005 -0.025861273 0.5111831 0.53758353 -0.14671357

class_head.bias f4 [2]
00000000: f8e7 693e 921c 55be
0.22842395 -0.2081168
