code/results/saved_models/rnn_1000.pt (torch, 105636 bytes, 8 tensors)

rnn.weight_ih_l0 f4 [128, 34]
00000000: 00ad 02bd 652f 7bbc 7af8 8bbc 20fa 46bd
00000010: 4ce0 63bd 9d6a 103d 53f2 37bd 0184 953d
00000020: 86b0 48bd 1ee5 663d ad3a 043d 4ca4 83bd
00000030: b4d5 8fbd 572d bdbd b73e 3abd b463 18bd
00000040: 0c7d e1bc df5c ddbd ed8a 653d 9e50 6bbd
00000050: 4798 56bd f243 9dbd c9a5 8bbd 7bd6 313d
00000060: b918 ab3d a844 e23d 33ff 323d 9355 98bd
00000070: 535c 8f3c 12f7 923b 9db2 c33d b2b2 18bd
00000080: 3172 9e3d ce1d e5bd 1435 113d 3a06 19bd
00000090: 5202 cebd 6d90 25bc 8bd5 dcbd 49aa a73d
000000a0: 0299 e73b e064 f8bb 3666 2fbc b21a a13b
000000b0: 9370 583d e082 85bd 4b01 60bd 0400 7abd
000000c0: 4b7a 643d 8863 7ebc dc97 cd3c 9d97 89bd
000000d0: 63fc 94bd 2044 f8bc 1cd3 9cbd f244 71bd
000000e0: bc53 1fbd a4c8 bfbd 5b2c 13bc 6816 7bbb
000000f0: 84ec a3bd ed50 a2bb 157a ddbd 42d3 76bd
00000100: 96a6 423d 6ff5 a93d c216 85bd 383a 063e
00000110: 7639 73bc 1323 913d 7f55 7d3c d119 083e
00000120: 9851 a3bc 17e9 ad3d ea2b 96bd b4f2 a33d
00000130: d807 0a3c 067e 053e 7a6a a63c 8bf1 b73d
00000140: c6fb b6bd 9daa 0abd 1c9b b73d 774e 9d3d
00000150: 7c4f 513d ed2f e63b 6496 af3d 0022 abbd
00000160: 4a20 8fbd aa04 96bd 97bf 913c 4338 8b3d
00000170: 2a2b 88ba 405c b4bd 3878 b2bc 2134 c03d
00000180: 1d3e e7bd 6a19 c83d 34d7 063e c9c9 ac3d
00000190: 478f 013d e6ff b73d 2437 03bc a803 f2bd
000001a0: 482d 27bd a4e4 1abd 3f16 95bd 258e e7bc
000001b0: 6f05 5ebd 79ee cfbc 09cf 543d f63b e9bd
000001c0: ef15 223c cdf8 9fbd 8a1f f4bc b218 e1bd
000001d0: 44c3 98bd 700c 09be d52b 7fbd c318 6ebd
000001e0: a188 c0bd f31b cbbd 6bdb a5bd 23b0 a6bd
000001f0: 23c3 763c 83ac 873d 1f9d 793d 97af 973d
00000200: ec6c 93bd cf4b a5bc 320c cc3d 4f59 35bc
00000210: 099c 363d f7af ae3b 47c7 953c cc53 44bd
00000220: 1a88 17bd 4127 b7bd c554 753d c76a 8cbd
00000230: 4e34 c83b 5187 5dbd 642a c2bd 9c5f 30bc
00000240: 2b92 873d 8d53 16ba 8f77 efbd 3d82 cc3d
00000250: fd20 b73d 716e 21bd 67bc 453c d534 c33d
00000260: d36e 653d 7a10 b4bc 3e22 203d 4d7f 033d
00000270: bef4 5a3d 78ea 32bd 6479 81bc 978f 083e
00000280: 5a97 3b3d 5955 89bc d4fd 9e3d 5a2b ff3c
00000290: 9b18 b83d 0f1c 333d 8b6a a0bb 775e f1bd
000002a0: bcd8 ad3d 9e83 27bd 78ae 50bd 9274 c23d
000002b0: cdd8 b83d bbe4 ca3d 02ee 1dbd 264c c43d
000002c0: d000 17bd b915 a7bc 020b 013d bd59 e63d
000002d0: 88d3 4abd e7a4 853c 011d 143e f354 8cbd
000002e0: c029 8a3d a3ab d4bd d1f5 8a3d cdbd 893c
000002f0: 13ad 0abd b12e 66bd cf7c 1abc 0608 2f3d
00000300: f854 633d dbfb 1a3c 79f0 fe3d 1570 5dbd
00000310: 3b7a abbd 921a afbd cbcd 40bd 0176 21bd
00000320: f2a7 033d 9f68 fc3c ccae e9bc 4ff9 81bd
00000330: 1086 89bd 6d92 75bd de6d dc3c 8082 ba3c
00000340: ca10 bebd 76ee 8dbd 25d7 313d 3773 4ebd
00000350: e5b9 b3bc 84f8 613b 7680 96bd 2304 f13b
00000360: cd2a 2d3d a8cc 1b3d 15da 1d3c 81d7 073d
00000370: 8448 21bd b113 703c f3b9 c43b a6b7 7abd
00000380: 3336 7d3d 1e4c f83c d46a bfbd cfcd 6bbd
00000390: 3347 2abd b5f8 383c a894 263d 8254 1bbd
000003a0: b2e3 bf3d f96c 403d 3277 fa3d e217 92bd
000003b0: fa20 ae3d a07a 353d cbde 953d 2281 413d
000003c0: 0210 10bd 103d 74bd c810 e5bc b12a 81bd
000003d0: 9ecd 61bc b033 00bd fb3f 8abd 2561 e83c
000003e0: 615a 2a3d 608c 763d bad5 5cbd a020 83bd
000003f0: 0e93 183e 7fc9 b03a 1f39 973b 614e c6bc
-0.031903267 -0.015331124 -0.017086256 -0.04857838 -0.055633828 0.035257924 -0.044908833 0.07300568
-0.04899647 0.056370847 0.03228252 -0.064278215 -0.070231825 -0.092371635 -0.045469966 -0.03720446
-0.027525447 -0.108087294 0.056040693 -0.05744993 -0.052391317 -0.07678975 -0.068187304 0.043417435
0.08354325 0.110482514 0.04370041 -0.07438197 0.017500078 0.0044850195 0.09555552 -0.037279792
0.07736624 -0.111873254 0.03545101 -0.037359454 -0.10059036 -0.010105235 -0.107829176 0.08186776
0.0070678005 -0.0075803846 -0.010705521 0.0049165124 0.052841734 -0.06519103 -0.054688733 -0.06103517
0.05578069 -0.01552666 0.025096826 -0.06718371 -0.072747014 -0.030305922 -0.076574534 -0.058903642
-0.038898215 -0.09364441 -0.008982743 -0.0038312916 -0.08004096 -0.0049534948 -0.10814301 -0.060260065
0.04752215 0.08298766 -0.06498481 0.13108146 -0.014845243 0.07086768 0.015462278 0.13291098
-0.019936368 0.08491724 -0.07332595 0.08005276 0.008424722 0.13036355 0.020314444 0.089816175
-0.08934741 -0.033854116 0.08965132 0.076809816 0.051101193 0.007024756 0.085736066 -0.08356094
-0.069885805 -0.07325108 0.017791552 0.067978404 -0.001038884 -0.08806658 -0.02178584 0.09384943
-0.11291144 0.09770472 0.13168031 0.08436925 0.03163078 0.08984356 -0.008008752 -0.118171036
-0.040814668 -0.037815705 -0.07279634 -0.028266022 -0.0542044 -0.025382267 0.051955257 -0.1138839
0.009892925 -0.07811127 -0.029800195 -0.109910384 -0.07459119 -0.13383651 -0.06229766 -0.058129083
-0.0940106 -0.0991744 -0.08098491 -0.08139064 0.015061173 0.06624701 0.060940858 0.07406538
-0.071985096 -0.02017775 0.099632636 -0.011068656 0.0445824 0.0053310352 0.0182835 -0.047931477
-0.03699503 -0.08943034 0.059895296 -0.06856304 0.006109751 -0.054084126 -0.094807416 -0.010764983
0.06619676 -0.0005734496 -0.11692726 0.099857785 0.08941839 -0.039411966 0.012068844 0.09531561
0.056013893 -0.021980513 0.039095156 0.032103825 0.05345606 -0.043680638 -0.015804954 0.13336025
0.045798637 -0.01676433 0.077632576 0.031148601 0.08989068 0.04372793 -0.0048955134 -0.11785596
0.084886044 -0.040897004 -0.050947636 0.0949489 0.090257265 0.09906908 -0.03855706 0.09584837
-0.03686601 -0.0203961 0.03150464 0.11247585 -0.04951814 0.016313983 0.14464189 -0.0685214
0.067462444 -0.103842996 0.06785167 0.016814137 -0.033856463 -0.056196872 -0.009429171 0.04273226
0.055500954 0.009459461 0.1244821 -0.054061968 -0.08372923 -0.0854999 -0.04707126 -0.039419178
0.032142587 0.030811606 -0.028525732 -0.0634638 -0.067150235 -0.059954096 0.026907858 0.022767305
-0.09280546 -0.069302484 0.04341807 -0.050402846 -0.021939227 0.0034480402 -0.07348721 0.0073552295
0.042277146 0.038036972 0.009634514 0.033164505 -0.039375797 0.014653132 0.006003612 -0.061210297
0.061819267 0.030309733 -0.09346548 -0.05756932 -0.041571807 0.011289765 0.040669113 -0.03792239
0.09369601 0.046978924 0.12229766 -0.071334615 0.085023835 0.044306397 0.07317885 0.04724229
-0.035171516 -0.059628546 -0.027962103 -0.06306971 -0.013781933 -0.031299293 -0.067504846 0.028366635
0.0415901 0.060192466 -0.053914763 -0.06402707 0.14899847 0.0013487785 0.0046149637 -0.024207296

rnn.weight_hh_l0 f4 [128, 128]
00000000: 8436 b8bc ab2d 693d 15c4 413d 7731 16bd
00000010: bb60 3f3b 3977 acbd e5c8 2f3d 30fc cebc
00000020: fba1 523d df75 34bd b4fa 95bd 66c9 afbd
00000030: 9033 76bd 59fa b63b 76cb 6f3d 9cbb 8d3c
00000040: 5334 983c eab2 c2bd 9dd0 10bd 909f f93c
00000050: 0458 97bd c906 db3b 8fb8 6cbd 799e 4cbd
00000060: 6b72 e6bb 7aab 683b 36aa 26bd 3de3 edbd
00000070: 29cf 6dbd 059f 983c 64bf 39bc 7b00 a8ba
00000080: 306c a6bc 1ca2 0a3d 4a1e b7bc 33db 1d3d
00000090: d352 fb3c 93c7 9f3d ff8d d13d 5fdc 093c
000000a0: c6ce 9b3d 33ce 40bd ca20 4d3d e8e0 533c
000000b0: 56e8 863c 8880 1b3e 3327 cbbd 42d8 edbc
000000c0: 05c3 ab3d 9851 ccbc 51e5 b23d 46cf c5bc
000000d0: e4ec 61bd 0a35 d3bd 4175 8c3d 3b6b 0e3d
000000e0: 3280 9fbd 0af5 163e f042 66bd f581 4ebd
000000f0: 377f 9e3d bf63 893c df72 67bd 9782 ef3d
00000100: ab29 c83d 6061 ec3d d13d dbbc fd63 4f3d
00000110: c442 853d 7a4c ba3d 01dc 35bd 0db3 44bb
00000120: b78f 3f3d 572e 87bd 31a9 7bbd b2e2 76bd
00000130: 51c0 86bd 8d96 54bd 9cba 2cbd 796d b13d
00000140: 32f9 1cbc 1f98 8b3c 2449 bb3d 10ca d73d
00000150: dab2 bcba ea53 3abd 5d9f c73d 3091 873d
00000160: 5970 d23c 86a0 bcbd 539a 24bd 3170 87bb
00000170: 3d6b e83b f018 c4bd b533 d73c df81 52bd
00000180: ad83 00be d52a e53d 608e 2abd 2b00 dcbb
00000190: ab7d d9bc a05c 7f3d 28e4 b3bc a97d 833d
000001a0: f663 833d e01b 9f3d 25f1 d53d 0237 1b3c
000001b0: f4e7 da3c c09b 423e 23ad c33d 8716 d1bc
000001c0: fb2f f73c 9d99 bdba 41b0 6b3d 8e15 90bd
000001d0: 3753 923d 3220 a63c 8af5 5cbd 3311 f1bd
000001e0: 5ff5 953c 6600 0ebb 40a2 a43d 5604 d1bd
000001f0: e7ee 71bc 711a 6d3d f9a4 89bd 0f7e 61bd
00000200: 6cd4 9ebd a1dd b33d 9d0b 6b3d fb5b d5bc
00000210: 88bb 23bd 6ed2 a4bd 8cbe 0cbc 2f64 613d
00000220: de30 aabd 090d 73bc 3fd6 403d 633a 4abd
00000230: e43b b3bd 3abe 76bd 9e79 74bd a8b8 babd
00000240: d0ec f4bc 7143 3ebd ccaf c0bd 74d3 673c
00000250: f557 6abd dab3 453d 4564 623d 42d6 bf3a
00000260: 45f0 6ebd 285c a3bd f524 053d a7c7 403d
00000270: 6a6b 493b 2832 cb3c 9145 fb3c 4e6d e3bb
00000280: 1b86 603d 4261 873d e625 6e3d f66d d9bd
00000290: d9bf 92bc 9ad4 ac3d 6d54 d3bc e0ee 273d
000002a0: a254 383d 7e4e 20bd 3e77 60bc 1f06 0c3d
000002b0: 674c 4fbc e0a6 b7bd 9d01 083c 5a6d a5bc
000002c0: b55c 9dbb 1ed0 23bd 5151 db3d 4f1d 78bc
000002d0: cc83 f2ba 786a ae3d 43a8 843b 1ee0 113d
000002e0: 2a28 853d 97ee 8ebd 39dc 763b 396a c5bd
000002f0: 700e 30bd 0d4d a1bd e74b 833d eb79 673d
00000300: ef43 513d 2076 45bd 8585 49bd e60c 963d
00000310: 0c12 0e3c d923 483d dfda 3bbd 8746 81bd
00000320: 4f7c 45bc 6c41 0f3d 9fd7 b8bc 66a1 25bd
00000330: 497f 68bc 5652 583d a4c9 ab3d cac6 8abd
00000340: 0e2d 2a3c 643a 6c3d b4ec 8f3d 6cf3 b8bc
00000350: d2f1 a2bc 1b3b c93d 1b3b 6b3d bd7d 0cbd
00000360: 8758 bdbd bba2 a63d 8563 303d 81e5 9e3d
00000370: d966 da3c 8ce5 2e3c fd53 06bd 2ed7 e7bc
00000380: 5a80 90bd 074f 11bd 39e6 93bd 3a3a 68bd
00000390: 8ebf d2bb 86c9 a63d 872e abbc c167 1dbc
000003a0: 355f 3d3d 5a32 04bd e065 c0bc 1a30 9abd
000003b0: 6c6f c33d 086f 073d 0477 17bc 7f9b 1cbd
000003c0: 6e15 85bd 5c26 9f3d b61d b83c c4d9 24bd
000003d0: 3cd9 cfbc 332e ab3d 15a0 51bd ca90 3abd
000003e0: 4b7b 423d 44f6 2b3c bd5a a63d d7a5 3dbd
000003f0: 475b 6cbd 5791 9bbd 8e81 91bd 2e83 4e3d
-0.022486933 0.056928318 0.04730614 -0.036668267 0.0029201943 -0.084211774 0.042916197 -0.025266737
0.051424008 -0.044057723 -0.073232085 -0.085833356 -0.060107768 0.005584043 0.058543645 0.017301373
0.018579638 -0.095067814 -0.0353552 0.030471593 -0.073898345 0.0066841585 -0.057793196 -0.04995582
-0.0070326827 0.0035502599 -0.04068967 -0.11615608 -0.05805889 0.018630514 -0.011337135 -0.0012817526
-0.02031526 0.033846006 -0.02235331 0.038539123 0.030679142 0.07801738 0.10232162 0.008414357
0.07607798 -0.047071647 0.0500801 0.01293204 0.016468208 0.1518575 -0.09919586 -0.029033784
0.083868064 -0.02494125 0.08735145 -0.024146687 -0.055157557 -0.10312851 0.06858302 0.03477023
-0.07788123 0.14741912 -0.05621618 -0.050416905 0.07739108 0.016771195 -0.056506034 0.1169483
0.097735725 0.1154201 -0.026762875 0.050632466 0.06506875 0.09096618 -0.044399265 -0.003001395
0.046767917 -0.066006355 -0.06144065 -0.060274787 -0.0657965 -0.05190139 -0.042170152 0.086634584
-0.009580897 0.01704031 0.0914481 0.10536587 -0.0014396564 -0.045490183 0.09747193 0.06619489
0.025688337 -0.09210305 -0.040186238 -0.0041332473 0.007092862 -0.09575069 0.026269773 -0.051393386
-0.1255023 0.1118981 -0.041639686 -0.006713887 -0.026549181 0.062344193 -0.02195938 0.06420452
0.064155504 0.077689886 0.10446385 0.009473564 0.026721932 0.19004726 0.095545076 -0.025523437
0.030174246 -0.0014465336 0.057541136 -0.07035361 0.07144778 0.020279024 -0.0539451 -0.117708586
0.018305479 -0.0021667718 0.08038759 -0.10205905 -0.014766431 0.057886545 -0.06720919 -0.05505186
-0.0775536 0.08782507 0.057384122 -0.026044836 -0.039973766 -0.08047949 -0.008590352 0.055027183
-0.08310102 -0.014834651 0.04707932 -0.04937209 -0.087516576 -0.060240008 -0.059686296 -0.09117252
-0.029898077 -0.046451036 -0.094085306 0.014149535 -0.05721279 0.048267223 0.055271406 0.0014635997
-0.058334608 -0.07976562 0.032505948 0.047065403 0.003073419 0.02480419 0.03067282 -0.0069405204
0.054815393 0.06610347 0.05814161 -0.106166765 -0.017913746 0.08438988 -0.025797093 0.040999293
0.045002587 -0.039137356 -0.013700305 0.034185525 -0.012652493 -0.08967376 0.008301166 -0.020193744
-0.0048023113 -0.039993398 0.10708869 -0.015143706 -0.0018502413 0.08516401 0.0040483787 0.035614125
0.06501801 -0.06979101 0.0037667884 -0.09639401 -0.04298252 -0.078760244 0.064109616 0.056512754
0.051090177 -0.048208356 -0.0491996 0.07326679 0.008671295 0.048862312 -0.04586303 -0.0631228
-0.012053563 0.0349745 -0.022563754 -0.040437125 -0.014190503 0.052812897 0.08388069 -0.06776197
0.010386718 0.057672873 0.070275694 -0.02257701 -0.0198907 0.098257266 0.057429414 -0.0342996
-0.09245401 0.08136507 0.04306366 0.07758618 0.02666037 0.010674845 -0.03279494 -0.028300848
-0.07055731 -0.035475757 -0.07221646 -0.056696154 -0.0064315265 0.08143906 -0.02089621 -0.009607256
0.046233375 -0.03227458 -0.023486078 -0.07528706 0.095427364 0.033064872 -0.009244684 -0.03823423
-0.06498228 0.07770988 0.022475105 -0.04024674 -0.02537214 0.08358421 -0.051178057 -0.045548238
0.047480863 0.010495726 0.08122776 -0.046300735 -0.057704236 -0.07596081 -0.07104789 0.05041807

rnn.bias_ih_l0 f4 [128]
00000000: db1e e8bc 96e9 a63d a482 6ebd d5e9 1fbd
00000010: 9701 10bd f96a 8a3d 0b9c 63bd 83cc 62bc
00000020: c36e 383d 5f41 b2bd ead6 4c3d f6f2 573d
00000030: 732e cbbd 5809 62bd 921d 883d 6484 f6bc
00000040: 5075 44bc 0c91 fa3d 478c 58bc a7f9 933c
00000050: d661 b8bd b5a9 a5bc 4e6e 98bd 211a d83d
00000060: ccb4 6abb 8353 793d a324 a63d ec56 dfbc
00000070: 7505 59bd a460 2d3d 923c 8c3d 3d5e 84bd
00000080: 958e 18bd 2c06 ab3c d2c3 963d fc92 963d
00000090: 613b b4bc 2cee 923d e300 b23d de33 71bd
000000a0: 8c55 8c3b 8123 be3d bc1f de3c 8ef0 eabc
000000b0: 9da9 3abd 7f48 8dbd a2ae 693d 3742 4cbd
000000c0: 0d79 073d cdee 47bd d77a 8fbd 511a 8c3c
000000d0: d776 833d a71b b6bc c0c9 803b 6f48 d9bd
000000e0: d2d0 4e3d a568 93bd dde7 9abc 9391 f93c
000000f0: 32b9 493a 8fc9 84bd 95a4 8c3d cde0 c1bc
00000100: d6e8 dd3c 79c7 87bc 0887 b2bc 1813 2a3d
00000110: d392 d0bd 006f 643c 9f98 443d 6c16 78bd
00000120: 2f67 213d e4c3 8abc 91f1 453d a83f 303d
00000130: 28b3 913c 909c 293d 5682 a43c 8383 823d
00000140: 5338 bebd 17a4 c9bd aeee 91bc 0cad 70bd
00000150: 3461 e13c 190f 643b bec9 8ebb 2b9a 3a3d
00000160: a56d 8bbd ee6d 723c 5d32 24bc 5e14 8fbd
00000170: 0f06 bd3d 93f8 9f3d 64e3 013d 75f0 d73d
00000180: aea6 4c3d 2ec7 ed3c f2ed 703d d8d7 7fbd
00000190: 21b2 0ebd 87c5 403d c739 ab3d 6db2 1abd
000001a0: eb8e a0bd d593 41bd d8ad 503d cb7b 37bd
000001b0: 3f45 8b3d e384 0cbd 0c5b 9b3d 28cb 213d
000001c0: 5ab4 173d 6b51 513d 7363 e53d 89ad a13d
000001d0: 6f0f 693d 9aec 8d3d 3e04 85bd 654a 31bd
000001e0: f748 a53d ee95 663d e507 9fbd 5c9b 72bd
000001f0: 226b a8bc dfc2 7b3d 553e 22bd 363e 8e3b
-0.028335026 0.08150022 -0.058230057 -0.03904136 -0.035157766 0.06758685 -0.055568736 -0.013842705
0.045027506 -0.08703875 0.050009646 0.05272194 -0.09920969 -0.055184692 0.06646265 -0.030092426
-0.01199086 0.12234697 -0.0132170385 0.01806338 -0.09003036 -0.020222524 -0.07442914 0.10551859
-0.003581333 0.06087066 0.08112457 -0.027263127 -0.05298372 0.04232849 0.0684749 -0.06463287
-0.03724535 0.020876966 0.073615685 0.07352254 -0.02200097 0.07174334 0.086915754 -0.058887355
0.004282659 0.092841156 0.027114742 -0.028679159 -0.045571912 -0.06898593 0.05705131 -0.049867835
0.033074427 -0.048811723 -0.07005852 0.017102392 0.06419151 -0.022229983 0.0039303005 -0.10609519
0.050492115 -0.07197694 -0.01890939 0.030464923 0.0007695138 -0.06483757 0.06867329 -0.023666764
0.027088564 -0.016574608 -0.021792904 0.041522115 -0.101842545 0.01394248 0.047997113 -0.06056826
0.039405044 -0.016939111 0.04832608 0.043029457 0.017785624 0.041409075 0.02008168 0.0637274
-0.09288087 -0.09845751 -0.017814007 -0.05875878 0.02751217 0.0034799038 -0.0043575456 0.045557182
-0.068080224 0.014796717 -0.010021773 -0.069863066 0.09229671 0.07811084 0.031710997 0.105439104
0.049963646 0.02902564 0.058820672 -0.062461704 -0.034837846 0.047063377 0.083606295 -0.037767816
-0.078397594 -0.047260124 0.05094704 -0.044795793 0.06800317 -0.03430642 0.07585725 0.039500386
0.03703723 0.051103037 0.11200609 0.07894427 0.056899484 0.06929894 -0.0649495 -0.04328384
0.080705576 0.056295328 -0.07765178 -0.059230193 -0.020558897 0.06146514 -0.039610226 0.004340912

rnn.bias_hh_l0 f4 [128]
00000000: c3c0 f23c 57e0 203d 9a4c 46bd e3ec d9bc
00000010: b902 b0bc 01f3 893c 058a 97bc ef8e a03d
00000020: 9081 243d 6ccb cabc 5fbc d33b 3d98 61bd
00000030: b43d 4dbd c963 3cbd 758e 563c cb5d c7bb
00000040: 6615 b53d 6bb3 c93d cef8 12bd 0712 c9bd
00000050: 3e6f 03bc 2d7b 473d 1f91 88bd 4643 2cbd
00000060: 937d 9bbd 3b47 2e3d cf9d 923b 0afc 503d
00000070: 26d4 b73b 1f00 04bb ee8d 483d a61b 1e3d
00000080: f0c8 593d d447 a33c fc09 863d ebbc 123d
00000090: 7840 963d 4c13 5abd 57b6 b33d c180 633c
000000a0: 873a 613d 830c 4abd 06cc 963d 66b8 a2bc
000000b0: 2291 ffbb e75d ac3d bdd3 babd ce53 be3d
000000c0: c9b3 983d 0ff8 c2bc 2aa1 1cbc 0bfe a93d
000000d0: 5b0d 593d b419 46bd dd26 aabd 4484 243d
000000e0: 0b0c 58bd 612c 8d3d 9e1d cfbd 9983 2a3d
000000f0: 076c 6839 8e93 813d a539 063d 00c5 9bbd
00000100: 6f8e 323d e7db c4bc fb90 93bc d39e 973c
00000110: 482e 38bd 8b6e 423d db03 9e3c d9f2 823d
00000120: 69c5 973d 8946 cd3d 6950 3abd 8906 20ba
00000130: 56e4 ce3d 92dc 9f3c 6e16 cc3c 922e 073d
00000140: 1367 8cbc 93d2 373d aebd e8bc 4801 313d
00000150: f7ad 35bd 2761 973d 077b 93bd 2c3c 25bd
00000160: 9d9b aebd 72c4 8dbd d37f 513d d0a0 f8bb
00000170: 47da 35bd 994d b3bc d645 d03d 2343 413d
00000180: 1033 0fbd 3c36 363c 2528 983d f357 ea3b
00000190: 7d7a c63a b9e1 063d 3864 cb3c 738b 66bd
000001a0: b8d0 3a3d 5e8f 7f3d 8638 d23d e7dc 32bd
000001b0: 6368 e03c 3d22 9dbd 1972 833d 295f 41bd
000001c0: 6396 173d 2ca0 3b3d 1802 793d 4f06 433d
000001d0: 3aad ccbd ef7b b5bc 4db0 e2bc 9368 cf3d
000001e0: 1e4d babb 7222 bcbc 0ff4 95bd ee63 9b3d
000001f0: dd36 923b 5526 d03d ed16 073d 927c ba3c
0.029632932 0.039276447 -0.048412897 -0.026602214 -0.021485673 0.016839506 -0.01849843 0.078397624
0.040162623 -0.024755202 0.0064616646 -0.055076826 -0.050107673 -0.0459936 0.013095488 -0.006084179
0.08841972 0.098486744 -0.03588181 -0.098178916 -0.008022128 0.048701454 -0.06668305 -0.042056344
-0.07592311 0.0425484 0.0044743787 0.051021613 0.005610007 -0.0020141674 0.04896348 0.038600586
0.053170145 0.019931711 0.06544873 0.035824697 0.07336515 -0.05324106 0.08775013 0.013885678
0.054987457 -0.04932834 0.07363133 -0.019863319 -0.0077992836 0.08416348 -0.09122417 0.09293328
0.07456166 -0.023799924 -0.009559909 0.08300408 0.052991252 -0.048364356 -0.08308194 0.0401652
-0.05274586 0.0689323 -0.10113071 0.041629408 0.00022165487 0.06326972 0.032769818 -0.07605934
0.043592867 -0.024030639 -0.018013468 0.01850835 -0.044966012 0.047468703 0.019288948 0.06393976
0.074107 0.10023219 -0.04548684 -0.00061044894 0.101021454 0.019514356 0.024913039 0.033003397
-0.017138993 0.044878554 -0.028410759 0.043214113 -0.04435536 0.07391577 -0.072012 -0.040340587
-0.08525775 -0.069222346 0.051147293 -0.0075875297 -0.04439762 -0.021887587 0.1016957 0.047183167
-0.034960806 0.011121329 0.07429532 0.0071515976 0.0015142706 0.03293011 0.024828061 -0.056285333
0.045609206 0.062392585 0.10264687 -0.0436677 0.027393525 -0.07672546 0.06418247 -0.047209892
0.037008654 0.04580705 0.060793012 0.04761344 -0.09993978 -0.022153823 -0.027671957 0.10127368
-0.0056854626 -0.022965644 -0.07321941 0.075874195 0.0044621066 0.10163561 0.032980848 0.022764478

fc_forecast.weight f4 [34, 128]
00000000: a4b6 4a3d 90d5 07be f118 a9bc e727 85bd
00000010: 5de4 e8bc e1e2 343e 2229 00be 29c0 593e
00000020: 6b42 46bb c2a3 b6bd 151b 4c3e de3f a53c
00000030: 436d b5bd 3657 93be 8517 8a3d 3b24 8abc
00000040: e6e8 9e3c 9c42 253d 82db 943d 19e7 e2bd
00000050: 598c 65bb 91a6 15be 8a79 063e b30d 56be
00000060: 8250 0ebd 49b0 e23c 49b3 1fbd 4023 4cbe
00000070: 295d 903d 6047 b6bc eada 0f3e 53e9 c53d
00000080: ae76 5f3c c50d fb3c e17d 2fbe 8892 223e
00000090: 80c2 d6bc e9c8 86be 2086 e6bd 5b8c 293e
000000a0: 12c2 27bc c6a8 d3bc 3bcf 9c3c 604d 163c
000000b0: 22b3 6abd 601d 17be 619f 91bc f17d d1bb
000000c0: cebd 123e a619 ff3d 3820 cdbc d3a4 aa3d
000000d0: 5a79 6dbc 9ebc 943b 3da6 8a3d f91b 20bd
000000e0: 9b59 093e 6c6d 9d3c 6465 93be fa87 b43d
000000f0: 4f67 9fbb e4d3 0a3e 68ef edbd 73de e1bd
00000100: 9035 fa3b 3ff6 66bd fcc9 54bc 3e99 06bd
00000110: 8b17 74bd ecd0 9dbd 3459 d2bc 1f3e 86bd
00000120: 6984 8c3c baab 66be adbd a63d 8963 3cbe
00000130: 7fa5 00be 255f 5e3d 3081 7c3d 5dba 2dbd
00000140: 7780 033e 6955 59bd fc1d 03be 2162 0c3e
00000150: 51b5 cbbd c82d 303c 6357 023e 9f69 b73d
00000160: 57a4 1abe 6949 6dbd e6d7 15bd 1aa4 a0bd
00000170: 1b2c 173d 7546 b6bd cc85 17bc 74f1 833d
00000180: 781b 3abe 43c5 bc3c bc62 af3c f60b 0bbe
00000190: 2ef3 22bd bcc2 9abc 2b5b c4bc a31e e6bd
000001a0: 8213 393d f1fc 45bd b2db 34bd 4efc 96bd
000001b0: 86cb dfbd eed3 99bd d42f 09bd 1b0f 97bd
000001c0: 5c52 18bd 4212 493d 6358 0ebe d2a0 433e
000001d0: ede2 593d 1bf3 343e 11f9 16bd 4e4c b83b
000001e0: 3301 1abd 2c69 9f3c e637 46bd c01f ff3b
000001f0: 7e44 cbbd 06cd 093d 5f98 1cbe d158 8c3e
00000200: 6cbf ca3b cf3b 52be 44a7 81bc 87b1 93bd
00000210: 87ef 85bd e49f be3d ecc5 ddbc 94de 2d3e
00000220: fb5b 0c3c a1de debd e2b1 863e 32fb e13d
00000230: b5af 2dbd 04c3 71be f928 383e c878 023d
00000240: 09fd 223d 91a8 fd3d 704f d13d 64bd 363d
00000250: 9162 163d 36f5 b3bc 36b7 ae3c 6488 543d
00000260: 4278 e43d 4b56 8dbb 8999 0dbd 6342 333d
00000270: 8150 07b9 c578 783d 91e8 2a3c 0561 a23d
00000280: 926b 493d 9b61 e33d f441 0ebe 7879 d43d
00000290: 165f 713c ff8f 36be d5f7 f0bc 335f ed3d
000002a0: 4fd1 15bb 0335 1dbd 7594 3ebd 0fa0 06be
000002b0: 003d 24be 2e93 a5bd 4717 863d d6ef 533e
000002c0: fd0f 363e 9bfa ef3d 43aa 36bc 4e30 9abc
000002d0: 61ee 0ebd b9b7 e6bc 779b c53c 2bc4 c13d
000002e0: 4e19 b23d ca75 5d3b 81a9 1dbe ce01 f23d
000002f0: cb66 42bd 7572 ac3c b309 80bb f7fb 75bd
00000300: d27f cbba dc61 f23c 09d5 fcbd f0a6 abbc
00000310: e619 dabd c387 f5bc b804 babd 6a62 22be
00000320: e35c 5fbd 78d5 0e3b d3aa 153e 8d90 1a3c
00000330: 2ac2 593c cee3 6c3e 551b 393d 1d3d 0fbe
00000340: 91bb 823e f712 a03c 41d1 7abe 094b 843d
00000350: 443a e73d 8686 743d 37ee eb3d ab8e 553d
00000360: f08a cbbd c42d 223d a50c 26bd 1651 5fbd
00000370: 4bde 4ebe c225 09be 3f6e eebd bbce c8ba
00000380: 528a 04be 8848 8c3d 6205 97bc e9b2 10bd
00000390: 9588 ac3d 55b1 1c3d 092c 94bd 6137 ad3c
000003a0: c02d 90ba 5767 d8bc f06b 6a3d 8314 4f3c
000003b0: 4d39 4fbe f6bd 843c 1273 b93b 3952 293e
000003c0: 4421 f0bb 709d 493d b466 c5bd c050 ddbd
000003d0: 039c 00be 8875 9f3d af52 97bd e236 8fbd
000003e0: a9bf f73c 8b52 df3d 63e4 1ebd f7b3 783c
000003f0: 07b2 30bd cdd9 7fbd aadd aebd af08 3e3e
0.049490586 -0.13265061 -0.020641776 -0.065017514 -0.028429205 0.17664672 -0.12515691 0.2126471
-0.003025199 -0.08917953 0.19932206 0.020172056 -0.08858731 -0.28777474 0.06742767 -0.01686298
0.019398164 0.040346727 0.0726843 -0.11079235 -0.003502628 -0.14614321 0.13132301 -0.20903663
-0.034744747 0.02767195 -0.03898934 -0.19935322 0.07049019 -0.022250831 0.14048353 0.09663644
0.013639135 0.030646214 -0.17137863 0.1587621 -0.026215792 -0.26325157 -0.11256051 0.16557448
-0.010239141 -0.025837313 0.019141784 0.009173721 -0.05729974 -0.147573 -0.017776193 -0.006393187
0.14330217 0.12456064 -0.025039777 0.08332219 -0.0144942645 0.0045390865 0.06769989 -0.039089177
0.13413088 0.019217215 -0.28788292 0.08814998 -0.0048646103 0.13557392 -0.11617929 -0.11028757
0.0076357797 -0.056387182 -0.01298761 -0.032860987 -0.059592765 -0.07705864 -0.025677301 -0.065548174
0.017152982 -0.22526446 0.081416465 -0.18397345 -0.12563132 0.054289956 0.06164664 -0.042414058
0.12841974 -0.05305997 -0.12804407 0.13709308 -0.09946693 0.010753103 0.12728648 0.089556925
-0.15101753 -0.057931338 -0.03658285 -0.078438 0.036907297 -0.08900157 -0.009248208 0.06442538
-0.18174541 0.02304328 0.021409385 -0.13578781 -0.039782695 -0.018891685 -0.023969254 -0.11236312
0.04518462 -0.048336927 -0.04415483 -0.07372342 -0.10927491 -0.075111255 -0.033492878 -0.07375928
-0.03718792 0.049089678 -0.13900904 0.19104317 0.05319493 0.17670862 -0.036858622 0.0056243306
-0.0375988 0.01945933 -0.048393153 0.0077857673 -0.09925173 0.03364279 -0.152925 0.27411512
0.00618737 -0.20530628 -0.015826829 -0.07211595 -0.06539827 0.093078405 -0.027071916 0.16979438
0.008566852 -0.10882307 0.2630759 0.1103424 -0.042403895 -0.23609549 0.1798438 0.031853467
0.039792094 0.12385667 0.102202296 0.04461421 0.036715094 -0.021967512 0.021327596 0.051887885
0.1115575 -0.0043132654 -0.03457025 0.043764483 -0.00012904593 0.06066205 0.010431425 0.07928661
0.049174853 0.11102601 -0.13892347 0.10374731 0.014732143 -0.17828368 -0.02941505 0.115904234
-0.0022860353 -0.038380634 -0.0465283 -0.13146995 -0.16038895 -0.08084713 0.065474086 0.20696959
0.17779537 0.11717721 -0.011148992 -0.018821862 -0.034895305 -0.028163778 0.024121983 0.09461244
0.08696233 0.0033792132 -0.15396692 0.118167505 -0.047461312 0.021050671 -0.0039074062 -0.060054746
-0.0015525764 0.029587679 -0.12345321 -0.020953625 -0.10649471 -0.029971963 -0.09082931 -0.15857854
-0.054531943 0.0021794718 0.14615946 0.009433878 0.013290921 0.23133776 0.04519208 -0.13988157
0.25533727 0.019540293 -0.24493887 0.06459624 0.1129041 0.059698604 0.11520045 0.052138012
-0.099386096 0.039594427 -0.040539403 -0.05452069 -0.20201986 -0.1339331 -0.116421215 -0.00153204
-0.1294339 0.06849772 -0.018435184 -0.035326872 0.084244885 0.038255055 -0.072349615 0.02114457
-0.0010999963 -0.026416464 0.057231843 0.012639168 -0.20236702 0.016203862 0.0056594694 0.16535272
-0.0073281843 0.04922241 -0.0963873 -0.108064175 -0.12559514 0.07786089 -0.073888175 -0.0699289
0.030242758 0.10904416 -0.038792025 0.015179626 -0.04313853 -0.06246357 -0.08538373 0.18558

fc_forecast.bias f4 [34]
00000000: 1862 823e 3354 963e 006c 973e 93b6 8f3e
00000010: 489e 873e e35f 9f3e b3de 863e 3242 943e
00000020: b2e5 7a3e ac18 8b3e bb08 673e 6819 823e
00000030: 9537 8b3e 9f9d a33e c3ac 4b3e 755b 8b3e
00000040: c28e 833e 33d2 a13e 3216 7c3e 1ba4 a23e
00000050: 1885 7d3e 2b09 a93e 67c8 7d3e fe5e a93e
00000060: d9f9 943e 85ab c23e 5e36 a33e 8dad b43e
00000070: e6f9 873e fe3a b83e f306 773e 6b7f d53e
00000080: 9468 9b3e 6bfa d83e
0.25465465 0.29361114 0.29574585 0.2806898 0.26487947 0.31127843 0.2634178 0.28956753
0.24501684 0.2716726 0.22561924 0.25410008 0.27190843 0.31956193 0.19890122 0.27218214
0.25694853 0.31605682 0.24617842 0.31765828 0.24757802 0.33014807 0.24783479 0.33080286
0.2909687 0.38021484 0.31877416 0.3528866 0.26557845 0.35982507 0.24123745 0.41698775
0.30353224 0.42378554

fc_class.weight f4 [2, 128]
00000000: 034d b8bd 3f06 093e 4349 17bd 85bd 30bd
00000010: f875 99be 8c09 c43c a9d7 01be 91a9 7ebd
00000020: e8fd 49be 5e12 afbd e5a8 0abe e6a9 82be
00000030: 4188 05be cd6f 2fbd c336 59be dca5 aa3d
00000040: 3659 7cbd c993 aa3e a13a 1dbf ef16 63bd
00000050: ee9d 11bf 47c5 d23d a7b7 c9be 34ce 6c3e
00000060: c6b4 bc3e 5dfb d4bb 0c41 e53e bddd 023e
00000070: 9781 9c3e 89ce e8be 8391 bd3e 121d 543e
00000080: 0f7d 3dbe fee7 a5be f9c4 473d 2d06 7cbd
00000090: eda1 dfbe b21a fbbd e238 0ebe 305b 013d
000000a0: 124d 36be 9e6e d63e e03a 593c 4adb d43e
000000b0: 7e61 aa3d 3a75 52be fac6 3d3d e37e 1bbe
000000c0: 4c35 a7be 0cdb d3bd fad5 5fbe 48b0 d1bd
000000d0: 0351 f63b 0db4 8b3b d11a 8b3c 5b0c 433e
000000e0: cc3b 483e e752 fcbd e632 45be 6ada 253e
000000f0: 5a68 d2be b10d 5a3d e3e6 aabb 16f5 1cbe
00000100: 673d fabe 5c38 dabe 9a58 72bd c6ba cbbe
00000110: 2291 02be c90d 023f 1242 15be 49a3 01bf
00000120: 5754 12be da45 483e 931c fabd b7ba 473d
00000130: 3a9f 77bd 4257 423e c5c9 e0bc bda0 c5be
00000140: edde 48be 16bd 543c 71cd 643d 2ae6 febd
00000150: 4c8f 983d 5966 e13e dc65 f4bd 09ae a8be
00000160: 92e1 f5bd 2558 b73e eb53 a73e 2cfe 073e
00000170: 9643 853c 7a97 883e 09af 8a3e c3dc 123d
00000180: 2c11 a33c 5cc4 303e 3134 5a3e 4911 fa3c
00000190: 8c4f d43e fbb1 64be ae4e f43b 71bd acbe
000001a0: 2ff7 8dbe 763d 1a3e 242b 163d 7d7b 203f
000001b0: 4683 ed3d 21f1 65be e45a 6fbe cf2d a3bd
000001c0: defe 71be 4ef3 8abd 0c18 023e 8ebc 8e3e
000001d0: 0c0d d5be 02f6 743e d15a 353d d68b 983d
000001e0: aa66 9a3e a862 cd3d eab7 9fbe f054 173e
000001f0: c2d7 eabe 8773 0e3f 3f07 593d d758 8f3e
00000200: 6aa5 4d3d 4b16 c8bd a3d2 803d 34b6 f73d
00000210: ce82 463e 72d1 203d d395 ad3d 4469 0d3d
00000220: 2b38 603d 7646 2b3e 7720 083e 91a9 773e
00000230: 4550 d63c 5db6 d2bc 3a78 793e 8843 04be
00000240: 58bd 6e3d 9888 a6be 86b2 203f bfbe c23d
00000250: 8b3c 113f a812 4dbd b467 ed3e 2f12 26be
00000260: b946 aebe 5f61 3ebc bbb6 02bf 95aa 54bd
00000270: fe9b b3be aaed b53e e94e acbe deaf 74be
00000280: c6ef 693d fb2e a73e 342e f4bd 93cf 26bb
00000290: 52fc 043f c770 ea3d bf3c 133e 936e 373d
000002a0: eded 243e e005 d8be 30d6 c7b9 2c6a e0be
000002b0: b1a0 b9bc 4748 a63e 3eba d4bc 0f68 223e
000002c0: 7dcf b83e b1a2 3b3e a4df 2d3e f9b4 d63d
000002d0: 4c35 f13a 36d3 7ebd 99d4 ed3c dc38 53be
000002e0: 23c8 9dbe b28d 273e 4012 933e cb19 09be
000002f0: 805e c63e a4df c4bd e473 cebd 29dd eb3d
00000300: e5cb e63e d2ca ac3e 63db d93d 82e9 ad3e
00000310: 5d3e 053e a3ea 16bf 9df3 6b3e d3ef 223f
00000320: bcae 223e 3b2b 3cbe d906 4c3d a8d2 13be
00000330: b233 033e 5696 25be 00a3 07bd f76e f33e
00000340: 7783 2b3e 9128 ab3d 984a aa3c 3cbd 473e
00000350: 3544 403c 9476 f1be 2e20 fabc 4cc8 8a3e
00000360: 5666 353e a6d4 8bbe 51f1 d0be c447 96be
00000370: 81b3 52bd 1140 adbe 115f a2be 448a d8bd
00000380: afda e0bd 0655 cdbc d485 b2be 3295 cabd
00000390: 929e d7be a4c5 843e 4a11 1cbe e34d 9f3e
000003a0: 5b8c 603e 6bfb 29be 154f abbb 51ab 1dbf
000003b0: 01a2 1ebe 5bdc 413e 6193 853e 624b 593e
000003c0: 5918 1c3e 0ca3 41bc aa0c 8dbd 5bdd 82be
000003d0: df7b a73e 5af0 c1be 07c0 f8bd 9310 64be
000003e0: f83e 88be 240e 71be 34b5 913e ca47 2fbd
000003f0: b95b e83e 5ace f3be e77f bd3c 52aa 63be
-0.08999064 0.13381289 -0.036935102 -0.04314949 -0.29972816 0.023930334 -0.12679924 -0.06217343
-0.19725764 -0.08548425 -0.1354099 -0.25520247 -0.13040258 -0.04283123 -0.21212296 0.083324164
-0.061608516 0.33315876 -0.61417586 -0.055441793 -0.56881607 0.10291534 -0.39397928 0.23125535
0.3685667 -0.0064996914 0.4477619 0.12779899 0.3056762 -0.45470074 0.3702508 0.20714214
-0.18504737 -0.32403558 0.048771832 -0.061529327 -0.43678227 -0.12260951 -0.13888887 0.031581104
-0.17802837 0.4188127 0.013258666 0.41573554 0.083193764 -0.20552531 0.046332337 -0.15185122
-0.3265785 -0.10344514 -0.2185897 -0.10238701 0.0075169816 0.004263407 0.01698056 0.19047682
0.1955406 -0.123205 -0.19257697 0.161966 -0.4109524 0.053235713 -0.005215512 -0.15327868
-0.4887497 -0.42621124 -0.05916653 -0.39790934 -0.12750676 0.50802284 -0.14575985 -0.5063978
-0.14289986 0.19557896 -0.12212481 0.04876205 -0.060454585 0.18978599 -0.027439961 -0.38599196
-0.1961629 0.012984535 0.055859987 -0.12446244 0.07449207 0.44023398 -0.11933491 -0.32945278
-0.12005915 0.35809436 0.32681212 0.13280553 0.016267579 0.26678067 0.27086666 0.035855066
0.01990565 0.17262405 0.21308972 0.03052582 0.4146694 -0.22333519 0.0074556684 -0.33738282
-0.2772765 0.15062508 0.036662236 0.6268843 0.11597304 -0.22455265 -0.23374516 -0.07967722
-0.2363238 -0.06784688 0.12704486 0.2787823 -0.41611516 0.2392197 0.044276062 0.074485466
0.3015645 0.10028583 -0.31195003 0.14778495 -0.45867735 0.5564503 0.052985426 0.27997467
0.05020658 -0.09769877 0.06290176 0.12095299 0.19385836 0.039262243 0.08475842 0.034524217
0.054741066 0.16726097 0.13293634 0.24185778 0.026161322 -0.025721723 0.24362269 -0.12916386
0.05828604 -0.32526088 0.62772405 0.09509038 0.56733006 -0.05006662 0.46368182 -0.16217874
-0.34038332 -0.011619895 -0.51060075 -0.051920492 -0.3507995 0.35532886 -0.33653954 -0.23895213
0.05711343 0.3265303 -0.11922875 -0.0025453314 0.5194751 0.11447292 0.14378642 0.044783186
0.16106386 -0.42191982 -0.0003811582 -0.43831003 -0.022659631 0.32477018 -0.025967713 0.15860008
0.360958 0.1832378 0.16979843 0.104837365 0.0018402725 -0.062213145 0.029032039 -0.20627159
-0.30816755 0.16362646 0.2872486 -0.13388745 0.38743973 -0.096129686 -0.10080698 0.11516792
0.45077434 0.3374849 0.10637548 0.33967215 0.13012071 -0.5895178 0.2304215 0.6364719
0.15886968 -0.18375866 0.049811218 -0.14435828 0.12812689 -0.1617063 -0.033114433 0.47545597
0.16749369 0.08357347 0.020787522 0.19505781 0.011735012 -0.4716078 -0.030532923 0.2710594
0.1771482 -0.27310675 -0.4080911 -0.29351628 -0.05144072 -0.3383794 -0.31713155 -0.10573247
-0.109792106 -0.025064956 -0.34867728 -0.09891738 -0.42113167 0.25932038 -0.1524097 0.3111411
0.21928541 -0.16599815 -0.005227933 -0.61589533 -0.15491487 0.18931715 0.26089004 0.21220163
0.15243663 -0.011818659 -0.06887181 -0.25559506 0.32711694 -0.37878686 -0.12146001 -0.22271948
-0.2661054 -0.2354055 0.2845856 -0.042793073 0.4538248 -0.4761837 0.023132278 -0.22232941

fc_class.bias f4 [2]
00000000: 71aa f53d 7689 f63c
0.119954 0.030094843
